func.func @predict(%arg0: !iree_input.buffer_view, %arg1: !iree_input.buffer_view loc(unknown), %arg2: !iree_input.buffer_view loc(unknown)) -> (!iree_input.buffer_view, !iree_input.buffer_view) attributes {iree.abi = "{\22a\22:[[\22ndarray\22,\22i32\22,2,1,512],[\22ndarray\22,\22i32\22,2,1,512],[\22ndarray\22,\22i32\22,2,1,512]],\22r\22:[[\22sdict\22,[\22last_hidden_state\22,[\22ndarray\22,\22f32\22,3,1,512,384]],[\22pooler_output\22,[\22ndarray\22,\22f32\22,2,1,384]]]],\22v\22:1}"} {
  %0 = iree_input.cast.buffer_view_to_tensor %arg0 : !iree_input.buffer_view -> tensor<1x512xi32>
  %1 = iree_input.cast.buffer_view_to_tensor %arg1 : !iree_input.buffer_view -> tensor<1x512xi32>
  %2 = iree_input.cast.buffer_view_to_tensor %arg2 : !iree_input.buffer_view -> tensor<1x512xi32>
  %3:2 = call @__inference_predict_63530(%0, %1, %2) : (tensor<1x512xi32>, tensor<1x512xi32>, tensor<1x512xi32>) -> (tensor<1x512x384xf32>, tensor<1x384xf32>)
  %4 = iree_input.cast.tensor_to_buffer_view %3#0 : tensor<1x512x384xf32> -> !iree_input.buffer_view
  %5 = iree_input.cast.tensor_to_buffer_view %3#1 : tensor<1x384xf32> -> !iree_input.buffer_view
  return %4, %5 : !iree_input.buffer_view, !iree_input.buffer_view
}

func.func private @__inference_predict_63530(%arg0: tensor<1x512xi32> {tf._user_specified_name = "input_ids"}, %arg1: tensor<1x512xi32> {tf._user_specified_name = "attention_mask"} loc(unknown), %arg2: tensor<1x512xi32> {tf._user_specified_name = "token_type_ids"} loc(unknown)) -> (tensor<1x512x384xf32>, tensor<1x384xf32>) attributes {tf._construction_context = "kEagerRuntime", tf._input_shapes = [#tf_type.shape<1x512>, #tf_type.shape<1x512>, #tf_type.shape<1x512>, #tf_type.shape<>, #tf_type.shape<>, #tf_type.shape<>, #tf_type.shape<>, #tf_type.shape<>, #tf_type.shape<>, #tf_type.shape<>, #tf_type.shape<>, #tf_type.shape<>, #tf_type.shape<>, #tf_type.shape<>, #tf_type.shape<>, #tf_type.shape<>, #tf_type.shape<>, #tf_type.shape<>, #tf_type.shape<>, #tf_type.shape<>, #tf_type.shape<>, #tf_type.shape<>, #tf_type.shape<>, #tf_type.shape<>, #tf_type.shape<>, #tf_type.shape<>, #tf_type.shape<>, #tf_type.shape<>, #tf_type.shape<>, #tf_type.shape<>, #tf_type.shape<>, #tf_type.shape<>, #tf_type.shape<>, #tf_type.shape<>, #tf_type.shape<>, #tf_type.shape<>, #tf_type.shape<>, #tf_type.shape<>, #tf_type.shape<>, #tf_type.shape<>, #tf_type.shape<>, #tf_type.shape<>, #tf_type.shape<>, #tf_type.shape<>, #tf_type.shape<>, #tf_type.shape<>, #tf_type.shape<>, #tf_type.shape<>, #tf_type.shape<>, #tf_type.shape<>, #tf_type.shape<>, #tf_type.shape<>, #tf_type.shape<>, #tf_type.shape<>, #tf_type.shape<>, #tf_type.shape<>, #tf_type.shape<>, #tf_type.shape<>, #tf_type.shape<>, #tf_type.shape<>, #tf_type.shape<>, #tf_type.shape<>, #tf_type.shape<>, #tf_type.shape<>, #tf_type.shape<>, #tf_type.shape<>, #tf_type.shape<>, #tf_type.shape<>, #tf_type.shape<>, #tf_type.shape<>, #tf_type.shape<>, #tf_type.shape<>, #tf_type.shape<>, #tf_type.shape<>, #tf_type.shape<>, #tf_type.shape<>, #tf_type.shape<>, #tf_type.shape<>, #tf_type.shape<>, #tf_type.shape<>, #tf_type.shape<>, #tf_type.shape<>, #tf_type.shape<>, #tf_type.shape<>, #tf_type.shape<>, #tf_type.shape<>, #tf_type.shape<>, #tf_type.shape<>, #tf_type.shape<>, #tf_type.shape<>, #tf_type.shape<>, #tf_type.shape<>, #tf_type.shape<>, #tf_type.shape<>, #tf_type.shape<>, #tf_type.shape<>, #tf_type.shape<>, #tf_type.shape<>, #tf_type.shape<>, #tf_type.shape<>, #tf_type.shape<>, #tf_type.shape<>, #tf_type.shape<>, #tf_type.shape<>, #tf_type.shape<>, #tf_type.shape<>, #tf_type.shape<>, #tf_type.shape<>, #tf_type.shape<>, #tf_type.shape<>, #tf_type.shape<>, #tf_type.shape<>, #tf_type.shape<>, #tf_type.shape<>, #tf_type.shape<>, #tf_type.shape<>, #tf_type.shape<>, #tf_type.shape<>, #tf_type.shape<>, #tf_type.shape<>, #tf_type.shape<>, #tf_type.shape<>, #tf_type.shape<>, #tf_type.shape<>, #tf_type.shape<>, #tf_type.shape<>, #tf_type.shape<>, #tf_type.shape<>, #tf_type.shape<>, #tf_type.shape<>, #tf_type.shape<>, #tf_type.shape<>, #tf_type.shape<>, #tf_type.shape<>, #tf_type.shape<>, #tf_type.shape<>, #tf_type.shape<>, #tf_type.shape<>, #tf_type.shape<>, #tf_type.shape<>, #tf_type.shape<>, #tf_type.shape<>, #tf_type.shape<>, #tf_type.shape<>, #tf_type.shape<>, #tf_type.shape<>, #tf_type.shape<>, #tf_type.shape<>, #tf_type.shape<>, #tf_type.shape<>, #tf_type.shape<>, #tf_type.shape<>, #tf_type.shape<>, #tf_type.shape<>, #tf_type.shape<>, #tf_type.shape<>, #tf_type.shape<>, #tf_type.shape<>, #tf_type.shape<>, #tf_type.shape<>, #tf_type.shape<>, #tf_type.shape<>, #tf_type.shape<>, #tf_type.shape<>, #tf_type.shape<>, #tf_type.shape<>, #tf_type.shape<>, #tf_type.shape<>, #tf_type.shape<>, #tf_type.shape<>, #tf_type.shape<>, #tf_type.shape<>, #tf_type.shape<>, #tf_type.shape<>, #tf_type.shape<>, #tf_type.shape<>, #tf_type.shape<>, #tf_type.shape<>, #tf_type.shape<>, #tf_type.shape<>, #tf_type.shape<>, #tf_type.shape<>, #tf_type.shape<>, #tf_type.shape<>, #tf_type.shape<>, #tf_type.shape<>, #tf_type.shape<>, #tf_type.shape<>, #tf_type.shape<>, #tf_type.shape<>, #tf_type.shape<>, #tf_type.shape<>, #tf_type.shape<>, #tf_type.shape<>, #tf_type.shape<>, #tf_type.shape<>, #tf_type.shape<>, #tf_type.shape<>, #tf_type.shape<>, #tf_type.shape<>, #tf_type.shape<>, #tf_type.shape<>], tf.signature.is_stateful} {
  %cst = arith.constant dense<3.840000e+02> : tensor<f32>
  %cst_0 = arith.constant dense<0xFF800000> : tensor<f32>
  %cst_1 = arith.constant dense<-0.000000e+00> : tensor<f32>
  %cst_2 = arith.constant dense<-1.000000e+04> : tensor<f32>
  %cst_3 = arith.constant dense<1.000000e+00> : tensor<f32>
  %cst_4 = arith.constant dense<9.99999996E-13> : tensor<f32>
  %cst_5 = arith.constant dense<9.99999971E-10> : tensor<f32>
  %cst_6 = arith.constant dense<5.000000e-01> : tensor<f32>
  %cst_7 = arith.constant dense<0.707106769> : tensor<f32>
  %cst_8 = arith.constant dense<0.176776692> : tensor<f32>
  %cst_9 = arith.constant dense<"…"> : tensor<1x512xi32>
  %0 = tensor.expand_shape %arg1 [[0], [1, 2, 3]] : tensor<1x512xi32> into tensor<1x1x1x512xi32>
  %1 = linalg.init_tensor [1, 1, 1, 512] : tensor<1x1x1x512xf32>
  %2 = linalg.generic {indexing_maps = [affine_map<(d0, d1, d2, d3) -> (d0, d1, d2, d3)>, affine_map<(d0, d1, d2, d3) -> (d0, d1, d2, d3)>], iterator_types = ["parallel", "parallel", "parallel", "parallel"]} ins(%0 : tensor<1x1x1x512xi32>) outs(%1 : tensor<1x1x1x512xf32>) {
  ^bb0(%arg3: i32):
    %3531 = arith.sitofp %arg3 : i32 to f32
    linalg.yield %3531 : f32
  } -> tensor<1x1x1x512xf32>
  %3 = linalg.init_tensor [1, 1, 1, 512] : tensor<1x1x1x512xf32>
  %4 = linalg.generic {indexing_maps = [affine_map<(d0, d1, d2, d3) -> ()>, affine_map<(d0, d1, d2, d3) -> (d0, d1, d2, d3)>], iterator_types = ["parallel", "parallel", "parallel", "parallel"]} ins(%cst_3 : tensor<f32>) outs(%3 : tensor<1x1x1x512xf32>) {
  ^bb0(%arg3: f32):
    linalg.yield %arg3 : f32
  } -> tensor<1x1x1x512xf32>
  %5 = linalg.init_tensor [1, 1, 1, 512] : tensor<1x1x1x512xf32>
  %6 = linalg.generic {indexing_maps = [affine_map<(d0, d1, d2, d3) -> (d0, d1, d2, d3)>, affine_map<(d0, d1, d2, d3) -> (d0, d1, d2, d3)>, affine_map<(d0, d1, d2, d3) -> (d0, d1, d2, d3)>], iterator_types = ["parallel", "parallel", "parallel", "parallel"]} ins(%4, %2 : tensor<1x1x1x512xf32>, tensor<1x1x1x512xf32>) outs(%5 : tensor<1x1x1x512xf32>) {
  ^bb0(%arg3: f32):
    %3531 = arith.subf %arg3, %arg4 : f32
    linalg.yield %3531 : f32
  } -> tensor<1x1x1x512xf32>
  %7 = linalg.init_tensor [1, 1, 1, 512] : tensor<1x1x1x512xf32>
  %8 = linalg.generic {indexing_maps = [affine_map<(d0, d1, d2, d3) -> ()>, affine_map<(d0, d1, d2, d3) -> (d0, d1, d2, d3)>], iterator_types = ["parallel", "parallel", "parallel", "parallel"]} ins(%cst_2 : tensor<f32>) outs(%7 : tensor<1x1x1x512xf32>) {
  ^bb0(%arg3: f32):
    linalg.yield %arg3 : f32
  } -> tensor<1x1x1x512xf32>
  %9 = linalg.init_tensor [1, 1, 1, 512] : tensor<1x1x1x512xf32>
  %10 = linalg.generic {indexing_maps = [affine_map<(d0, d1, d2, d3) -> (d0, d1, d2, d3)>, affine_map<(d0, d1, d2, d3) -> (d0, d1, d2, d3)>, affine_map<(d0, d1, d2, d3) -> (d0, d1, d2, d3)>], iterator_types = ["parallel", "parallel", "parallel", "parallel"]} ins(%6, %8 : tensor<1x1x1x512xf32>, tensor<1x1x1x512xf32>) outs(%9 : tensor<1x1x1x512xf32>) {
  ^bb0(%arg3: f32):
    %3531 = arith.mulf %arg3, %arg4 : f32
    linalg.yield %3531 : f32
  } -> tensor<1x1x1x512xf32>
  %11 = ml_program.global_load @__sm_node17__m.bert.embeddings.embeddings : tensor<512x384xf32>
  %12 = linalg.init_tensor [384] : tensor<384xf32>
  %13 = linalg.init_tensor [1, 512, 384] : tensor<1x512x384xf32>
  %14 = linalg.generic {indexing_maps = [affine_map<(d0, d1, d2) -> (d0, d1)>, affine_map<(d0, d1, d2) -> (d2)>, affine_map<(d0, d1, d2) -> (d0, d1, d2)>], iterator_types = ["parallel", "parallel", "parallel"]} ins(%cst_9, %12 : tensor<1x512xi32>, tensor<384xf32>) outs(%13 : tensor<1x512x384xf32>) {
  ^bb0(%arg3: i32):
    %3531 = arith.index_cast %arg3 : i32 to index
    %3532 = linalg.index 2 : index
    %3533 = tensor.extract %11[%3531, %3532] : tensor<512x384xf32>
    linalg.yield %3533 : f32
  } -> tensor<1x512x384xf32>
  %15 = ml_program.global_load @__sm_node18__m.bert.embeddings.LayerNorm.gamma : tensor<384xf32>
  %16 = ml_program.global_load @__sm_node19__m.bert.embeddings.LayerNorm.beta : tensor<384xf32>
  %17 = ml_program.global_load @__sm_node27__m.bert.encoder.layer.0.attention.dense_output.dense.bias : tensor<384xf32>
  %18 = ml_program.global_load @__sm_node26__m.bert.encoder.layer.0.attention.dense_output.dense.kernel : tensor<384x384xf32>
  %19 = ml_program.global_load @__sm_node28__m.bert.encoder.layer.0.attention.dense_output.LayerNorm.gamma : tensor<384xf32>
  %20 = ml_program.global_load @__sm_node29__m.bert.encoder.layer.0.attention.dense_output.LayerNorm.beta : tensor<384xf32>
  %21 = ml_program.global_load @__sm_node23__m.bert.encoder.layer.0.attention.self_attention.key.bias : tensor<384xf32>
  %22 = ml_program.global_load @__sm_node22__m.bert.encoder.layer.0.attention.self_attention.key.kernel : tensor<384x384xf32>
  %23 = ml_program.global_load @__sm_node21__m.bert.encoder.layer.0.attention.self_attention.query.bias : tensor<384xf32>
  %24 = ml_program.global_load @__sm_node20__m.bert.encoder.layer.0.attention.self_attention.query.kernel : tensor<384x384xf32>
  %25 = ml_program.global_load @__sm_node25__m.bert.encoder.layer.0.attention.self_attention.value.bias : tensor<384xf32>
  %26 = ml_program.global_load @__sm_node24__m.bert.encoder.layer.0.attention.self_attention.value.kernel : tensor<384x384xf32>
  %27 = ml_program.global_load @__sm_node31__m.bert.encoder.layer.0.intermediate.dense.bias : tensor<1536xf32>
  %28 = ml_program.global_load @__sm_node30__m.bert.encoder.layer.0.intermediate.dense.kernel : tensor<384x1536xf32>
  %29 = ml_program.global_load @__sm_node33__m.bert.encoder.layer.0.bert_output.dense.bias : tensor<384xf32>
  %30 = ml_program.global_load @__sm_node32__m.bert.encoder.layer.0.bert_output.dense.kernel : tensor<1536x384xf32>
  %31 = ml_program.global_load @__sm_node34__m.bert.encoder.layer.0.bert_output.LayerNorm.gamma : tensor<384xf32>
  %32 = ml_program.global_load @__sm_node35__m.bert.encoder.layer.0.bert_output.LayerNorm.beta : tensor<384xf32>
  %33 = ml_program.global_load @__sm_node187__m.bert.encoder.layer.10.attention.dense_output.dense.bias : tensor<384xf32>
  %34 = ml_program.global_load @__sm_node186__m.bert.encoder.layer.10.attention.dense_output.dense.kernel : tensor<384x384xf32>
  %35 = ml_program.global_load @__sm_node188__m.bert.encoder.layer.10.attention.dense_output.LayerNorm.gamma : tensor<384xf32>
  %36 = ml_program.global_load @__sm_node189__m.bert.encoder.layer.10.attention.dense_output.LayerNorm.beta : tensor<384xf32>
  %37 = ml_program.global_load @__sm_node183__m.bert.encoder.layer.10.attention.self_attention.key.bias : tensor<384xf32>
  %38 = ml_program.global_load @__sm_node182__m.bert.encoder.layer.10.attention.self_attention.key.kernel : tensor<384x384xf32>
  %39 = ml_program.global_load @__sm_node181__m.bert.encoder.layer.10.attention.self_attention.query.bias : tensor<384xf32>
  %40 = ml_program.global_load @__sm_node180__m.bert.encoder.layer.10.attention.self_attention.query.kernel : tensor<384x384xf32>
  %41 = ml_program.global_load @__sm_node185__m.bert.encoder.layer.10.attention.self_attention.value.bias : tensor<384xf32>
  %42 = ml_program.global_load @__sm_node184__m.bert.encoder.layer.10.attention.self_attention.value.kernel : tensor<384x384xf32>
  %43 = ml_program.global_load @__sm_node191__m.bert.encoder.layer.10.intermediate.dense.bias : tensor<1536xf32>
  %44 = ml_program.global_load @__sm_node190__m.bert.encoder.layer.10.intermediate.dense.kernel : tensor<384x1536xf32>
  %45 = ml_program.global_load @__sm_node193__m.bert.encoder.layer.10.bert_output.dense.bias : tensor<384xf32>
  %46 = ml_program.global_load @__sm_node192__m.bert.encoder.layer.10.bert_output.dense.kernel : tensor<1536x384xf32>
  %47 = ml_program.global_load @__sm_node194__m.bert.encoder.layer.10.bert_output.LayerNorm.gamma : tensor<384xf32>
  %48 = ml_program.global_load @__sm_node195__m.bert.encoder.layer.10.bert_output.LayerNorm.beta : tensor<384xf32>
  %49 = ml_program.global_load @__sm_node203__m.bert.encoder.layer.11.attention.dense_output.dense.bias : tensor<384xf32>
  %50 = ml_program.global_load @__sm_node202__m.bert.encoder.layer.11.attention.dense_output.dense.kernel : tensor<384x384xf32>
  %51 = ml_program.global_load @__sm_node204__m.bert.encoder.layer.11.attention.dense_output.LayerNorm.gamma : tensor<384xf32>
  %52 = ml_program.global_load @__sm_node205__m.bert.encoder.layer.11.attention.dense_output.LayerNorm.beta : tensor<384xf32>
  %53 = ml_program.global_load @__sm_node199__m.bert.encoder.layer.11.attention.self_attention.key.bias : tensor<384xf32>
  %54 = ml_program.global_load @__sm_node198__m.bert.encoder.layer.11.attention.self_attention.key.kernel : tensor<384x384xf32>
  %55 = ml_program.global_load @__sm_node197__m.bert.encoder.layer.11.attention.self_attention.query.bias : tensor<384xf32>
  %56 = ml_program.global_load @__sm_node196__m.bert.encoder.layer.11.attention.self_attention.query.kernel : tensor<384x384xf32>
  %57 = ml_program.global_load @__sm_node201__m.bert.encoder.layer.11.attention.self_attention.value.bias : tensor<384xf32>
  %58 = ml_program.global_load @__sm_node200__m.bert.encoder.layer.11.attention.self_attention.value.kernel : tensor<384x384xf32>
  %59 = ml_program.global_load @__sm_node207__m.bert.encoder.layer.11.intermediate.dense.bias : tensor<1536xf32>
  %60 = ml_program.global_load @__sm_node206__m.bert.encoder.layer.11.intermediate.dense.kernel : tensor<384x1536xf32>
  %61 = ml_program.global_load @__sm_node209__m.bert.encoder.layer.11.bert_output.dense.bias : tensor<384xf32>
  %62 = ml_program.global_load @__sm_node208__m.bert.encoder.layer.11.bert_output.dense.kernel : tensor<1536x384xf32>
  %63 = ml_program.global_load @__sm_node210__m.bert.encoder.layer.11.bert_output.LayerNorm.gamma : tensor<384xf32>
  %64 = ml_program.global_load @__sm_node211__m.bert.encoder.layer.11.bert_output.LayerNorm.beta : tensor<384xf32>
  %65 = ml_program.global_load @__sm_node43__m.bert.encoder.layer.1.attention.dense_output.dense.bias : tensor<384xf32>
  %66 = ml_program.global_load @__sm_node42__m.bert.encoder.layer.1.attention.dense_output.dense.kernel : tensor<384x384xf32>
  %67 = ml_program.global_load @__sm_node44__m.bert.encoder.layer.1.attention.dense_output.LayerNorm.gamma : tensor<384xf32>
  %68 = ml_program.global_load @__sm_node45__m.bert.encoder.layer.1.attention.dense_output.LayerNorm.beta : tensor<384xf32>
  %69 = ml_program.global_load @__sm_node39__m.bert.encoder.layer.1.attention.self_attention.key.bias : tensor<384xf32>
  %70 = ml_program.global_load @__sm_node38__m.bert.encoder.layer.1.attention.self_attention.key.kernel : tensor<384x384xf32>
  %71 = ml_program.global_load @__sm_node37__m.bert.encoder.layer.1.attention.self_attention.query.bias : tensor<384xf32>
  %72 = ml_program.global_load @__sm_node36__m.bert.encoder.layer.1.attention.self_attention.query.kernel : tensor<384x384xf32>
  %73 = ml_program.global_load @__sm_node41__m.bert.encoder.layer.1.attention.self_attention.value.bias : tensor<384xf32>
  %74 = ml_program.global_load @__sm_node40__m.bert.encoder.layer.1.attention.self_attention.value.kernel : tensor<384x384xf32>
  %75 = ml_program.global_load @__sm_node47__m.bert.encoder.layer.1.intermediate.dense.bias : tensor<1536xf32>
  %76 = ml_program.global_load @__sm_node46__m.bert.encoder.layer.1.intermediate.dense.kernel : tensor<384x1536xf32>
  %77 = ml_program.global_load @__sm_node49__m.bert.encoder.layer.1.bert_output.dense.bias : tensor<384xf32>
  %78 = ml_program.global_load @__sm_node48__m.bert.encoder.layer.1.bert_output.dense.kernel : tensor<1536x384xf32>
  %79 = ml_program.global_load @__sm_node50__m.bert.encoder.layer.1.bert_output.LayerNorm.gamma : tensor<384xf32>
  %80 = ml_program.global_load @__sm_node51__m.bert.encoder.layer.1.bert_output.LayerNorm.beta : tensor<384xf32>
  %81 = ml_program.global_load @__sm_node59__m.bert.encoder.layer.2.attention.dense_output.dense.bias : tensor<384xf32>
  %82 = ml_program.global_load @__sm_node58__m.bert.encoder.layer.2.attention.dense_output.dense.kernel : tensor<384x384xf32>
  %83 = ml_program.global_load @__sm_node60__m.bert.encoder.layer.2.attention.dense_output.LayerNorm.gamma : tensor<384xf32>
  %84 = ml_program.global_load @__sm_node61__m.bert.encoder.layer.2.attention.dense_output.LayerNorm.beta : tensor<384xf32>
  %85 = ml_program.global_load @__sm_node55__m.bert.encoder.layer.2.attention.self_attention.key.bias : tensor<384xf32>
  %86 = ml_program.global_load @__sm_node54__m.bert.encoder.layer.2.attention.self_attention.key.kernel : tensor<384x384xf32>
  %87 = ml_program.global_load @__sm_node53__m.bert.encoder.layer.2.attention.self_attention.query.bias : tensor<384xf32>
  %88 = ml_program.global_load @__sm_node52__m.bert.encoder.layer.2.attention.self_attention.query.kernel : tensor<384x384xf32>
  %89 = ml_program.global_load @__sm_node57__m.bert.encoder.layer.2.attention.self_attention.value.bias : tensor<384xf32>
  %90 = ml_program.global_load @__sm_node56__m.bert.encoder.layer.2.attention.self_attention.value.kernel : tensor<384x384xf32>
  %91 = ml_program.global_load @__sm_node63__m.bert.encoder.layer.2.intermediate.dense.bias : tensor<1536xf32>
  %92 = ml_program.global_load @__sm_node62__m.bert.encoder.layer.2.intermediate.dense.kernel : tensor<384x1536xf32>
  %93 = ml_program.global_load @__sm_node65__m.bert.encoder.layer.2.bert_output.dense.bias : tensor<384xf32>
  %94 = ml_program.global_load @__sm_node64__m.bert.encoder.layer.2.bert_output.dense.kernel : tensor<1536x384xf32>
  %95 = ml_program.global_load @__sm_node66__m.bert.encoder.layer.2.bert_output.LayerNorm.gamma : tensor<384xf32>
  %96 = ml_program.global_load @__sm_node67__m.bert.encoder.layer.2.bert_output.LayerNorm.beta : tensor<384xf32>
  %97 = ml_program.global_load @__sm_node75__m.bert.encoder.layer.3.attention.dense_output.dense.bias : tensor<384xf32>
  %98 = ml_program.global_load @__sm_node74__m.bert.encoder.layer.3.attention.dense_output.dense.kernel : tensor<384x384xf32>
  %99 = ml_program.global_load @__sm_node76__m.bert.encoder.layer.3.attention.dense_output.LayerNorm.gamma : tensor<384xf32>
  %100 = ml_program.global_load @__sm_node77__m.bert.encoder.layer.3.attention.dense_output.LayerNorm.beta : tensor<384xf32>
  %101 = ml_program.global_load @__sm_node71__m.bert.encoder.layer.3.attention.self_attention.key.bias : tensor<384xf32>
  %102 = ml_program.global_load @__sm_node70__m.bert.encoder.layer.3.attention.self_attention.key.kernel : tensor<384x384xf32>
  %103 = ml_program.global_load @__sm_node69__m.bert.encoder.layer.3.attention.self_attention.query.bias : tensor<384xf32>
  %104 = ml_program.global_load @__sm_node68__m.bert.encoder.layer.3.attention.self_attention.query.kernel : tensor<384x384xf32>
  %105 = ml_program.global_load @__sm_node73__m.bert.encoder.layer.3.attention.self_attention.value.bias : tensor<384xf32>
  %106 = ml_program.global_load @__sm_node72__m.bert.encoder.layer.3.attention.self_attention.value.kernel : tensor<384x384xf32>
  %107 = ml_program.global_load @__sm_node79__m.bert.encoder.layer.3.intermediate.dense.bias : tensor<1536xf32>
  %108 = ml_program.global_load @__sm_node78__m.bert.encoder.layer.3.intermediate.dense.kernel : tensor<384x1536xf32>
  %109 = ml_program.global_load @__sm_node81__m.bert.encoder.layer.3.bert_output.dense.bias : tensor<384xf32>
  %110 = ml_program.global_load @__sm_node80__m.bert.encoder.layer.3.bert_output.dense.kernel : tensor<1536x384xf32>
  %111 = ml_program.global_load @__sm_node82__m.bert.encoder.layer.3.bert_output.LayerNorm.gamma : tensor<384xf32>
  %112 = ml_program.global_load @__sm_node83__m.bert.encoder.layer.3.bert_output.LayerNorm.beta : tensor<384xf32>
  %113 = ml_program.global_load @__sm_node91__m.bert.encoder.layer.4.attention.dense_output.dense.bias : tensor<384xf32>
  %114 = ml_program.global_load @__sm_node90__m.bert.encoder.layer.4.attention.dense_output.dense.kernel : tensor<384x384xf32>
  %115 = ml_program.global_load @__sm_node92__m.bert.encoder.layer.4.attention.dense_output.LayerNorm.gamma : tensor<384xf32>
  %116 = ml_program.global_load @__sm_node93__m.bert.encoder.layer.4.attention.dense_output.LayerNorm.beta : tensor<384xf32>
  %117 = ml_program.global_load @__sm_node87__m.bert.encoder.layer.4.attention.self_attention.key.bias : tensor<384xf32>
  %118 = ml_program.global_load @__sm_node86__m.bert.encoder.layer.4.attention.self_attention.key.kernel : tensor<384x384xf32>
  %119 = ml_program.global_load @__sm_node85__m.bert.encoder.layer.4.attention.self_attention.query.bias : tensor<384xf32>
  %120 = ml_program.global_load @__sm_node84__m.bert.encoder.layer.4.attention.self_attention.query.kernel : tensor<384x384xf32>
  %121 = ml_program.global_load @__sm_node89__m.bert.encoder.layer.4.attention.self_attention.value.bias : tensor<384xf32>
  %122 = ml_program.global_load @__sm_node88__m.bert.encoder.layer.4.attention.self_attention.value.kernel : tensor<384x384xf32>
  %123 = ml_program.global_load @__sm_node95__m.bert.encoder.layer.4.intermediate.dense.bias : tensor<1536xf32>
  %124 = ml_program.global_load @__sm_node94__m.bert.encoder.layer.4.intermediate.dense.kernel : tensor<384x1536xf32>
  %125 = ml_program.global_load @__sm_node97__m.bert.encoder.layer.4.bert_output.dense.bias : tensor<384xf32>
  %126 = ml_program.global_load @__sm_node96__m.bert.encoder.layer.4.bert_output.dense.kernel : tensor<1536x384xf32>
  %127 = ml_program.global_load @__sm_node98__m.bert.encoder.layer.4.bert_output.LayerNorm.gamma : tensor<384xf32>
  %128 = ml_program.global_load @__sm_node99__m.bert.encoder.layer.4.bert_output.LayerNorm.beta : tensor<384xf32>
  %129 = ml_program.global_load @__sm_node107__m.bert.encoder.layer.5.attention.dense_output.dense.bias : tensor<384xf32>
  %130 = ml_program.global_load @__sm_node106__m.bert.encoder.layer.5.attention.dense_output.dense.kernel : tensor<384x384xf32>
  %131 = ml_program.global_load @__sm_node108__m.bert.encoder.layer.5.attention.dense_output.LayerNorm.gamma : tensor<384xf32>
  %132 = ml_program.global_load @__sm_node109__m.bert.encoder.layer.5.attention.dense_output.LayerNorm.beta : tensor<384xf32>
  %133 = ml_program.global_load @__sm_node103__m.bert.encoder.layer.5.attention.self_attention.key.bias : tensor<384xf32>
  %134 = ml_program.global_load @__sm_node102__m.bert.encoder.layer.5.attention.self_attention.key.kernel : tensor<384x384xf32>
  %135 = ml_program.global_load @__sm_node101__m.bert.encoder.layer.5.attention.self_attention.query.bias : tensor<384xf32>
  %136 = ml_program.global_load @__sm_node100__m.bert.encoder.layer.5.attention.self_attention.query.kernel : tensor<384x384xf32>
  %137 = ml_program.global_load @__sm_node105__m.bert.encoder.layer.5.attention.self_attention.value.bias : tensor<384xf32>
  %138 = ml_program.global_load @__sm_node104__m.bert.encoder.layer.5.attention.self_attention.value.kernel : tensor<384x384xf32>
  %139 = ml_program.global_load @__sm_node111__m.bert.encoder.layer.5.intermediate.dense.bias : tensor<1536xf32>
  %140 = ml_program.global_load @__sm_node110__m.bert.encoder.layer.5.intermediate.dense.kernel : tensor<384x1536xf32>
  %141 = ml_program.global_load @__sm_node113__m.bert.encoder.layer.5.bert_output.dense.bias : tensor<384xf32>
  %142 = ml_program.global_load @__sm_node112__m.bert.encoder.layer.5.bert_output.dense.kernel : tensor<1536x384xf32>
  %143 = ml_program.global_load @__sm_node114__m.bert.encoder.layer.5.bert_output.LayerNorm.gamma : tensor<384xf32>
  %144 = ml_program.global_load @__sm_node115__m.bert.encoder.layer.5.bert_output.LayerNorm.beta : tensor<384xf32>
  %145 = ml_program.global_load @__sm_node123__m.bert.encoder.layer.6.attention.dense_output.dense.bias : tensor<384xf32>
  %146 = ml_program.global_load @__sm_node122__m.bert.encoder.layer.6.attention.dense_output.dense.kernel : tensor<384x384xf32>
  %147 = ml_program.global_load @__sm_node124__m.bert.encoder.layer.6.attention.dense_output.LayerNorm.gamma : tensor<384xf32>
  %148 = ml_program.global_load @__sm_node125__m.bert.encoder.layer.6.attention.dense_output.LayerNorm.beta : tensor<384xf32>
  %149 = ml_program.global_load @__sm_node119__m.bert.encoder.layer.6.attention.self_attention.key.bias : tensor<384xf32>
  %150 = ml_program.global_load @__sm_node118__m.bert.encoder.layer.6.attention.self_attention.key.kernel : tensor<384x384xf32>
  %151 = ml_program.global_load @__sm_node117__m.bert.encoder.layer.6.attention.self_attention.query.bias : tensor<384xf32>
  %152 = ml_program.global_load @__sm_node116__m.bert.encoder.layer.6.attention.self_attention.query.kernel : tensor<384x384xf32>
  %153 = ml_program.global_load @__sm_node121__m.bert.encoder.layer.6.attention.self_attention.value.bias : tensor<384xf32>
  %154 = ml_program.global_load @__sm_node120__m.bert.encoder.layer.6.attention.self_attention.value.kernel : tensor<384x384xf32>
  %155 = ml_program.global_load @__sm_node127__m.bert.encoder.layer.6.intermediate.dense.bias : tensor<1536xf32>
  %156 = ml_program.global_load @__sm_node126__m.bert.encoder.layer.6.intermediate.dense.kernel : tensor<384x1536xf32>
  %157 = ml_program.global_load @__sm_node129__m.bert.encoder.layer.6.bert_output.dense.bias : tensor<384xf32>
  %158 = ml_program.global_load @__sm_node128__m.bert.encoder.layer.6.bert_output.dense.kernel : tensor<1536x384xf32>
  %159 = ml_program.global_load @__sm_node130__m.bert.encoder.layer.6.bert_output.LayerNorm.gamma : tensor<384xf32>
  %160 = ml_program.global_load @__sm_node131__m.bert.encoder.layer.6.bert_output.LayerNorm.beta : tensor<384xf32>
  %161 = ml_program.global_load @__sm_node139__m.bert.encoder.layer.7.attention.dense_output.dense.bias : tensor<384xf32>
  %162 = ml_program.global_load @__sm_node138__m.bert.encoder.layer.7.attention.dense_output.dense.kernel : tensor<384x384xf32>
  %163 = ml_program.global_load @__sm_node140__m.bert.encoder.layer.7.attention.dense_output.LayerNorm.gamma : tensor<384xf32>
  %164 = ml_program.global_load @__sm_node141__m.bert.encoder.layer.7.attention.dense_output.LayerNorm.beta : tensor<384xf32>
  %165 = ml_program.global_load @__sm_node135__m.bert.encoder.layer.7.attention.self_attention.key.bias : tensor<384xf32>
  %166 = ml_program.global_load @__sm_node134__m.bert.encoder.layer.7.attention.self_attention.key.kernel : tensor<384x384xf32>
  %167 = ml_program.global_load @__sm_node133__m.bert.encoder.layer.7.attention.self_attention.query.bias : tensor<384xf32>
  %168 = ml_program.global_load @__sm_node132__m.bert.encoder.layer.7.attention.self_attention.query.kernel : tensor<384x384xf32>
  %169 = ml_program.global_load @__sm_node137__m.bert.encoder.layer.7.attention.self_attention.value.bias : tensor<384xf32>
  %170 = ml_program.global_load @__sm_node136__m.bert.encoder.layer.7.attention.self_attention.value.kernel : tensor<384x384xf32>
  %171 = ml_program.global_load @__sm_node143__m.bert.encoder.layer.7.intermediate.dense.bias : tensor<1536xf32>
  %172 = ml_program.global_load @__sm_node142__m.bert.encoder.layer.7.intermediate.dense.kernel : tensor<384x1536xf32>
  %173 = ml_program.global_load @__sm_node145__m.bert.encoder.layer.7.bert_output.dense.bias : tensor<384xf32>
  %174 = ml_program.global_load @__sm_node144__m.bert.encoder.layer.7.bert_output.dense.kernel : tensor<1536x384xf32>
  %175 = ml_program.global_load @__sm_node146__m.bert.encoder.layer.7.bert_output.LayerNorm.gamma : tensor<384xf32>
  %176 = ml_program.global_load @__sm_node147__m.bert.encoder.layer.7.bert_output.LayerNorm.beta : tensor<384xf32>
  %177 = ml_program.global_load @__sm_node155__m.bert.encoder.layer.8.attention.dense_output.dense.bias : tensor<384xf32>
  %178 = ml_program.global_load @__sm_node154__m.bert.encoder.layer.8.attention.dense_output.dense.kernel : tensor<384x384xf32>
  %179 = ml_program.global_load @__sm_node156__m.bert.encoder.layer.8.attention.dense_output.LayerNorm.gamma : tensor<384xf32>
  %180 = ml_program.global_load @__sm_node157__m.bert.encoder.layer.8.attention.dense_output.LayerNorm.beta : tensor<384xf32>
  %181 = ml_program.global_load @__sm_node151__m.bert.encoder.layer.8.attention.self_attention.key.bias : tensor<384xf32>
  %182 = ml_program.global_load @__sm_node150__m.bert.encoder.layer.8.attention.self_attention.key.kernel : tensor<384x384xf32>
  %183 = ml_program.global_load @__sm_node149__m.bert.encoder.layer.8.attention.self_attention.query.bias : tensor<384xf32>
  %184 = ml_program.global_load @__sm_node148__m.bert.encoder.layer.8.attention.self_attention.query.kernel : tensor<384x384xf32>
  %185 = ml_program.global_load @__sm_node153__m.bert.encoder.layer.8.attention.self_attention.value.bias : tensor<384xf32>
  %186 = ml_program.global_load @__sm_node152__m.bert.encoder.layer.8.attention.self_attention.value.kernel : tensor<384x384xf32>
  %187 = ml_program.global_load @__sm_node159__m.bert.encoder.layer.8.intermediate.dense.bias : tensor<1536xf32>
  %188 = ml_program.global_load @__sm_node158__m.bert.encoder.layer.8.intermediate.dense.kernel : tensor<384x1536xf32>
  %189 = ml_program.global_load @__sm_node161__m.bert.encoder.layer.8.bert_output.dense.bias : tensor<384xf32>
  %190 = ml_program.global_load @__sm_node160__m.bert.encoder.layer.8.bert_output.dense.kernel : tensor<1536x384xf32>
  %191 = ml_program.global_load @__sm_node162__m.bert.encoder.layer.8.bert_output.LayerNorm.gamma : tensor<384xf32>
  %192 = ml_program.global_load @__sm_node163__m.bert.encoder.layer.8.bert_output.LayerNorm.beta : tensor<384xf32>
  %193 = ml_program.global_load @__sm_node171__m.bert.encoder.layer.9.attention.dense_output.dense.bias : tensor<384xf32>
  %194 = ml_program.global_load @__sm_node170__m.bert.encoder.layer.9.attention.dense_output.dense.kernel : tensor<384x384xf32>
  %195 = ml_program.global_load @__sm_node172__m.bert.encoder.layer.9.attention.dense_output.LayerNorm.gamma : tensor<384xf32>
  %196 = ml_program.global_load @__sm_node173__m.bert.encoder.layer.9.attention.dense_output.LayerNorm.beta : tensor<384xf32>
  %197 = ml_program.global_load @__sm_node167__m.bert.encoder.layer.9.attention.self_attention.key.bias : tensor<384xf32>
  %198 = ml_program.global_load @__sm_node166__m.bert.encoder.layer.9.attention.self_attention.key.kernel : tensor<384x384xf32>
  %199 = ml_program.global_load @__sm_node165__m.bert.encoder.layer.9.attention.self_attention.query.bias : tensor<384xf32>
  %200 = ml_program.global_load @__sm_node164__m.bert.encoder.layer.9.attention.self_attention.query.kernel : tensor<384x384xf32>
  %201 = ml_program.global_load @__sm_node169__m.bert.encoder.layer.9.attention.self_attention.value.bias : tensor<384xf32>
  %202 = ml_program.global_load @__sm_node168__m.bert.encoder.layer.9.attention.self_attention.value.kernel : tensor<384x384xf32>
  %203 = ml_program.global_load @__sm_node175__m.bert.encoder.layer.9.intermediate.dense.bias : tensor<1536xf32>
  %204 = ml_program.global_load @__sm_node174__m.bert.encoder.layer.9.intermediate.dense.kernel : tensor<384x1536xf32>
  %205 = ml_program.global_load @__sm_node177__m.bert.encoder.layer.9.bert_output.dense.bias : tensor<384xf32>
  %206 = ml_program.global_load @__sm_node176__m.bert.encoder.layer.9.bert_output.dense.kernel : tensor<1536x384xf32>
  %207 = ml_program.global_load @__sm_node178__m.bert.encoder.layer.9.bert_output.LayerNorm.gamma : tensor<384xf32>
  %208 = ml_program.global_load @__sm_node179__m.bert.encoder.layer.9.bert_output.LayerNorm.beta : tensor<384xf32>
  %209 = ml_program.global_load @__sm_node213__m.bert.pooler.dense.bias : tensor<384xf32>
  %210 = ml_program.global_load @__sm_node212__m.bert.pooler.dense.kernel : tensor<384x384xf32>
  %211 = ml_program.global_load @__sm_node15__m.bert.embeddings.weight : tensor<30522x384xf32>
  %212 = linalg.init_tensor [384] : tensor<384xf32>
  %213 = linalg.init_tensor [1, 512, 384] : tensor<1x512x384xf32>
  %214 = linalg.generic {indexing_maps = [affine_map<(d0, d1, d2) -> (d0, d1)>, affine_map<(d0, d1, d2) -> (d2)>, affine_map<(d0, d1, d2) -> (d0, d1, d2)>], iterator_types = ["parallel", "parallel", "parallel"]} ins(%arg0, %212 : tensor<1x512xi32>, tensor<384xf32>) outs(%213 : tensor<1x512x384xf32>) {
  ^bb0(%arg3: i32):
    %3531 = arith.index_cast %arg3 : i32 to index
    %3532 = linalg.index 2 : index
    %3533 = tensor.extract %211[%3531, %3532] : tensor<30522x384xf32>
    linalg.yield %3533 : f32
  } -> tensor<1x512x384xf32>
  %215 = linalg.init_tensor [1, 512, 384] : tensor<1x512x384xf32>
  %216 = linalg.generic {indexing_maps = [affine_map<(d0, d1, d2) -> (d0, d1, d2)>, affine_map<(d0, d1, d2) -> (d0, d1, d2)>, affine_map<(d0, d1, d2) -> (d0, d1, d2)>], iterator_types = ["parallel", "parallel", "parallel"]} ins(%214, %14 : tensor<1x512x384xf32>, tensor<1x512x384xf32>) outs(%215 : tensor<1x512x384xf32>) {
  ^bb0(%arg3: f32):
    %3531 = arith.addf %arg3, %arg4 : f32
    linalg.yield %3531 : f32
  } -> tensor<1x512x384xf32>
  %217 = ml_program.global_load @__sm_node16__m.bert.embeddings.token_type_embeddings : tensor<2x384xf32>
  %218 = linalg.init_tensor [384] : tensor<384xf32>
  %219 = linalg.init_tensor [1, 512, 384] : tensor<1x512x384xf32>
  %220 = linalg.generic {indexing_maps = [affine_map<(d0, d1, d2) -> (d0, d1)>, affine_map<(d0, d1, d2) -> (d2)>, affine_map<(d0, d1, d2) -> (d0, d1, d2)>], iterator_types = ["parallel", "parallel", "parallel"]} ins(%arg2, %218 : tensor<1x512xi32>, tensor<384xf32>) outs(%219 : tensor<1x512x384xf32>) {
  ^bb0(%arg3: i32):
    %3531 = arith.index_cast %arg3 : i32 to index
    %3532 = linalg.index 2 : index
    %3533 = tensor.extract %217[%3531, %3532] : tensor<2x384xf32>
    linalg.yield %3533 : f32
  } -> tensor<1x512x384xf32>
  %221 = linalg.init_tensor [1, 512, 384] : tensor<1x512x384xf32>
  %222 = linalg.generic {indexing_maps = [affine_map<(d0, d1, d2) -> (d0, d1, d2)>, affine_map<(d0, d1, d2) -> (d0, d1, d2)>, affine_map<(d0, d1, d2) -> (d0, d1, d2)>], iterator_types = ["parallel", "parallel", "parallel"]} ins(%216, %220 : tensor<1x512x384xf32>, tensor<1x512x384xf32>) outs(%221 : tensor<1x512x384xf32>) {
  ^bb0(%arg3: f32):
    %3531 = arith.addf %arg3, %arg4 : f32
    linalg.yield %3531 : f32
  } -> tensor<1x512x384xf32>
  %cst_10 = arith.constant -0.000000e+00 : f32
  %223 = linalg.init_tensor [1, 512] : tensor<1x512xf32>
  %224 = linalg.fill ins(%cst_10 : f32) outs(%223 : tensor<1x512xf32>) -> tensor<1x512xf32>
  %225 = linalg.generic {indexing_maps = [affine_map<(d0, d1, d2) -> (d0, d1, d2)>, affine_map<(d0, d1, d2) -> (d0, d1)>], iterator_types = ["parallel", "parallel", "reduction"]} ins(%222 : tensor<1x512x384xf32>) outs(%224 : tensor<1x512xf32>) {
  ^bb0(%arg3: f32, %arg4: f32 loc(unknown)):
    %3531 = tensor.from_elements %arg4 : tensor<f32>
    %3532 = tensor.from_elements %arg3 : tensor<f32>
    %3533 = tensor.extract %3531[] : tensor<f32>
    %3534 = tensor.extract %3532[] : tensor<f32>
    %3535 = arith.addf %3533, %3534 : f32
    %3536 = tensor.from_elements %3535 : tensor<f32>
    %3537 = tensor.extract %3536[] : tensor<f32>
    linalg.yield %3537 : f32
  } -> tensor<1x512xf32>
  %226 = linalg.init_tensor [1, 512] : tensor<1x512xf32>
  %227 = linalg.generic {indexing_maps = [affine_map<(d0, d1) -> ()>, affine_map<(d0, d1) -> (d0, d1)>], iterator_types = ["parallel", "parallel"]} ins(%cst : tensor<f32>) outs(%226 : tensor<1x512xf32>) {
  ^bb0(%arg3: f32):
    linalg.yield %arg3 : f32
  } -> tensor<1x512xf32>
  %228 = linalg.init_tensor [1, 512] : tensor<1x512xf32>
  %229 = linalg.generic {indexing_maps = [affine_map<(d0, d1) -> (d0, d1)>, affine_map<(d0, d1) -> (d0, d1)>, affine_map<(d0, d1) -> (d0, d1)>], iterator_types = ["parallel", "parallel"]} ins(%225, %227 : tensor<1x512xf32>, tensor<1x512xf32>) outs(%228 : tensor<1x512xf32>) {
  ^bb0(%arg3: f32):
    %3531 = arith.divf %arg3, %arg4 : f32
    linalg.yield %3531 : f32
  } -> tensor<1x512xf32>
  %230 = tensor.expand_shape %229 [[0], [1, 2]] : tensor<1x512xf32> into tensor<1x512x1xf32>
  %231 = linalg.init_tensor [1, 512, 384] : tensor<1x512x384xf32>
  %232 = linalg.generic {indexing_maps = [affine_map<(d0, d1, d2) -> (d0, d1, 0)>, affine_map<(d0, d1, d2) -> (d0, d1, d2)>], iterator_types = ["parallel", "parallel", "parallel"]} ins(%230 : tensor<1x512x1xf32>) outs(%231 : tensor<1x512x384xf32>) {
  ^bb0(%arg3: f32):
    linalg.yield %arg3 : f32
  } -> tensor<1x512x384xf32>
  %233 = linalg.init_tensor [1, 512, 384] : tensor<1x512x384xf32>
  %234 = linalg.generic {indexing_maps = [affine_map<(d0, d1, d2) -> (d0, d1, d2)>, affine_map<(d0, d1, d2) -> (d0, d1, d2)>, affine_map<(d0, d1, d2) -> (d0, d1, d2)>], iterator_types = ["parallel", "parallel", "parallel"]} ins(%222, %232 : tensor<1x512x384xf32>, tensor<1x512x384xf32>) outs(%233 : tensor<1x512x384xf32>) {
  ^bb0(%arg3: f32):
    %3531 = arith.subf %arg3, %arg4 : f32
    linalg.yield %3531 : f32
  } -> tensor<1x512x384xf32>
  %235 = linalg.init_tensor [1, 512, 384] : tensor<1x512x384xf32>
  %236 = linalg.generic {indexing_maps = [affine_map<(d0, d1, d2) -> (d0, d1, d2)>, affine_map<(d0, d1, d2) -> (d0, d1, d2)>, affine_map<(d0, d1, d2) -> (d0, d1, d2)>], iterator_types = ["parallel", "parallel", "parallel"]} ins(%234, %234 : tensor<1x512x384xf32>, tensor<1x512x384xf32>) outs(%235 : tensor<1x512x384xf32>) {
  ^bb0(%arg3: f32):
    %3531 = arith.mulf %arg3, %arg4 : f32
    linalg.yield %3531 : f32
  } -> tensor<1x512x384xf32>
  %cst_11 = arith.constant -0.000000e+00 : f32
  %237 = linalg.init_tensor [1, 512] : tensor<1x512xf32>
  %238 = linalg.fill ins(%cst_11 : f32) outs(%237 : tensor<1x512xf32>) -> tensor<1x512xf32>
  %239 = linalg.generic {indexing_maps = [affine_map<(d0, d1, d2) -> (d0, d1, d2)>, affine_map<(d0, d1, d2) -> (d0, d1)>], iterator_types = ["parallel", "parallel", "reduction"]} ins(%236 : tensor<1x512x384xf32>) outs(%238 : tensor<1x512xf32>) {
  ^bb0(%arg3: f32, %arg4: f32 loc(unknown)):
    %3531 = tensor.from_elements %arg4 : tensor<f32>
    %3532 = tensor.from_elements %arg3 : tensor<f32>
    %3533 = tensor.extract %3531[] : tensor<f32>
    %3534 = tensor.extract %3532[] : tensor<f32>
    %3535 = arith.addf %3533, %3534 : f32
    %3536 = tensor.from_elements %3535 : tensor<f32>
    %3537 = tensor.extract %3536[] : tensor<f32>
    linalg.yield %3537 : f32
  } -> tensor<1x512xf32>
  %240 = linalg.init_tensor [1, 512] : tensor<1x512xf32>
  %241 = linalg.generic {indexing_maps = [affine_map<(d0, d1) -> ()>, affine_map<(d0, d1) -> (d0, d1)>], iterator_types = ["parallel", "parallel"]} ins(%cst : tensor<f32>) outs(%240 : tensor<1x512xf32>) {
  ^bb0(%arg3: f32):
    linalg.yield %arg3 : f32
  } -> tensor<1x512xf32>
  %242 = linalg.init_tensor [1, 512] : tensor<1x512xf32>
  %243 = linalg.generic {indexing_maps = [affine_map<(d0, d1) -> (d0, d1)>, affine_map<(d0, d1) -> (d0, d1)>, affine_map<(d0, d1) -> (d0, d1)>], iterator_types = ["parallel", "parallel"]} ins(%239, %241 : tensor<1x512xf32>, tensor<1x512xf32>) outs(%242 : tensor<1x512xf32>) {
  ^bb0(%arg3: f32):
    %3531 = arith.divf %arg3, %arg4 : f32
    linalg.yield %3531 : f32
  } -> tensor<1x512xf32>
  %244 = tensor.expand_shape %243 [[0], [1, 2]] : tensor<1x512xf32> into tensor<1x512x1xf32>
  %245 = linalg.init_tensor [1, 512, 1] : tensor<1x512x1xf32>
  %246 = linalg.generic {indexing_maps = [affine_map<(d0, d1, d2) -> ()>, affine_map<(d0, d1, d2) -> (d0, d1, d2)>], iterator_types = ["parallel", "parallel", "parallel"]} ins(%cst_4 : tensor<f32>) outs(%245 : tensor<1x512x1xf32>) {
  ^bb0(%arg3: f32):
    linalg.yield %arg3 : f32
  } -> tensor<1x512x1xf32>
  %247 = linalg.init_tensor [1, 512, 1] : tensor<1x512x1xf32>
  %248 = linalg.generic {indexing_maps = [affine_map<(d0, d1, d2) -> (d0, d1, d2)>, affine_map<(d0, d1, d2) -> (d0, d1, d2)>, affine_map<(d0, d1, d2) -> (d0, d1, d2)>], iterator_types = ["parallel", "parallel", "parallel"]} ins(%244, %246 : tensor<1x512x1xf32>, tensor<1x512x1xf32>) outs(%247 : tensor<1x512x1xf32>) {
  ^bb0(%arg3: f32):
    %3531 = arith.addf %arg3, %arg4 : f32
    linalg.yield %3531 : f32
  } -> tensor<1x512x1xf32>
  %249 = linalg.init_tensor [1, 512, 1] : tensor<1x512x1xf32>
  %250 = linalg.generic {indexing_maps = [affine_map<(d0, d1, d2) -> (d0, d1, d2)>, affine_map<(d0, d1, d2) -> (d0, d1, d2)>], iterator_types = ["parallel", "parallel", "parallel"]} ins(%248 : tensor<1x512x1xf32>) outs(%249 : tensor<1x512x1xf32>) {
  ^bb0(%arg3: f32):
    %3531 = math.rsqrt %arg3 : f32
    linalg.yield %3531 : f32
  } -> tensor<1x512x1xf32>
  %251 = linalg.init_tensor [1, 512, 384] : tensor<1x512x384xf32>
  %252 = linalg.generic {indexing_maps = [affine_map<(d0, d1, d2) -> (d0, d1, 0)>, affine_map<(d0, d1, d2) -> (d0, d1, d2)>], iterator_types = ["parallel", "parallel", "parallel"]} ins(%250 : tensor<1x512x1xf32>) outs(%251 : tensor<1x512x384xf32>) {
  ^bb0(%arg3: f32):
    linalg.yield %arg3 : f32
  } -> tensor<1x512x384xf32>
  %253 = linalg.init_tensor [1, 512, 384] : tensor<1x512x384xf32>
  %254 = linalg.generic {indexing_maps = [affine_map<(d0, d1, d2) -> (d2)>, affine_map<(d0, d1, d2) -> (d0, d1, d2)>], iterator_types = ["parallel", "parallel", "parallel"]} ins(%15 : tensor<384xf32>) outs(%253 : tensor<1x512x384xf32>) {
  ^bb0(%arg3: f32):
    linalg.yield %arg3 : f32
  } -> tensor<1x512x384xf32>
  %255 = linalg.init_tensor [1, 512, 384] : tensor<1x512x384xf32>
  %256 = linalg.generic {indexing_maps = [affine_map<(d0, d1, d2) -> (d0, d1, d2)>, affine_map<(d0, d1, d2) -> (d0, d1, d2)>, affine_map<(d0, d1, d2) -> (d0, d1, d2)>], iterator_types = ["parallel", "parallel", "parallel"]} ins(%252, %254 : tensor<1x512x384xf32>, tensor<1x512x384xf32>) outs(%255 : tensor<1x512x384xf32>) {
  ^bb0(%arg3: f32):
    %3531 = arith.mulf %arg3, %arg4 : f32
    linalg.yield %3531 : f32
  } -> tensor<1x512x384xf32>
  %257 = linalg.init_tensor [1, 512, 384] : tensor<1x512x384xf32>
  %258 = linalg.generic {indexing_maps = [affine_map<(d0, d1, d2) -> (d0, d1, d2)>, affine_map<(d0, d1, d2) -> (d0, d1, d2)>, affine_map<(d0, d1, d2) -> (d0, d1, d2)>], iterator_types = ["parallel", "parallel", "parallel"]} ins(%222, %256 : tensor<1x512x384xf32>, tensor<1x512x384xf32>) outs(%257 : tensor<1x512x384xf32>) {
  ^bb0(%arg3: f32):
    %3531 = arith.mulf %arg3, %arg4 : f32
    linalg.yield %3531 : f32
  } -> tensor<1x512x384xf32>
  %259 = linalg.init_tensor [1, 512, 384] : tensor<1x512x384xf32>
  %260 = linalg.generic {indexing_maps = [affine_map<(d0, d1, d2) -> (d0, d1, 0)>, affine_map<(d0, d1, d2) -> (d0, d1, d2)>], iterator_types = ["parallel", "parallel", "parallel"]} ins(%230 : tensor<1x512x1xf32>) outs(%259 : tensor<1x512x384xf32>) {
  ^bb0(%arg3: f32):
    linalg.yield %arg3 : f32
  } -> tensor<1x512x384xf32>
  %261 = linalg.init_tensor [1, 512, 384] : tensor<1x512x384xf32>
  %262 = linalg.generic {indexing_maps = [affine_map<(d0, d1, d2) -> (d0, d1, d2)>, affine_map<(d0, d1, d2) -> (d0, d1, d2)>, affine_map<(d0, d1, d2) -> (d0, d1, d2)>], iterator_types = ["parallel", "parallel", "parallel"]} ins(%260, %256 : tensor<1x512x384xf32>, tensor<1x512x384xf32>) outs(%261 : tensor<1x512x384xf32>) {
  ^bb0(%arg3: f32):
    %3531 = arith.mulf %arg3, %arg4 : f32
    linalg.yield %3531 : f32
  } -> tensor<1x512x384xf32>
  %263 = linalg.init_tensor [1, 512, 384] : tensor<1x512x384xf32>
  %264 = linalg.generic {indexing_maps = [affine_map<(d0, d1, d2) -> (d2)>, affine_map<(d0, d1, d2) -> (d0, d1, d2)>], iterator_types = ["parallel", "parallel", "parallel"]} ins(%16 : tensor<384xf32>) outs(%263 : tensor<1x512x384xf32>) {
  ^bb0(%arg3: f32):
    linalg.yield %arg3 : f32
  } -> tensor<1x512x384xf32>
  %265 = linalg.init_tensor [1, 512, 384] : tensor<1x512x384xf32>
  %266 = linalg.generic {indexing_maps = [affine_map<(d0, d1, d2) -> (d0, d1, d2)>, affine_map<(d0, d1, d2) -> (d0, d1, d2)>, affine_map<(d0, d1, d2) -> (d0, d1, d2)>], iterator_types = ["parallel", "parallel", "parallel"]} ins(%264, %262 : tensor<1x512x384xf32>, tensor<1x512x384xf32>) outs(%265 : tensor<1x512x384xf32>) {
  ^bb0(%arg3: f32):
    %3531 = arith.subf %arg3, %arg4 : f32
    linalg.yield %3531 : f32
  } -> tensor<1x512x384xf32>
  %267 = linalg.init_tensor [1, 512, 384] : tensor<1x512x384xf32>
  %268 = linalg.generic {indexing_maps = [affine_map<(d0, d1, d2) -> (d0, d1, d2)>, affine_map<(d0, d1, d2) -> (d0, d1, d2)>, affine_map<(d0, d1, d2) -> (d0, d1, d2)>], iterator_types = ["parallel", "parallel", "parallel"]} ins(%258, %266 : tensor<1x512x384xf32>, tensor<1x512x384xf32>) outs(%267 : tensor<1x512x384xf32>) {
  ^bb0(%arg3: f32):
    %3531 = arith.addf %arg3, %arg4 : f32
    linalg.yield %3531 : f32
  } -> tensor<1x512x384xf32>
  %269 = tensor.collapse_shape %268 [[0, 1], [2]] : tensor<1x512x384xf32> into tensor<512x384xf32>
  %270 = linalg.init_tensor [512, 384] : tensor<512x384xf32>
  %cst_12 = arith.constant 0.000000e+00 : f32
  %271 = linalg.fill ins(%cst_12 : f32) outs(%270 : tensor<512x384xf32>) -> tensor<512x384xf32>
  %272 = linalg.matmul ins(%269, %22 : tensor<512x384xf32>, tensor<384x384xf32>) outs(%271 : tensor<512x384xf32>) -> tensor<512x384xf32>
  %273 = tensor.expand_shape %272 [[0, 1], [2]] : tensor<512x384xf32> into tensor<1x512x384xf32>
  %274 = linalg.init_tensor [1, 512, 384] : tensor<1x512x384xf32>
  %275 = linalg.generic {indexing_maps = [affine_map<(d0, d1, d2) -> (d2)>, affine_map<(d0, d1, d2) -> (d0, d1, d2)>], iterator_types = ["parallel", "parallel", "parallel"]} ins(%21 : tensor<384xf32>) outs(%274 : tensor<1x512x384xf32>) {
  ^bb0(%arg3: f32):
    linalg.yield %arg3 : f32
  } -> tensor<1x512x384xf32>
  %276 = linalg.init_tensor [1, 512, 384] : tensor<1x512x384xf32>
  %277 = linalg.generic {indexing_maps = [affine_map<(d0, d1, d2) -> (d0, d1, d2)>, affine_map<(d0, d1, d2) -> (d0, d1, d2)>, affine_map<(d0, d1, d2) -> (d0, d1, d2)>], iterator_types = ["parallel", "parallel", "parallel"]} ins(%273, %275 : tensor<1x512x384xf32>, tensor<1x512x384xf32>) outs(%276 : tensor<1x512x384xf32>) {
  ^bb0(%arg3: f32):
    %3531 = arith.addf %arg3, %arg4 : f32
    linalg.yield %3531 : f32
  } -> tensor<1x512x384xf32>
  %278 = tensor.expand_shape %277 [[0], [1], [2, 3]] : tensor<1x512x384xf32> into tensor<1x512x12x32xf32>
  %279 = linalg.init_tensor [512, 384] : tensor<512x384xf32>
  %cst_13 = arith.constant 0.000000e+00 : f32
  %280 = linalg.fill ins(%cst_13 : f32) outs(%279 : tensor<512x384xf32>) -> tensor<512x384xf32>
  %281 = linalg.matmul ins(%269, %24 : tensor<512x384xf32>, tensor<384x384xf32>) outs(%280 : tensor<512x384xf32>) -> tensor<512x384xf32>
  %282 = tensor.expand_shape %281 [[0, 1], [2]] : tensor<512x384xf32> into tensor<1x512x384xf32>
  %283 = linalg.init_tensor [1, 512, 384] : tensor<1x512x384xf32>
  %284 = linalg.generic {indexing_maps = [affine_map<(d0, d1, d2) -> (d2)>, affine_map<(d0, d1, d2) -> (d0, d1, d2)>], iterator_types = ["parallel", "parallel", "parallel"]} ins(%23 : tensor<384xf32>) outs(%283 : tensor<1x512x384xf32>) {
  ^bb0(%arg3: f32):
    linalg.yield %arg3 : f32
  } -> tensor<1x512x384xf32>
  %285 = linalg.init_tensor [1, 512, 384] : tensor<1x512x384xf32>
  %286 = linalg.generic {indexing_maps = [affine_map<(d0, d1, d2) -> (d0, d1, d2)>, affine_map<(d0, d1, d2) -> (d0, d1, d2)>, affine_map<(d0, d1, d2) -> (d0, d1, d2)>], iterator_types = ["parallel", "parallel", "parallel"]} ins(%282, %284 : tensor<1x512x384xf32>, tensor<1x512x384xf32>) outs(%285 : tensor<1x512x384xf32>) {
  ^bb0(%arg3: f32):
    %3531 = arith.addf %arg3, %arg4 : f32
    linalg.yield %3531 : f32
  } -> tensor<1x512x384xf32>
  %287 = tensor.expand_shape %286 [[0], [1], [2, 3]] : tensor<1x512x384xf32> into tensor<1x512x12x32xf32>
  %288 = linalg.init_tensor [1, 12, 512, 32] : tensor<1x12x512x32xf32>
  %289 = linalg.generic {indexing_maps = [affine_map<(d0, d1, d2, d3) -> (d0, d2, d1, d3)>, affine_map<(d0, d1, d2, d3) -> (d0, d1, d2, d3)>], iterator_types = ["parallel", "parallel", "parallel", "parallel"]} ins(%287 : tensor<1x512x12x32xf32>) outs(%288 : tensor<1x12x512x32xf32>) {
  ^bb0(%arg3: f32):
    linalg.yield %arg3 : f32
  } -> tensor<1x12x512x32xf32>
  %290 = linalg.init_tensor [1, 12, 32, 512] : tensor<1x12x32x512xf32>
  %291 = linalg.generic {indexing_maps = [affine_map<(d0, d1, d2, d3) -> (d0, d3, d1, d2)>, affine_map<(d0, d1, d2, d3) -> (d0, d1, d2, d3)>], iterator_types = ["parallel", "parallel", "parallel", "parallel"]} ins(%278 : tensor<1x512x12x32xf32>) outs(%290 : tensor<1x12x32x512xf32>) {
  ^bb0(%arg3: f32):
    linalg.yield %arg3 : f32
  } -> tensor<1x12x32x512xf32>
  %292 = tensor.collapse_shape %289 [[0, 1], [2], [3]] : tensor<1x12x512x32xf32> into tensor<12x512x32xf32>
  %293 = tensor.collapse_shape %291 [[0, 1], [2], [3]] : tensor<1x12x32x512xf32> into tensor<12x32x512xf32>
  %294 = linalg.init_tensor [12, 512, 512] : tensor<12x512x512xf32>
  %cst_14 = arith.constant 0.000000e+00 : f32
  %295 = linalg.fill ins(%cst_14 : f32) outs(%294 : tensor<12x512x512xf32>) -> tensor<12x512x512xf32>
  %296 = linalg.batch_matmul ins(%292, %293 : tensor<12x512x32xf32>, tensor<12x32x512xf32>) outs(%295 : tensor<12x512x512xf32>) -> tensor<12x512x512xf32>
  %297 = tensor.expand_shape %296 [[0, 1], [2], [3]] : tensor<12x512x512xf32> into tensor<1x12x512x512xf32>
  %298 = linalg.init_tensor [1, 12, 512, 512] : tensor<1x12x512x512xf32>
  %299 = linalg.generic {indexing_maps = [affine_map<(d0, d1, d2, d3) -> ()>, affine_map<(d0, d1, d2, d3) -> (d0, d1, d2, d3)>], iterator_types = ["parallel", "parallel", "parallel", "parallel"]} ins(%cst_8 : tensor<f32>) outs(%298 : tensor<1x12x512x512xf32>) {
  ^bb0(%arg3: f32):
    linalg.yield %arg3 : f32
  } -> tensor<1x12x512x512xf32>
  %300 = linalg.init_tensor [1, 12, 512, 512] : tensor<1x12x512x512xf32>
  %301 = linalg.generic {indexing_maps = [affine_map<(d0, d1, d2, d3) -> (d0, d1, d2, d3)>, affine_map<(d0, d1, d2, d3) -> (d0, d1, d2, d3)>, affine_map<(d0, d1, d2, d3) -> (d0, d1, d2, d3)>], iterator_types = ["parallel", "parallel", "parallel", "parallel"]} ins(%297, %299 : tensor<1x12x512x512xf32>, tensor<1x12x512x512xf32>) outs(%300 : tensor<1x12x512x512xf32>) {
  ^bb0(%arg3: f32):
    %3531 = arith.mulf %arg3, %arg4 : f32
    linalg.yield %3531 : f32
  } -> tensor<1x12x512x512xf32>
  %302 = linalg.init_tensor [1, 12, 512, 512] : tensor<1x12x512x512xf32>
  %303 = linalg.generic {indexing_maps = [affine_map<(d0, d1, d2, d3) -> (d0, 0, 0, d3)>, affine_map<(d0, d1, d2, d3) -> (d0, d1, d2, d3)>], iterator_types = ["parallel", "parallel", "parallel", "parallel"]} ins(%10 : tensor<1x1x1x512xf32>) outs(%302 : tensor<1x12x512x512xf32>) {
  ^bb0(%arg3: f32):
    linalg.yield %arg3 : f32
  } -> tensor<1x12x512x512xf32>
  %304 = linalg.init_tensor [1, 12, 512, 512] : tensor<1x12x512x512xf32>
  %305 = linalg.generic {indexing_maps = [affine_map<(d0, d1, d2, d3) -> (d0, d1, d2, d3)>, affine_map<(d0, d1, d2, d3) -> (d0, d1, d2, d3)>, affine_map<(d0, d1, d2, d3) -> (d0, d1, d2, d3)>], iterator_types = ["parallel", "parallel", "parallel", "parallel"]} ins(%301, %303 : tensor<1x12x512x512xf32>, tensor<1x12x512x512xf32>) outs(%304 : tensor<1x12x512x512xf32>) {
  ^bb0(%arg3: f32):
    %3531 = arith.addf %arg3, %arg4 : f32
    linalg.yield %3531 : f32
  } -> tensor<1x12x512x512xf32>
  %306 = linalg.init_tensor [1, 12, 512, 512] : tensor<1x12x512x512xf32>
  %307 = linalg.generic {indexing_maps = [affine_map<(d0, d1, d2, d3) -> ()>, affine_map<(d0, d1, d2, d3) -> (d0, d1, d2, d3)>], iterator_types = ["parallel", "parallel", "parallel", "parallel"]} ins(%cst_5 : tensor<f32>) outs(%306 : tensor<1x12x512x512xf32>) {
  ^bb0(%arg3: f32):
    linalg.yield %arg3 : f32
  } -> tensor<1x12x512x512xf32>
  %308 = linalg.init_tensor [1, 12, 512, 512] : tensor<1x12x512x512xf32>
  %309 = linalg.generic {indexing_maps = [affine_map<(d0, d1, d2, d3) -> (d0, d1, d2, d3)>, affine_map<(d0, d1, d2, d3) -> (d0, d1, d2, d3)>, affine_map<(d0, d1, d2, d3) -> (d0, d1, d2, d3)>], iterator_types = ["parallel", "parallel", "parallel", "parallel"]} ins(%305, %307 : tensor<1x12x512x512xf32>, tensor<1x12x512x512xf32>) outs(%308 : tensor<1x12x512x512xf32>) {
  ^bb0(%arg3: f32):
    %3531 = arith.addf %arg3, %arg4 : f32
    linalg.yield %3531 : f32
  } -> tensor<1x12x512x512xf32>
  %cst_15 = arith.constant 0xFF800000 : f32
  %310 = linalg.init_tensor [1, 12, 512] : tensor<1x12x512xf32>
  %311 = linalg.fill ins(%cst_15 : f32) outs(%310 : tensor<1x12x512xf32>) -> tensor<1x12x512xf32>
  %312 = linalg.generic {indexing_maps = [affine_map<(d0, d1, d2, d3) -> (d0, d1, d2, d3)>, affine_map<(d0, d1, d2, d3) -> (d0, d1, d2)>], iterator_types = ["parallel", "parallel", "parallel", "reduction"]} ins(%309 : tensor<1x12x512x512xf32>) outs(%311 : tensor<1x12x512xf32>) {
  ^bb0(%arg3: f32, %arg4: f32 loc(unknown)):
    %3531 = tensor.from_elements %arg4 : tensor<f32>
    %3532 = tensor.from_elements %arg3 : tensor<f32>
    %3533 = tensor.extract %3531[] : tensor<f32>
    %3534 = tensor.extract %3532[] : tensor<f32>
    %3535 = arith.maxf %3533, %3534 : f32
    %3536 = tensor.from_elements %3535 : tensor<f32>
    %3537 = tensor.extract %3536[] : tensor<f32>
    linalg.yield %3537 : f32
  } -> tensor<1x12x512xf32>
  %313 = tensor.expand_shape %312 [[0], [1], [2, 3]] : tensor<1x12x512xf32> into tensor<1x12x512x1xf32>
  %314 = linalg.init_tensor [1, 12, 512, 512] : tensor<1x12x512x512xf32>
  %315 = linalg.generic {indexing_maps = [affine_map<(d0, d1, d2, d3) -> (d0, d1, d2, 0)>, affine_map<(d0, d1, d2, d3) -> (d0, d1, d2, d3)>], iterator_types = ["parallel", "parallel", "parallel", "parallel"]} ins(%313 : tensor<1x12x512x1xf32>) outs(%314 : tensor<1x12x512x512xf32>) {
  ^bb0(%arg3: f32):
    linalg.yield %arg3 : f32
  } -> tensor<1x12x512x512xf32>
  %316 = linalg.init_tensor [1, 12, 512, 512] : tensor<1x12x512x512xf32>
  %317 = linalg.generic {indexing_maps = [affine_map<(d0, d1, d2, d3) -> (d0, d1, d2, d3)>, affine_map<(d0, d1, d2, d3) -> (d0, d1, d2, d3)>, affine_map<(d0, d1, d2, d3) -> (d0, d1, d2, d3)>], iterator_types = ["parallel", "parallel", "parallel", "parallel"]} ins(%309, %315 : tensor<1x12x512x512xf32>, tensor<1x12x512x512xf32>) outs(%316 : tensor<1x12x512x512xf32>) {
  ^bb0(%arg3: f32):
    %3531 = arith.subf %arg3, %arg4 : f32
    linalg.yield %3531 : f32
  } -> tensor<1x12x512x512xf32>
  %318 = linalg.init_tensor [1, 12, 512, 512] : tensor<1x12x512x512xf32>
  %319 = linalg.generic {indexing_maps = [affine_map<(d0, d1, d2, d3) -> (d0, d1, d2, d3)>, affine_map<(d0, d1, d2, d3) -> (d0, d1, d2, d3)>], iterator_types = ["parallel", "parallel", "parallel", "parallel"]} ins(%317 : tensor<1x12x512x512xf32>) outs(%318 : tensor<1x12x512x512xf32>) {
  ^bb0(%arg3: f32):
    %3531 = math.exp %arg3 : f32
    linalg.yield %3531 : f32
  } -> tensor<1x12x512x512xf32>
  %cst_16 = arith.constant -0.000000e+00 : f32
  %320 = linalg.init_tensor [1, 12, 512] : tensor<1x12x512xf32>
  %321 = linalg.fill ins(%cst_16 : f32) outs(%320 : tensor<1x12x512xf32>) -> tensor<1x12x512xf32>
  %322 = linalg.generic {indexing_maps = [affine_map<(d0, d1, d2, d3) -> (d0, d1, d2, d3)>, affine_map<(d0, d1, d2, d3) -> (d0, d1, d2)>], iterator_types = ["parallel", "parallel", "parallel", "reduction"]} ins(%319 : tensor<1x12x512x512xf32>) outs(%321 : tensor<1x12x512xf32>) {
  ^bb0(%arg3: f32, %arg4: f32 loc(unknown)):
    %3531 = tensor.from_elements %arg4 : tensor<f32>
    %3532 = tensor.from_elements %arg3 : tensor<f32>
    %3533 = tensor.extract %3531[] : tensor<f32>
    %3534 = tensor.extract %3532[] : tensor<f32>
    %3535 = arith.addf %3533, %3534 : f32
    %3536 = tensor.from_elements %3535 : tensor<f32>
    %3537 = tensor.extract %3536[] : tensor<f32>
    linalg.yield %3537 : f32
  } -> tensor<1x12x512xf32>
  %323 = tensor.expand_shape %322 [[0], [1], [2, 3]] : tensor<1x12x512xf32> into tensor<1x12x512x1xf32>
  %324 = linalg.init_tensor [1, 12, 512, 512] : tensor<1x12x512x512xf32>
  %325 = linalg.generic {indexing_maps = [affine_map<(d0, d1, d2, d3) -> (d0, d1, d2, 0)>, affine_map<(d0, d1, d2, d3) -> (d0, d1, d2, d3)>], iterator_types = ["parallel", "parallel", "parallel", "parallel"]} ins(%323 : tensor<1x12x512x1xf32>) outs(%324 : tensor<1x12x512x512xf32>) {
  ^bb0(%arg3: f32):
    linalg.yield %arg3 : f32
  } -> tensor<1x12x512x512xf32>
  %326 = linalg.init_tensor [1, 12, 512, 512] : tensor<1x12x512x512xf32>
  %327 = linalg.generic {indexing_maps = [affine_map<(d0, d1, d2, d3) -> (d0, d1, d2, d3)>, affine_map<(d0, d1, d2, d3) -> (d0, d1, d2, d3)>, affine_map<(d0, d1, d2, d3) -> (d0, d1, d2, d3)>], iterator_types = ["parallel", "parallel", "parallel", "parallel"]} ins(%319, %325 : tensor<1x12x512x512xf32>, tensor<1x12x512x512xf32>) outs(%326 : tensor<1x12x512x512xf32>) {
  ^bb0(%arg3: f32):
    %3531 = arith.divf %arg3, %arg4 : f32
    linalg.yield %3531 : f32
  } -> tensor<1x12x512x512xf32>
  %328 = linalg.init_tensor [512, 384] : tensor<512x384xf32>
  %cst_17 = arith.constant 0.000000e+00 : f32
  %329 = linalg.fill ins(%cst_17 : f32) outs(%328 : tensor<512x384xf32>) -> tensor<512x384xf32>
  %330 = linalg.matmul ins(%269, %26 : tensor<512x384xf32>, tensor<384x384xf32>) outs(%329 : tensor<512x384xf32>) -> tensor<512x384xf32>
  %331 = tensor.expand_shape %330 [[0, 1], [2]] : tensor<512x384xf32> into tensor<1x512x384xf32>
  %332 = linalg.init_tensor [1, 512, 384] : tensor<1x512x384xf32>
  %333 = linalg.generic {indexing_maps = [affine_map<(d0, d1, d2) -> (d2)>, affine_map<(d0, d1, d2) -> (d0, d1, d2)>], iterator_types = ["parallel", "parallel", "parallel"]} ins(%25 : tensor<384xf32>) outs(%332 : tensor<1x512x384xf32>) {
  ^bb0(%arg3: f32):
    linalg.yield %arg3 : f32
  } -> tensor<1x512x384xf32>
  %334 = linalg.init_tensor [1, 512, 384] : tensor<1x512x384xf32>
  %335 = linalg.generic {indexing_maps = [affine_map<(d0, d1, d2) -> (d0, d1, d2)>, affine_map<(d0, d1, d2) -> (d0, d1, d2)>, affine_map<(d0, d1, d2) -> (d0, d1, d2)>], iterator_types = ["parallel", "parallel", "parallel"]} ins(%331, %333 : tensor<1x512x384xf32>, tensor<1x512x384xf32>) outs(%334 : tensor<1x512x384xf32>) {
  ^bb0(%arg3: f32):
    %3531 = arith.addf %arg3, %arg4 : f32
    linalg.yield %3531 : f32
  } -> tensor<1x512x384xf32>
  %336 = tensor.expand_shape %335 [[0], [1], [2, 3]] : tensor<1x512x384xf32> into tensor<1x512x12x32xf32>
  %337 = linalg.init_tensor [1, 12, 512, 32] : tensor<1x12x512x32xf32>
  %338 = linalg.generic {indexing_maps = [affine_map<(d0, d1, d2, d3) -> (d0, d2, d1, d3)>, affine_map<(d0, d1, d2, d3) -> (d0, d1, d2, d3)>], iterator_types = ["parallel", "parallel", "parallel", "parallel"]} ins(%336 : tensor<1x512x12x32xf32>) outs(%337 : tensor<1x12x512x32xf32>) {
  ^bb0(%arg3: f32):
    linalg.yield %arg3 : f32
  } -> tensor<1x12x512x32xf32>
  %339 = tensor.collapse_shape %327 [[0, 1], [2], [3]] : tensor<1x12x512x512xf32> into tensor<12x512x512xf32>
  %340 = tensor.collapse_shape %338 [[0, 1], [2], [3]] : tensor<1x12x512x32xf32> into tensor<12x512x32xf32>
  %341 = linalg.init_tensor [12, 512, 32] : tensor<12x512x32xf32>
  %cst_18 = arith.constant 0.000000e+00 : f32
  %342 = linalg.fill ins(%cst_18 : f32) outs(%341 : tensor<12x512x32xf32>) -> tensor<12x512x32xf32>
  %343 = linalg.batch_matmul ins(%339, %340 : tensor<12x512x512xf32>, tensor<12x512x32xf32>) outs(%342 : tensor<12x512x32xf32>) -> tensor<12x512x32xf32>
  %344 = tensor.expand_shape %343 [[0, 1], [2], [3]] : tensor<12x512x32xf32> into tensor<1x12x512x32xf32>
  %345 = linalg.init_tensor [1, 512, 12, 32] : tensor<1x512x12x32xf32>
  %346 = linalg.generic {indexing_maps = [affine_map<(d0, d1, d2, d3) -> (d0, d2, d1, d3)>, affine_map<(d0, d1, d2, d3) -> (d0, d1, d2, d3)>], iterator_types = ["parallel", "parallel", "parallel", "parallel"]} ins(%344 : tensor<1x12x512x32xf32>) outs(%345 : tensor<1x512x12x32xf32>) {
  ^bb0(%arg3: f32):
    linalg.yield %arg3 : f32
  } -> tensor<1x512x12x32xf32>
  %347 = tensor.collapse_shape %346 [[0, 1], [2, 3]] : tensor<1x512x12x32xf32> into tensor<512x384xf32>
  %348 = linalg.init_tensor [512, 384] : tensor<512x384xf32>
  %cst_19 = arith.constant 0.000000e+00 : f32
  %349 = linalg.fill ins(%cst_19 : f32) outs(%348 : tensor<512x384xf32>) -> tensor<512x384xf32>
  %350 = linalg.matmul ins(%347, %18 : tensor<512x384xf32>, tensor<384x384xf32>) outs(%349 : tensor<512x384xf32>) -> tensor<512x384xf32>
  %351 = tensor.expand_shape %350 [[0, 1], [2]] : tensor<512x384xf32> into tensor<1x512x384xf32>
  %352 = linalg.init_tensor [1, 512, 384] : tensor<1x512x384xf32>
  %353 = linalg.generic {indexing_maps = [affine_map<(d0, d1, d2) -> (d2)>, affine_map<(d0, d1, d2) -> (d0, d1, d2)>], iterator_types = ["parallel", "parallel", "parallel"]} ins(%17 : tensor<384xf32>) outs(%352 : tensor<1x512x384xf32>) {
  ^bb0(%arg3: f32):
    linalg.yield %arg3 : f32
  } -> tensor<1x512x384xf32>
  %354 = linalg.init_tensor [1, 512, 384] : tensor<1x512x384xf32>
  %355 = linalg.generic {indexing_maps = [affine_map<(d0, d1, d2) -> (d0, d1, d2)>, affine_map<(d0, d1, d2) -> (d0, d1, d2)>, affine_map<(d0, d1, d2) -> (d0, d1, d2)>], iterator_types = ["parallel", "parallel", "parallel"]} ins(%351, %353 : tensor<1x512x384xf32>, tensor<1x512x384xf32>) outs(%354 : tensor<1x512x384xf32>) {
  ^bb0(%arg3: f32):
    %3531 = arith.addf %arg3, %arg4 : f32
    linalg.yield %3531 : f32
  } -> tensor<1x512x384xf32>
  %356 = linalg.init_tensor [1, 512, 384] : tensor<1x512x384xf32>
  %357 = linalg.generic {indexing_maps = [affine_map<(d0, d1, d2) -> (d0, d1, d2)>, affine_map<(d0, d1, d2) -> (d0, d1, d2)>, affine_map<(d0, d1, d2) -> (d0, d1, d2)>], iterator_types = ["parallel", "parallel", "parallel"]} ins(%355, %268 : tensor<1x512x384xf32>, tensor<1x512x384xf32>) outs(%356 : tensor<1x512x384xf32>) {
  ^bb0(%arg3: f32):
    %3531 = arith.addf %arg3, %arg4 : f32
    linalg.yield %3531 : f32
  } -> tensor<1x512x384xf32>
  %cst_20 = arith.constant -0.000000e+00 : f32
  %358 = linalg.init_tensor [1, 512] : tensor<1x512xf32>
  %359 = linalg.fill ins(%cst_20 : f32) outs(%358 : tensor<1x512xf32>) -> tensor<1x512xf32>
  %360 = linalg.generic {indexing_maps = [affine_map<(d0, d1, d2) -> (d0, d1, d2)>, affine_map<(d0, d1, d2) -> (d0, d1)>], iterator_types = ["parallel", "parallel", "reduction"]} ins(%357 : tensor<1x512x384xf32>) outs(%359 : tensor<1x512xf32>) {
  ^bb0(%arg3: f32, %arg4: f32 loc(unknown)):
    %3531 = tensor.from_elements %arg4 : tensor<f32>
    %3532 = tensor.from_elements %arg3 : tensor<f32>
    %3533 = tensor.extract %3531[] : tensor<f32>
    %3534 = tensor.extract %3532[] : tensor<f32>
    %3535 = arith.addf %3533, %3534 : f32
    %3536 = tensor.from_elements %3535 : tensor<f32>
    %3537 = tensor.extract %3536[] : tensor<f32>
    linalg.yield %3537 : f32
  } -> tensor<1x512xf32>
  %361 = linalg.init_tensor [1, 512] : tensor<1x512xf32>
  %362 = linalg.generic {indexing_maps = [affine_map<(d0, d1) -> ()>, affine_map<(d0, d1) -> (d0, d1)>], iterator_types = ["parallel", "parallel"]} ins(%cst : tensor<f32>) outs(%361 : tensor<1x512xf32>) {
  ^bb0(%arg3: f32):
    linalg.yield %arg3 : f32
  } -> tensor<1x512xf32>
  %363 = linalg.init_tensor [1, 512] : tensor<1x512xf32>
  %364 = linalg.generic {indexing_maps = [affine_map<(d0, d1) -> (d0, d1)>, affine_map<(d0, d1) -> (d0, d1)>, affine_map<(d0, d1) -> (d0, d1)>], iterator_types = ["parallel", "parallel"]} ins(%360, %362 : tensor<1x512xf32>, tensor<1x512xf32>) outs(%363 : tensor<1x512xf32>) {
  ^bb0(%arg3: f32):
    %3531 = arith.divf %arg3, %arg4 : f32
    linalg.yield %3531 : f32
  } -> tensor<1x512xf32>
  %365 = tensor.expand_shape %364 [[0], [1, 2]] : tensor<1x512xf32> into tensor<1x512x1xf32>
  %366 = linalg.init_tensor [1, 512, 384] : tensor<1x512x384xf32>
  %367 = linalg.generic {indexing_maps = [affine_map<(d0, d1, d2) -> (d0, d1, 0)>, affine_map<(d0, d1, d2) -> (d0, d1, d2)>], iterator_types = ["parallel", "parallel", "parallel"]} ins(%365 : tensor<1x512x1xf32>) outs(%366 : tensor<1x512x384xf32>) {
  ^bb0(%arg3: f32):
    linalg.yield %arg3 : f32
  } -> tensor<1x512x384xf32>
  %368 = linalg.init_tensor [1, 512, 384] : tensor<1x512x384xf32>
  %369 = linalg.generic {indexing_maps = [affine_map<(d0, d1, d2) -> (d0, d1, d2)>, affine_map<(d0, d1, d2) -> (d0, d1, d2)>, affine_map<(d0, d1, d2) -> (d0, d1, d2)>], iterator_types = ["parallel", "parallel", "parallel"]} ins(%357, %367 : tensor<1x512x384xf32>, tensor<1x512x384xf32>) outs(%368 : tensor<1x512x384xf32>) {
  ^bb0(%arg3: f32):
    %3531 = arith.subf %arg3, %arg4 : f32
    linalg.yield %3531 : f32
  } -> tensor<1x512x384xf32>
  %370 = linalg.init_tensor [1, 512, 384] : tensor<1x512x384xf32>
  %371 = linalg.generic {indexing_maps = [affine_map<(d0, d1, d2) -> (d0, d1, d2)>, affine_map<(d0, d1, d2) -> (d0, d1, d2)>, affine_map<(d0, d1, d2) -> (d0, d1, d2)>], iterator_types = ["parallel", "parallel", "parallel"]} ins(%369, %369 : tensor<1x512x384xf32>, tensor<1x512x384xf32>) outs(%370 : tensor<1x512x384xf32>) {
  ^bb0(%arg3: f32):
    %3531 = arith.mulf %arg3, %arg4 : f32
    linalg.yield %3531 : f32
  } -> tensor<1x512x384xf32>
  %cst_21 = arith.constant -0.000000e+00 : f32
  %372 = linalg.init_tensor [1, 512] : tensor<1x512xf32>
  %373 = linalg.fill ins(%cst_21 : f32) outs(%372 : tensor<1x512xf32>) -> tensor<1x512xf32>
  %374 = linalg.generic {indexing_maps = [affine_map<(d0, d1, d2) -> (d0, d1, d2)>, affine_map<(d0, d1, d2) -> (d0, d1)>], iterator_types = ["parallel", "parallel", "reduction"]} ins(%371 : tensor<1x512x384xf32>) outs(%373 : tensor<1x512xf32>) {
  ^bb0(%arg3: f32, %arg4: f32 loc(unknown)):
    %3531 = tensor.from_elements %arg4 : tensor<f32>
    %3532 = tensor.from_elements %arg3 : tensor<f32>
    %3533 = tensor.extract %3531[] : tensor<f32>
    %3534 = tensor.extract %3532[] : tensor<f32>
    %3535 = arith.addf %3533, %3534 : f32
    %3536 = tensor.from_elements %3535 : tensor<f32>
    %3537 = tensor.extract %3536[] : tensor<f32>
    linalg.yield %3537 : f32
  } -> tensor<1x512xf32>
  %375 = linalg.init_tensor [1, 512] : tensor<1x512xf32>
  %376 = linalg.generic {indexing_maps = [affine_map<(d0, d1) -> ()>, affine_map<(d0, d1) -> (d0, d1)>], iterator_types = ["parallel", "parallel"]} ins(%cst : tensor<f32>) outs(%375 : tensor<1x512xf32>) {
  ^bb0(%arg3: f32):
    linalg.yield %arg3 : f32
  } -> tensor<1x512xf32>
  %377 = linalg.init_tensor [1, 512] : tensor<1x512xf32>
  %378 = linalg.generic {indexing_maps = [affine_map<(d0, d1) -> (d0, d1)>, affine_map<(d0, d1) -> (d0, d1)>, affine_map<(d0, d1) -> (d0, d1)>], iterator_types = ["parallel", "parallel"]} ins(%374, %376 : tensor<1x512xf32>, tensor<1x512xf32>) outs(%377 : tensor<1x512xf32>) {
  ^bb0(%arg3: f32):
    %3531 = arith.divf %arg3, %arg4 : f32
    linalg.yield %3531 : f32
  } -> tensor<1x512xf32>
  %379 = tensor.expand_shape %378 [[0], [1, 2]] : tensor<1x512xf32> into tensor<1x512x1xf32>
  %380 = linalg.init_tensor [1, 512, 1] : tensor<1x512x1xf32>
  %381 = linalg.generic {indexing_maps = [affine_map<(d0, d1, d2) -> ()>, affine_map<(d0, d1, d2) -> (d0, d1, d2)>], iterator_types = ["parallel", "parallel", "parallel"]} ins(%cst_4 : tensor<f32>) outs(%380 : tensor<1x512x1xf32>) {
  ^bb0(%arg3: f32):
    linalg.yield %arg3 : f32
  } -> tensor<1x512x1xf32>
  %382 = linalg.init_tensor [1, 512, 1] : tensor<1x512x1xf32>
  %383 = linalg.generic {indexing_maps = [affine_map<(d0, d1, d2) -> (d0, d1, d2)>, affine_map<(d0, d1, d2) -> (d0, d1, d2)>, affine_map<(d0, d1, d2) -> (d0, d1, d2)>], iterator_types = ["parallel", "parallel", "parallel"]} ins(%379, %381 : tensor<1x512x1xf32>, tensor<1x512x1xf32>) outs(%382 : tensor<1x512x1xf32>) {
  ^bb0(%arg3: f32):
    %3531 = arith.addf %arg3, %arg4 : f32
    linalg.yield %3531 : f32
  } -> tensor<1x512x1xf32>
  %384 = linalg.init_tensor [1, 512, 1] : tensor<1x512x1xf32>
  %385 = linalg.generic {indexing_maps = [affine_map<(d0, d1, d2) -> (d0, d1, d2)>, affine_map<(d0, d1, d2) -> (d0, d1, d2)>], iterator_types = ["parallel", "parallel", "parallel"]} ins(%383 : tensor<1x512x1xf32>) outs(%384 : tensor<1x512x1xf32>) {
  ^bb0(%arg3: f32):
    %3531 = math.rsqrt %arg3 : f32
    linalg.yield %3531 : f32
  } -> tensor<1x512x1xf32>
  %386 = linalg.init_tensor [1, 512, 384] : tensor<1x512x384xf32>
  %387 = linalg.generic {indexing_maps = [affine_map<(d0, d1, d2) -> (d0, d1, 0)>, affine_map<(d0, d1, d2) -> (d0, d1, d2)>], iterator_types = ["parallel", "parallel", "parallel"]} ins(%385 : tensor<1x512x1xf32>) outs(%386 : tensor<1x512x384xf32>) {
  ^bb0(%arg3: f32):
    linalg.yield %arg3 : f32
  } -> tensor<1x512x384xf32>
  %388 = linalg.init_tensor [1, 512, 384] : tensor<1x512x384xf32>
  %389 = linalg.generic {indexing_maps = [affine_map<(d0, d1, d2) -> (d2)>, affine_map<(d0, d1, d2) -> (d0, d1, d2)>], iterator_types = ["parallel", "parallel", "parallel"]} ins(%19 : tensor<384xf32>) outs(%388 : tensor<1x512x384xf32>) {
  ^bb0(%arg3: f32):
    linalg.yield %arg3 : f32
  } -> tensor<1x512x384xf32>
  %390 = linalg.init_tensor [1, 512, 384] : tensor<1x512x384xf32>
  %391 = linalg.generic {indexing_maps = [affine_map<(d0, d1, d2) -> (d0, d1, d2)>, affine_map<(d0, d1, d2) -> (d0, d1, d2)>, affine_map<(d0, d1, d2) -> (d0, d1, d2)>], iterator_types = ["parallel", "parallel", "parallel"]} ins(%387, %389 : tensor<1x512x384xf32>, tensor<1x512x384xf32>) outs(%390 : tensor<1x512x384xf32>) {
  ^bb0(%arg3: f32):
    %3531 = arith.mulf %arg3, %arg4 : f32
    linalg.yield %3531 : f32
  } -> tensor<1x512x384xf32>
  %392 = linalg.init_tensor [1, 512, 384] : tensor<1x512x384xf32>
  %393 = linalg.generic {indexing_maps = [affine_map<(d0, d1, d2) -> (d0, d1, d2)>, affine_map<(d0, d1, d2) -> (d0, d1, d2)>, affine_map<(d0, d1, d2) -> (d0, d1, d2)>], iterator_types = ["parallel", "parallel", "parallel"]} ins(%357, %391 : tensor<1x512x384xf32>, tensor<1x512x384xf32>) outs(%392 : tensor<1x512x384xf32>) {
  ^bb0(%arg3: f32):
    %3531 = arith.mulf %arg3, %arg4 : f32
    linalg.yield %3531 : f32
  } -> tensor<1x512x384xf32>
  %394 = linalg.init_tensor [1, 512, 384] : tensor<1x512x384xf32>
  %395 = linalg.generic {indexing_maps = [affine_map<(d0, d1, d2) -> (d0, d1, 0)>, affine_map<(d0, d1, d2) -> (d0, d1, d2)>], iterator_types = ["parallel", "parallel", "parallel"]} ins(%365 : tensor<1x512x1xf32>) outs(%394 : tensor<1x512x384xf32>) {
  ^bb0(%arg3: f32):
    linalg.yield %arg3 : f32
  } -> tensor<1x512x384xf32>
  %396 = linalg.init_tensor [1, 512, 384] : tensor<1x512x384xf32>
  %397 = linalg.generic {indexing_maps = [affine_map<(d0, d1, d2) -> (d0, d1, d2)>, affine_map<(d0, d1, d2) -> (d0, d1, d2)>, affine_map<(d0, d1, d2) -> (d0, d1, d2)>], iterator_types = ["parallel", "parallel", "parallel"]} ins(%395, %391 : tensor<1x512x384xf32>, tensor<1x512x384xf32>) outs(%396 : tensor<1x512x384xf32>) {
  ^bb0(%arg3: f32):
    %3531 = arith.mulf %arg3, %arg4 : f32
    linalg.yield %3531 : f32
  } -> tensor<1x512x384xf32>
  %398 = linalg.init_tensor [1, 512, 384] : tensor<1x512x384xf32>
  %399 = linalg.generic {indexing_maps = [affine_map<(d0, d1, d2) -> (d2)>, affine_map<(d0, d1, d2) -> (d0, d1, d2)>], iterator_types = ["parallel", "parallel", "parallel"]} ins(%20 : tensor<384xf32>) outs(%398 : tensor<1x512x384xf32>) {
  ^bb0(%arg3: f32):
    linalg.yield %arg3 : f32
  } -> tensor<1x512x384xf32>
  %400 = linalg.init_tensor [1, 512, 384] : tensor<1x512x384xf32>
  %401 = linalg.generic {indexing_maps = [affine_map<(d0, d1, d2) -> (d0, d1, d2)>, affine_map<(d0, d1, d2) -> (d0, d1, d2)>, affine_map<(d0, d1, d2) -> (d0, d1, d2)>], iterator_types = ["parallel", "parallel", "parallel"]} ins(%399, %397 : tensor<1x512x384xf32>, tensor<1x512x384xf32>) outs(%400 : tensor<1x512x384xf32>) {
  ^bb0(%arg3: f32):
    %3531 = arith.subf %arg3, %arg4 : f32
    linalg.yield %3531 : f32
  } -> tensor<1x512x384xf32>
  %402 = linalg.init_tensor [1, 512, 384] : tensor<1x512x384xf32>
  %403 = linalg.generic {indexing_maps = [affine_map<(d0, d1, d2) -> (d0, d1, d2)>, affine_map<(d0, d1, d2) -> (d0, d1, d2)>, affine_map<(d0, d1, d2) -> (d0, d1, d2)>], iterator_types = ["parallel", "parallel", "parallel"]} ins(%393, %401 : tensor<1x512x384xf32>, tensor<1x512x384xf32>) outs(%402 : tensor<1x512x384xf32>) {
  ^bb0(%arg3: f32):
    %3531 = arith.addf %arg3, %arg4 : f32
    linalg.yield %3531 : f32
  } -> tensor<1x512x384xf32>
  %404 = tensor.collapse_shape %403 [[0, 1], [2]] : tensor<1x512x384xf32> into tensor<512x384xf32>
  %405 = linalg.init_tensor [512, 1536] : tensor<512x1536xf32>
  %cst_22 = arith.constant 0.000000e+00 : f32
  %406 = linalg.fill ins(%cst_22 : f32) outs(%405 : tensor<512x1536xf32>) -> tensor<512x1536xf32>
  %407 = linalg.matmul ins(%404, %28 : tensor<512x384xf32>, tensor<384x1536xf32>) outs(%406 : tensor<512x1536xf32>) -> tensor<512x1536xf32>
  %408 = tensor.expand_shape %407 [[0, 1], [2]] : tensor<512x1536xf32> into tensor<1x512x1536xf32>
  %409 = linalg.init_tensor [1, 512, 1536] : tensor<1x512x1536xf32>
  %410 = linalg.generic {indexing_maps = [affine_map<(d0, d1, d2) -> (d2)>, affine_map<(d0, d1, d2) -> (d0, d1, d2)>], iterator_types = ["parallel", "parallel", "parallel"]} ins(%27 : tensor<1536xf32>) outs(%409 : tensor<1x512x1536xf32>) {
  ^bb0(%arg3: f32):
    linalg.yield %arg3 : f32
  } -> tensor<1x512x1536xf32>
  %411 = linalg.init_tensor [1, 512, 1536] : tensor<1x512x1536xf32>
  %412 = linalg.generic {indexing_maps = [affine_map<(d0, d1, d2) -> (d0, d1, d2)>, affine_map<(d0, d1, d2) -> (d0, d1, d2)>, affine_map<(d0, d1, d2) -> (d0, d1, d2)>], iterator_types = ["parallel", "parallel", "parallel"]} ins(%408, %410 : tensor<1x512x1536xf32>, tensor<1x512x1536xf32>) outs(%411 : tensor<1x512x1536xf32>) {
  ^bb0(%arg3: f32):
    %3531 = arith.addf %arg3, %arg4 : f32
    linalg.yield %3531 : f32
  } -> tensor<1x512x1536xf32>
  %413 = linalg.init_tensor [1, 512, 1536] : tensor<1x512x1536xf32>
  %414 = linalg.generic {indexing_maps = [affine_map<(d0, d1, d2) -> ()>, affine_map<(d0, d1, d2) -> (d0, d1, d2)>], iterator_types = ["parallel", "parallel", "parallel"]} ins(%cst_6 : tensor<f32>) outs(%413 : tensor<1x512x1536xf32>) {
  ^bb0(%arg3: f32):
    linalg.yield %arg3 : f32
  } -> tensor<1x512x1536xf32>
  %415 = linalg.init_tensor [1, 512, 1536] : tensor<1x512x1536xf32>
  %416 = linalg.generic {indexing_maps = [affine_map<(d0, d1, d2) -> (d0, d1, d2)>, affine_map<(d0, d1, d2) -> (d0, d1, d2)>, affine_map<(d0, d1, d2) -> (d0, d1, d2)>], iterator_types = ["parallel", "parallel", "parallel"]} ins(%412, %414 : tensor<1x512x1536xf32>, tensor<1x512x1536xf32>) outs(%415 : tensor<1x512x1536xf32>) {
  ^bb0(%arg3: f32):
    %3531 = arith.mulf %arg3, %arg4 : f32
    linalg.yield %3531 : f32
  } -> tensor<1x512x1536xf32>
  %417 = linalg.init_tensor [1, 512, 1536] : tensor<1x512x1536xf32>
  %418 = linalg.generic {indexing_maps = [affine_map<(d0, d1, d2) -> ()>, affine_map<(d0, d1, d2) -> (d0, d1, d2)>], iterator_types = ["parallel", "parallel", "parallel"]} ins(%cst_7 : tensor<f32>) outs(%417 : tensor<1x512x1536xf32>) {
  ^bb0(%arg3: f32):
    linalg.yield %arg3 : f32
  } -> tensor<1x512x1536xf32>
  %419 = linalg.init_tensor [1, 512, 1536] : tensor<1x512x1536xf32>
  %420 = linalg.generic {indexing_maps = [affine_map<(d0, d1, d2) -> (d0, d1, d2)>, affine_map<(d0, d1, d2) -> (d0, d1, d2)>, affine_map<(d0, d1, d2) -> (d0, d1, d2)>], iterator_types = ["parallel", "parallel", "parallel"]} ins(%412, %418 : tensor<1x512x1536xf32>, tensor<1x512x1536xf32>) outs(%419 : tensor<1x512x1536xf32>) {
  ^bb0(%arg3: f32):
    %3531 = arith.mulf %arg3, %arg4 : f32
    linalg.yield %3531 : f32
  } -> tensor<1x512x1536xf32>
  %cst_23 = arith.constant dense<-4.000000e+00> : tensor<1x512x1536xf32>
  %cst_24 = arith.constant dense<4.000000e+00> : tensor<1x512x1536xf32>
  %421 = linalg.init_tensor [1, 512, 1536] : tensor<1x512x1536xf32>
  %422 = linalg.generic {indexing_maps = [affine_map<(d0, d1, d2) -> (d0, d1, d2)>, affine_map<(d0, d1, d2) -> (d0, d1, d2)>, affine_map<(d0, d1, d2) -> (d0, d1, d2)>, affine_map<(d0, d1, d2) -> (d0, d1, d2)>], iterator_types = ["parallel", "parallel", "parallel"]} ins(%cst_23, %420, %cst_24 : tensor<1x512x1536xf32>, tensor<1x512x1536xf32>, tensor<1x512x1536xf32>) outs(%421 : tensor<1x512x1536xf32>) {
  ^bb0(%arg3: f32):
    %3531 = arith.maxf %arg3, %arg4 : f32
    %3532 = arith.minf %3531, %arg5 : f32
    linalg.yield %3532 : f32
  } -> tensor<1x512x1536xf32>
  %423 = linalg.init_tensor [1, 512, 1536] : tensor<1x512x1536xf32>
  %424 = linalg.generic {indexing_maps = [affine_map<(d0, d1, d2) -> (d0, d1, d2)>, affine_map<(d0, d1, d2) -> (d0, d1, d2)>, affine_map<(d0, d1, d2) -> (d0, d1, d2)>], iterator_types = ["parallel", "parallel", "parallel"]} ins(%422, %422 : tensor<1x512x1536xf32>, tensor<1x512x1536xf32>) outs(%423 : tensor<1x512x1536xf32>) {
  ^bb0(%arg3: f32):
    %3531 = arith.mulf %arg3, %arg4 : f32
    linalg.yield %3531 : f32
  } -> tensor<1x512x1536xf32>
  %cst_25 = arith.constant dense<0.000000e+00> : tensor<1x512x1536xf32>
  %425 = linalg.init_tensor [1, 512, 1536] : tensor<1x512x1536xf32>
  %426 = linalg.generic {indexing_maps = [affine_map<(d0, d1, d2) -> (d0, d1, d2)>, affine_map<(d0, d1, d2) -> (d0, d1, d2)>, affine_map<(d0, d1, d2) -> (d0, d1, d2)>], iterator_types = ["parallel", "parallel", "parallel"]} ins(%cst_25, %424 : tensor<1x512x1536xf32>, tensor<1x512x1536xf32>) outs(%425 : tensor<1x512x1536xf32>) {
  ^bb0(%arg3: f32):
    %3531 = arith.mulf %arg3, %arg4 : f32
    linalg.yield %3531 : f32
  } -> tensor<1x512x1536xf32>
  %cst_26 = arith.constant dense<-2.72614237E-10> : tensor<1x512x1536xf32>
  %427 = linalg.init_tensor [1, 512, 1536] : tensor<1x512x1536xf32>
  %428 = linalg.generic {indexing_maps = [affine_map<(d0, d1, d2) -> (d0, d1, d2)>, affine_map<(d0, d1, d2) -> (d0, d1, d2)>, affine_map<(d0, d1, d2) -> (d0, d1, d2)>], iterator_types = ["parallel", "parallel", "parallel"]} ins(%426, %cst_26 : tensor<1x512x1536xf32>, tensor<1x512x1536xf32>) outs(%427 : tensor<1x512x1536xf32>) {
  ^bb0(%arg3: f32):
    %3531 = arith.addf %arg3, %arg4 : f32
    linalg.yield %3531 : f32
  } -> tensor<1x512x1536xf32>
  %429 = linalg.init_tensor [1, 512, 1536] : tensor<1x512x1536xf32>
  %430 = linalg.generic {indexing_maps = [affine_map<(d0, d1, d2) -> (d0, d1, d2)>, affine_map<(d0, d1, d2) -> (d0, d1, d2)>, affine_map<(d0, d1, d2) -> (d0, d1, d2)>], iterator_types = ["parallel", "parallel", "parallel"]} ins(%428, %424 : tensor<1x512x1536xf32>, tensor<1x512x1536xf32>) outs(%429 : tensor<1x512x1536xf32>) {
  ^bb0(%arg3: f32):
    %3531 = arith.mulf %arg3, %arg4 : f32
    linalg.yield %3531 : f32
  } -> tensor<1x512x1536xf32>
  %cst_27 = arith.constant dense<2.77068146E-8> : tensor<1x512x1536xf32>
  %431 = linalg.init_tensor [1, 512, 1536] : tensor<1x512x1536xf32>
  %432 = linalg.generic {indexing_maps = [affine_map<(d0, d1, d2) -> (d0, d1, d2)>, affine_map<(d0, d1, d2) -> (d0, d1, d2)>, affine_map<(d0, d1, d2) -> (d0, d1, d2)>], iterator_types = ["parallel", "parallel", "parallel"]} ins(%430, %cst_27 : tensor<1x512x1536xf32>, tensor<1x512x1536xf32>) outs(%431 : tensor<1x512x1536xf32>) {
  ^bb0(%arg3: f32):
    %3531 = arith.addf %arg3, %arg4 : f32
    linalg.yield %3531 : f32
  } -> tensor<1x512x1536xf32>
  %433 = linalg.init_tensor [1, 512, 1536] : tensor<1x512x1536xf32>
  %434 = linalg.generic {indexing_maps = [affine_map<(d0, d1, d2) -> (d0, d1, d2)>, affine_map<(d0, d1, d2) -> (d0, d1, d2)>, affine_map<(d0, d1, d2) -> (d0, d1, d2)>], iterator_types = ["parallel", "parallel", "parallel"]} ins(%432, %424 : tensor<1x512x1536xf32>, tensor<1x512x1536xf32>) outs(%433 : tensor<1x512x1536xf32>) {
  ^bb0(%arg3: f32):
    %3531 = arith.mulf %arg3, %arg4 : f32
    linalg.yield %3531 : f32
  } -> tensor<1x512x1536xf32>
  %cst_28 = arith.constant dense<-2.10102394E-6> : tensor<1x512x1536xf32>
  %435 = linalg.init_tensor [1, 512, 1536] : tensor<1x512x1536xf32>
  %436 = linalg.generic {indexing_maps = [affine_map<(d0, d1, d2) -> (d0, d1, d2)>, affine_map<(d0, d1, d2) -> (d0, d1, d2)>, affine_map<(d0, d1, d2) -> (d0, d1, d2)>], iterator_types = ["parallel", "parallel", "parallel"]} ins(%434, %cst_28 : tensor<1x512x1536xf32>, tensor<1x512x1536xf32>) outs(%435 : tensor<1x512x1536xf32>) {
  ^bb0(%arg3: f32):
    %3531 = arith.addf %arg3, %arg4 : f32
    linalg.yield %3531 : f32
  } -> tensor<1x512x1536xf32>
  %437 = linalg.init_tensor [1, 512, 1536] : tensor<1x512x1536xf32>
  %438 = linalg.generic {indexing_maps = [affine_map<(d0, d1, d2) -> (d0, d1, d2)>, affine_map<(d0, d1, d2) -> (d0, d1, d2)>, affine_map<(d0, d1, d2) -> (d0, d1, d2)>], iterator_types = ["parallel", "parallel", "parallel"]} ins(%436, %424 : tensor<1x512x1536xf32>, tensor<1x512x1536xf32>) outs(%437 : tensor<1x512x1536xf32>) {
  ^bb0(%arg3: f32):
    %3531 = arith.mulf %arg3, %arg4 : f32
    linalg.yield %3531 : f32
  } -> tensor<1x512x1536xf32>
  %cst_29 = arith.constant dense<-5.69250624E-5> : tensor<1x512x1536xf32>
  %439 = linalg.init_tensor [1, 512, 1536] : tensor<1x512x1536xf32>
  %440 = linalg.generic {indexing_maps = [affine_map<(d0, d1, d2) -> (d0, d1, d2)>, affine_map<(d0, d1, d2) -> (d0, d1, d2)>, affine_map<(d0, d1, d2) -> (d0, d1, d2)>], iterator_types = ["parallel", "parallel", "parallel"]} ins(%438, %cst_29 : tensor<1x512x1536xf32>, tensor<1x512x1536xf32>) outs(%439 : tensor<1x512x1536xf32>) {
  ^bb0(%arg3: f32):
    %3531 = arith.addf %arg3, %arg4 : f32
    linalg.yield %3531 : f32
  } -> tensor<1x512x1536xf32>
  %441 = linalg.init_tensor [1, 512, 1536] : tensor<1x512x1536xf32>
  %442 = linalg.generic {indexing_maps = [affine_map<(d0, d1, d2) -> (d0, d1, d2)>, affine_map<(d0, d1, d2) -> (d0, d1, d2)>, affine_map<(d0, d1, d2) -> (d0, d1, d2)>], iterator_types = ["parallel", "parallel", "parallel"]} ins(%440, %424 : tensor<1x512x1536xf32>, tensor<1x512x1536xf32>) outs(%441 : tensor<1x512x1536xf32>) {
  ^bb0(%arg3: f32):
    %3531 = arith.mulf %arg3, %arg4 : f32
    linalg.yield %3531 : f32
  } -> tensor<1x512x1536xf32>
  %cst_30 = arith.constant dense<-7.34990637E-4> : tensor<1x512x1536xf32>
  %443 = linalg.init_tensor [1, 512, 1536] : tensor<1x512x1536xf32>
  %444 = linalg.generic {indexing_maps = [affine_map<(d0, d1, d2) -> (d0, d1, d2)>, affine_map<(d0, d1, d2) -> (d0, d1, d2)>, affine_map<(d0, d1, d2) -> (d0, d1, d2)>], iterator_types = ["parallel", "parallel", "parallel"]} ins(%442, %cst_30 : tensor<1x512x1536xf32>, tensor<1x512x1536xf32>) outs(%443 : tensor<1x512x1536xf32>) {
  ^bb0(%arg3: f32):
    %3531 = arith.addf %arg3, %arg4 : f32
    linalg.yield %3531 : f32
  } -> tensor<1x512x1536xf32>
  %445 = linalg.init_tensor [1, 512, 1536] : tensor<1x512x1536xf32>
  %446 = linalg.generic {indexing_maps = [affine_map<(d0, d1, d2) -> (d0, d1, d2)>, affine_map<(d0, d1, d2) -> (d0, d1, d2)>, affine_map<(d0, d1, d2) -> (d0, d1, d2)>], iterator_types = ["parallel", "parallel", "parallel"]} ins(%444, %424 : tensor<1x512x1536xf32>, tensor<1x512x1536xf32>) outs(%445 : tensor<1x512x1536xf32>) {
  ^bb0(%arg3: f32):
    %3531 = arith.mulf %arg3, %arg4 : f32
    linalg.yield %3531 : f32
  } -> tensor<1x512x1536xf32>
  %cst_31 = arith.constant dense<-2.954600e-03> : tensor<1x512x1536xf32>
  %447 = linalg.init_tensor [1, 512, 1536] : tensor<1x512x1536xf32>
  %448 = linalg.generic {indexing_maps = [affine_map<(d0, d1, d2) -> (d0, d1, d2)>, affine_map<(d0, d1, d2) -> (d0, d1, d2)>, affine_map<(d0, d1, d2) -> (d0, d1, d2)>], iterator_types = ["parallel", "parallel", "parallel"]} ins(%446, %cst_31 : tensor<1x512x1536xf32>, tensor<1x512x1536xf32>) outs(%447 : tensor<1x512x1536xf32>) {
  ^bb0(%arg3: f32):
    %3531 = arith.addf %arg3, %arg4 : f32
    linalg.yield %3531 : f32
  } -> tensor<1x512x1536xf32>
  %449 = linalg.init_tensor [1, 512, 1536] : tensor<1x512x1536xf32>
  %450 = linalg.generic {indexing_maps = [affine_map<(d0, d1, d2) -> (d0, d1, d2)>, affine_map<(d0, d1, d2) -> (d0, d1, d2)>, affine_map<(d0, d1, d2) -> (d0, d1, d2)>], iterator_types = ["parallel", "parallel", "parallel"]} ins(%448, %424 : tensor<1x512x1536xf32>, tensor<1x512x1536xf32>) outs(%449 : tensor<1x512x1536xf32>) {
  ^bb0(%arg3: f32):
    %3531 = arith.mulf %arg3, %arg4 : f32
    linalg.yield %3531 : f32
  } -> tensor<1x512x1536xf32>
  %cst_32 = arith.constant dense<-0.0160960332> : tensor<1x512x1536xf32>
  %451 = linalg.init_tensor [1, 512, 1536] : tensor<1x512x1536xf32>
  %452 = linalg.generic {indexing_maps = [affine_map<(d0, d1, d2) -> (d0, d1, d2)>, affine_map<(d0, d1, d2) -> (d0, d1, d2)>, affine_map<(d0, d1, d2) -> (d0, d1, d2)>], iterator_types = ["parallel", "parallel", "parallel"]} ins(%450, %cst_32 : tensor<1x512x1536xf32>, tensor<1x512x1536xf32>) outs(%451 : tensor<1x512x1536xf32>) {
  ^bb0(%arg3: f32):
    %3531 = arith.addf %arg3, %arg4 : f32
    linalg.yield %3531 : f32
  } -> tensor<1x512x1536xf32>
  %cst_33 = arith.constant dense<0.000000e+00> : tensor<1x512x1536xf32>
  %453 = linalg.init_tensor [1, 512, 1536] : tensor<1x512x1536xf32>
  %454 = linalg.generic {indexing_maps = [affine_map<(d0, d1, d2) -> (d0, d1, d2)>, affine_map<(d0, d1, d2) -> (d0, d1, d2)>, affine_map<(d0, d1, d2) -> (d0, d1, d2)>], iterator_types = ["parallel", "parallel", "parallel"]} ins(%cst_33, %424 : tensor<1x512x1536xf32>, tensor<1x512x1536xf32>) outs(%453 : tensor<1x512x1536xf32>) {
  ^bb0(%arg3: f32):
    %3531 = arith.mulf %arg3, %arg4 : f32
    linalg.yield %3531 : f32
  } -> tensor<1x512x1536xf32>
  %cst_34 = arith.constant dense<-1.45660715E-5> : tensor<1x512x1536xf32>
  %455 = linalg.init_tensor [1, 512, 1536] : tensor<1x512x1536xf32>
  %456 = linalg.generic {indexing_maps = [affine_map<(d0, d1, d2) -> (d0, d1, d2)>, affine_map<(d0, d1, d2) -> (d0, d1, d2)>, affine_map<(d0, d1, d2) -> (d0, d1, d2)>], iterator_types = ["parallel", "parallel", "parallel"]} ins(%454, %cst_34 : tensor<1x512x1536xf32>, tensor<1x512x1536xf32>) outs(%455 : tensor<1x512x1536xf32>) {
  ^bb0(%arg3: f32):
    %3531 = arith.addf %arg3, %arg4 : f32
    linalg.yield %3531 : f32
  } -> tensor<1x512x1536xf32>
  %457 = linalg.init_tensor [1, 512, 1536] : tensor<1x512x1536xf32>
  %458 = linalg.generic {indexing_maps = [affine_map<(d0, d1, d2) -> (d0, d1, d2)>, affine_map<(d0, d1, d2) -> (d0, d1, d2)>, affine_map<(d0, d1, d2) -> (d0, d1, d2)>], iterator_types = ["parallel", "parallel", "parallel"]} ins(%456, %424 : tensor<1x512x1536xf32>, tensor<1x512x1536xf32>) outs(%457 : tensor<1x512x1536xf32>) {
  ^bb0(%arg3: f32):
    %3531 = arith.mulf %arg3, %arg4 : f32
    linalg.yield %3531 : f32
  } -> tensor<1x512x1536xf32>
  %cst_35 = arith.constant dense<-2.13374049E-4> : tensor<1x512x1536xf32>
  %459 = linalg.init_tensor [1, 512, 1536] : tensor<1x512x1536xf32>
  %460 = linalg.generic {indexing_maps = [affine_map<(d0, d1, d2) -> (d0, d1, d2)>, affine_map<(d0, d1, d2) -> (d0, d1, d2)>, affine_map<(d0, d1, d2) -> (d0, d1, d2)>], iterator_types = ["parallel", "parallel", "parallel"]} ins(%458, %cst_35 : tensor<1x512x1536xf32>, tensor<1x512x1536xf32>) outs(%459 : tensor<1x512x1536xf32>) {
  ^bb0(%arg3: f32):
    %3531 = arith.addf %arg3, %arg4 : f32
    linalg.yield %3531 : f32
  } -> tensor<1x512x1536xf32>
  %461 = linalg.init_tensor [1, 512, 1536] : tensor<1x512x1536xf32>
  %462 = linalg.generic {indexing_maps = [affine_map<(d0, d1, d2) -> (d0, d1, d2)>, affine_map<(d0, d1, d2) -> (d0, d1, d2)>, affine_map<(d0, d1, d2) -> (d0, d1, d2)>], iterator_types = ["parallel", "parallel", "parallel"]} ins(%460, %424 : tensor<1x512x1536xf32>, tensor<1x512x1536xf32>) outs(%461 : tensor<1x512x1536xf32>) {
  ^bb0(%arg3: f32):
    %3531 = arith.mulf %arg3, %arg4 : f32
    linalg.yield %3531 : f32
  } -> tensor<1x512x1536xf32>
  %cst_36 = arith.constant dense<-0.00168282702> : tensor<1x512x1536xf32>
  %463 = linalg.init_tensor [1, 512, 1536] : tensor<1x512x1536xf32>
  %464 = linalg.generic {indexing_maps = [affine_map<(d0, d1, d2) -> (d0, d1, d2)>, affine_map<(d0, d1, d2) -> (d0, d1, d2)>, affine_map<(d0, d1, d2) -> (d0, d1, d2)>], iterator_types = ["parallel", "parallel", "parallel"]} ins(%462, %cst_36 : tensor<1x512x1536xf32>, tensor<1x512x1536xf32>) outs(%463 : tensor<1x512x1536xf32>) {
  ^bb0(%arg3: f32):
    %3531 = arith.addf %arg3, %arg4 : f32
    linalg.yield %3531 : f32
  } -> tensor<1x512x1536xf32>
  %465 = linalg.init_tensor [1, 512, 1536] : tensor<1x512x1536xf32>
  %466 = linalg.generic {indexing_maps = [affine_map<(d0, d1, d2) -> (d0, d1, d2)>, affine_map<(d0, d1, d2) -> (d0, d1, d2)>, affine_map<(d0, d1, d2) -> (d0, d1, d2)>], iterator_types = ["parallel", "parallel", "parallel"]} ins(%464, %424 : tensor<1x512x1536xf32>, tensor<1x512x1536xf32>) outs(%465 : tensor<1x512x1536xf32>) {
  ^bb0(%arg3: f32):
    %3531 = arith.mulf %arg3, %arg4 : f32
    linalg.yield %3531 : f32
  } -> tensor<1x512x1536xf32>
  %cst_37 = arith.constant dense<-0.00737332925> : tensor<1x512x1536xf32>
  %467 = linalg.init_tensor [1, 512, 1536] : tensor<1x512x1536xf32>
  %468 = linalg.generic {indexing_maps = [affine_map<(d0, d1, d2) -> (d0, d1, d2)>, affine_map<(d0, d1, d2) -> (d0, d1, d2)>, affine_map<(d0, d1, d2) -> (d0, d1, d2)>], iterator_types = ["parallel", "parallel", "parallel"]} ins(%466, %cst_37 : tensor<1x512x1536xf32>, tensor<1x512x1536xf32>) outs(%467 : tensor<1x512x1536xf32>) {
  ^bb0(%arg3: f32):
    %3531 = arith.addf %arg3, %arg4 : f32
    linalg.yield %3531 : f32
  } -> tensor<1x512x1536xf32>
  %469 = linalg.init_tensor [1, 512, 1536] : tensor<1x512x1536xf32>
  %470 = linalg.generic {indexing_maps = [affine_map<(d0, d1, d2) -> (d0, d1, d2)>, affine_map<(d0, d1, d2) -> (d0, d1, d2)>, affine_map<(d0, d1, d2) -> (d0, d1, d2)>], iterator_types = ["parallel", "parallel", "parallel"]} ins(%468, %424 : tensor<1x512x1536xf32>, tensor<1x512x1536xf32>) outs(%469 : tensor<1x512x1536xf32>) {
  ^bb0(%arg3: f32):
    %3531 = arith.mulf %arg3, %arg4 : f32
    linalg.yield %3531 : f32
  } -> tensor<1x512x1536xf32>
  %cst_38 = arith.constant dense<-0.0142647391> : tensor<1x512x1536xf32>
  %471 = linalg.init_tensor [1, 512, 1536] : tensor<1x512x1536xf32>
  %472 = linalg.generic {indexing_maps = [affine_map<(d0, d1, d2) -> (d0, d1, d2)>, affine_map<(d0, d1, d2) -> (d0, d1, d2)>, affine_map<(d0, d1, d2) -> (d0, d1, d2)>], iterator_types = ["parallel", "parallel", "parallel"]} ins(%470, %cst_38 : tensor<1x512x1536xf32>, tensor<1x512x1536xf32>) outs(%471 : tensor<1x512x1536xf32>) {
  ^bb0(%arg3: f32):
    %3531 = arith.addf %arg3, %arg4 : f32
    linalg.yield %3531 : f32
  } -> tensor<1x512x1536xf32>
  %473 = linalg.init_tensor [1, 512, 1536] : tensor<1x512x1536xf32>
  %474 = linalg.generic {indexing_maps = [affine_map<(d0, d1, d2) -> (d0, d1, d2)>, affine_map<(d0, d1, d2) -> (d0, d1, d2)>, affine_map<(d0, d1, d2) -> (d0, d1, d2)>], iterator_types = ["parallel", "parallel", "parallel"]} ins(%422, %452 : tensor<1x512x1536xf32>, tensor<1x512x1536xf32>) outs(%473 : tensor<1x512x1536xf32>) {
  ^bb0(%arg3: f32):
    %3531 = arith.mulf %arg3, %arg4 : f32
    linalg.yield %3531 : f32
  } -> tensor<1x512x1536xf32>
  %475 = linalg.init_tensor [1, 512, 1536] : tensor<1x512x1536xf32>
  %476 = linalg.generic {indexing_maps = [affine_map<(d0, d1, d2) -> (d0, d1, d2)>, affine_map<(d0, d1, d2) -> (d0, d1, d2)>, affine_map<(d0, d1, d2) -> (d0, d1, d2)>], iterator_types = ["parallel", "parallel", "parallel"]} ins(%474, %472 : tensor<1x512x1536xf32>, tensor<1x512x1536xf32>) outs(%475 : tensor<1x512x1536xf32>) {
  ^bb0(%arg3: f32):
    %3531 = arith.divf %arg3, %arg4 : f32
    linalg.yield %3531 : f32
  } -> tensor<1x512x1536xf32>
  %477 = linalg.init_tensor [1, 512, 1536] : tensor<1x512x1536xf32>
  %478 = linalg.generic {indexing_maps = [affine_map<(d0, d1, d2) -> ()>, affine_map<(d0, d1, d2) -> (d0, d1, d2)>], iterator_types = ["parallel", "parallel", "parallel"]} ins(%cst_3 : tensor<f32>) outs(%477 : tensor<1x512x1536xf32>) {
  ^bb0(%arg3: f32):
    linalg.yield %arg3 : f32
  } -> tensor<1x512x1536xf32>
  %479 = linalg.init_tensor [1, 512, 1536] : tensor<1x512x1536xf32>
  %480 = linalg.generic {indexing_maps = [affine_map<(d0, d1, d2) -> (d0, d1, d2)>, affine_map<(d0, d1, d2) -> (d0, d1, d2)>, affine_map<(d0, d1, d2) -> (d0, d1, d2)>], iterator_types = ["parallel", "parallel", "parallel"]} ins(%476, %478 : tensor<1x512x1536xf32>, tensor<1x512x1536xf32>) outs(%479 : tensor<1x512x1536xf32>) {
  ^bb0(%arg3: f32):
    %3531 = arith.addf %arg3, %arg4 : f32
    linalg.yield %3531 : f32
  } -> tensor<1x512x1536xf32>
  %481 = linalg.init_tensor [1, 512, 1536] : tensor<1x512x1536xf32>
  %482 = linalg.generic {indexing_maps = [affine_map<(d0, d1, d2) -> (d0, d1, d2)>, affine_map<(d0, d1, d2) -> (d0, d1, d2)>, affine_map<(d0, d1, d2) -> (d0, d1, d2)>], iterator_types = ["parallel", "parallel", "parallel"]} ins(%416, %480 : tensor<1x512x1536xf32>, tensor<1x512x1536xf32>) outs(%481 : tensor<1x512x1536xf32>) {
  ^bb0(%arg3: f32):
    %3531 = arith.mulf %arg3, %arg4 : f32
    linalg.yield %3531 : f32
  } -> tensor<1x512x1536xf32>
  %483 = tensor.collapse_shape %482 [[0, 1], [2]] : tensor<1x512x1536xf32> into tensor<512x1536xf32>
  %484 = linalg.init_tensor [512, 384] : tensor<512x384xf32>
  %cst_39 = arith.constant 0.000000e+00 : f32
  %485 = linalg.fill ins(%cst_39 : f32) outs(%484 : tensor<512x384xf32>) -> tensor<512x384xf32>
  %486 = linalg.matmul ins(%483, %30 : tensor<512x1536xf32>, tensor<1536x384xf32>) outs(%485 : tensor<512x384xf32>) -> tensor<512x384xf32>
  %487 = tensor.expand_shape %486 [[0, 1], [2]] : tensor<512x384xf32> into tensor<1x512x384xf32>
  %488 = linalg.init_tensor [1, 512, 384] : tensor<1x512x384xf32>
  %489 = linalg.generic {indexing_maps = [affine_map<(d0, d1, d2) -> (d2)>, affine_map<(d0, d1, d2) -> (d0, d1, d2)>], iterator_types = ["parallel", "parallel", "parallel"]} ins(%29 : tensor<384xf32>) outs(%488 : tensor<1x512x384xf32>) {
  ^bb0(%arg3: f32):
    linalg.yield %arg3 : f32
  } -> tensor<1x512x384xf32>
  %490 = linalg.init_tensor [1, 512, 384] : tensor<1x512x384xf32>
  %491 = linalg.generic {indexing_maps = [affine_map<(d0, d1, d2) -> (d0, d1, d2)>, affine_map<(d0, d1, d2) -> (d0, d1, d2)>, affine_map<(d0, d1, d2) -> (d0, d1, d2)>], iterator_types = ["parallel", "parallel", "parallel"]} ins(%487, %489 : tensor<1x512x384xf32>, tensor<1x512x384xf32>) outs(%490 : tensor<1x512x384xf32>) {
  ^bb0(%arg3: f32):
    %3531 = arith.addf %arg3, %arg4 : f32
    linalg.yield %3531 : f32
  } -> tensor<1x512x384xf32>
  %492 = linalg.init_tensor [1, 512, 384] : tensor<1x512x384xf32>
  %493 = linalg.generic {indexing_maps = [affine_map<(d0, d1, d2) -> (d0, d1, d2)>, affine_map<(d0, d1, d2) -> (d0, d1, d2)>, affine_map<(d0, d1, d2) -> (d0, d1, d2)>], iterator_types = ["parallel", "parallel", "parallel"]} ins(%491, %403 : tensor<1x512x384xf32>, tensor<1x512x384xf32>) outs(%492 : tensor<1x512x384xf32>) {
  ^bb0(%arg3: f32):
    %3531 = arith.addf %arg3, %arg4 : f32
    linalg.yield %3531 : f32
  } -> tensor<1x512x384xf32>
  %cst_40 = arith.constant -0.000000e+00 : f32
  %494 = linalg.init_tensor [1, 512] : tensor<1x512xf32>
  %495 = linalg.fill ins(%cst_40 : f32) outs(%494 : tensor<1x512xf32>) -> tensor<1x512xf32>
  %496 = linalg.generic {indexing_maps = [affine_map<(d0, d1, d2) -> (d0, d1, d2)>, affine_map<(d0, d1, d2) -> (d0, d1)>], iterator_types = ["parallel", "parallel", "reduction"]} ins(%493 : tensor<1x512x384xf32>) outs(%495 : tensor<1x512xf32>) {
  ^bb0(%arg3: f32, %arg4: f32 loc(unknown)):
    %3531 = tensor.from_elements %arg4 : tensor<f32>
    %3532 = tensor.from_elements %arg3 : tensor<f32>
    %3533 = tensor.extract %3531[] : tensor<f32>
    %3534 = tensor.extract %3532[] : tensor<f32>
    %3535 = arith.addf %3533, %3534 : f32
    %3536 = tensor.from_elements %3535 : tensor<f32>
    %3537 = tensor.extract %3536[] : tensor<f32>
    linalg.yield %3537 : f32
  } -> tensor<1x512xf32>
  %497 = linalg.init_tensor [1, 512] : tensor<1x512xf32>
  %498 = linalg.generic {indexing_maps = [affine_map<(d0, d1) -> ()>, affine_map<(d0, d1) -> (d0, d1)>], iterator_types = ["parallel", "parallel"]} ins(%cst : tensor<f32>) outs(%497 : tensor<1x512xf32>) {
  ^bb0(%arg3: f32):
    linalg.yield %arg3 : f32
  } -> tensor<1x512xf32>
  %499 = linalg.init_tensor [1, 512] : tensor<1x512xf32>
  %500 = linalg.generic {indexing_maps = [affine_map<(d0, d1) -> (d0, d1)>, affine_map<(d0, d1) -> (d0, d1)>, affine_map<(d0, d1) -> (d0, d1)>], iterator_types = ["parallel", "parallel"]} ins(%496, %498 : tensor<1x512xf32>, tensor<1x512xf32>) outs(%499 : tensor<1x512xf32>) {
  ^bb0(%arg3: f32):
    %3531 = arith.divf %arg3, %arg4 : f32
    linalg.yield %3531 : f32
  } -> tensor<1x512xf32>
  %501 = tensor.expand_shape %500 [[0], [1, 2]] : tensor<1x512xf32> into tensor<1x512x1xf32>
  %502 = linalg.init_tensor [1, 512, 384] : tensor<1x512x384xf32>
  %503 = linalg.generic {indexing_maps = [affine_map<(d0, d1, d2) -> (d0, d1, 0)>, affine_map<(d0, d1, d2) -> (d0, d1, d2)>], iterator_types = ["parallel", "parallel", "parallel"]} ins(%501 : tensor<1x512x1xf32>) outs(%502 : tensor<1x512x384xf32>) {
  ^bb0(%arg3: f32):
    linalg.yield %arg3 : f32
  } -> tensor<1x512x384xf32>
  %504 = linalg.init_tensor [1, 512, 384] : tensor<1x512x384xf32>
  %505 = linalg.generic {indexing_maps = [affine_map<(d0, d1, d2) -> (d0, d1, d2)>, affine_map<(d0, d1, d2) -> (d0, d1, d2)>, affine_map<(d0, d1, d2) -> (d0, d1, d2)>], iterator_types = ["parallel", "parallel", "parallel"]} ins(%493, %503 : tensor<1x512x384xf32>, tensor<1x512x384xf32>) outs(%504 : tensor<1x512x384xf32>) {
  ^bb0(%arg3: f32):
    %3531 = arith.subf %arg3, %arg4 : f32
    linalg.yield %3531 : f32
  } -> tensor<1x512x384xf32>
  %506 = linalg.init_tensor [1, 512, 384] : tensor<1x512x384xf32>
  %507 = linalg.generic {indexing_maps = [affine_map<(d0, d1, d2) -> (d0, d1, d2)>, affine_map<(d0, d1, d2) -> (d0, d1, d2)>, affine_map<(d0, d1, d2) -> (d0, d1, d2)>], iterator_types = ["parallel", "parallel", "parallel"]} ins(%505, %505 : tensor<1x512x384xf32>, tensor<1x512x384xf32>) outs(%506 : tensor<1x512x384xf32>) {
  ^bb0(%arg3: f32):
    %3531 = arith.mulf %arg3, %arg4 : f32
    linalg.yield %3531 : f32
  } -> tensor<1x512x384xf32>
  %cst_41 = arith.constant -0.000000e+00 : f32
  %508 = linalg.init_tensor [1, 512] : tensor<1x512xf32>
  %509 = linalg.fill ins(%cst_41 : f32) outs(%508 : tensor<1x512xf32>) -> tensor<1x512xf32>
  %510 = linalg.generic {indexing_maps = [affine_map<(d0, d1, d2) -> (d0, d1, d2)>, affine_map<(d0, d1, d2) -> (d0, d1)>], iterator_types = ["parallel", "parallel", "reduction"]} ins(%507 : tensor<1x512x384xf32>) outs(%509 : tensor<1x512xf32>) {
  ^bb0(%arg3: f32, %arg4: f32 loc(unknown)):
    %3531 = tensor.from_elements %arg4 : tensor<f32>
    %3532 = tensor.from_elements %arg3 : tensor<f32>
    %3533 = tensor.extract %3531[] : tensor<f32>
    %3534 = tensor.extract %3532[] : tensor<f32>
    %3535 = arith.addf %3533, %3534 : f32
    %3536 = tensor.from_elements %3535 : tensor<f32>
    %3537 = tensor.extract %3536[] : tensor<f32>
    linalg.yield %3537 : f32
  } -> tensor<1x512xf32>
  %511 = linalg.init_tensor [1, 512] : tensor<1x512xf32>
  %512 = linalg.generic {indexing_maps = [affine_map<(d0, d1) -> ()>, affine_map<(d0, d1) -> (d0, d1)>], iterator_types = ["parallel", "parallel"]} ins(%cst : tensor<f32>) outs(%511 : tensor<1x512xf32>) {
  ^bb0(%arg3: f32):
    linalg.yield %arg3 : f32
  } -> tensor<1x512xf32>
  %513 = linalg.init_tensor [1, 512] : tensor<1x512xf32>
  %514 = linalg.generic {indexing_maps = [affine_map<(d0, d1) -> (d0, d1)>, affine_map<(d0, d1) -> (d0, d1)>, affine_map<(d0, d1) -> (d0, d1)>], iterator_types = ["parallel", "parallel"]} ins(%510, %512 : tensor<1x512xf32>, tensor<1x512xf32>) outs(%513 : tensor<1x512xf32>) {
  ^bb0(%arg3: f32):
    %3531 = arith.divf %arg3, %arg4 : f32
    linalg.yield %3531 : f32
  } -> tensor<1x512xf32>
  %515 = tensor.expand_shape %514 [[0], [1, 2]] : tensor<1x512xf32> into tensor<1x512x1xf32>
  %516 = linalg.init_tensor [1, 512, 1] : tensor<1x512x1xf32>
  %517 = linalg.generic {indexing_maps = [affine_map<(d0, d1, d2) -> ()>, affine_map<(d0, d1, d2) -> (d0, d1, d2)>], iterator_types = ["parallel", "parallel", "parallel"]} ins(%cst_4 : tensor<f32>) outs(%516 : tensor<1x512x1xf32>) {
  ^bb0(%arg3: f32):
    linalg.yield %arg3 : f32
  } -> tensor<1x512x1xf32>
  %518 = linalg.init_tensor [1, 512, 1] : tensor<1x512x1xf32>
  %519 = linalg.generic {indexing_maps = [affine_map<(d0, d1, d2) -> (d0, d1, d2)>, affine_map<(d0, d1, d2) -> (d0, d1, d2)>, affine_map<(d0, d1, d2) -> (d0, d1, d2)>], iterator_types = ["parallel", "parallel", "parallel"]} ins(%515, %517 : tensor<1x512x1xf32>, tensor<1x512x1xf32>) outs(%518 : tensor<1x512x1xf32>) {
  ^bb0(%arg3: f32):
    %3531 = arith.addf %arg3, %arg4 : f32
    linalg.yield %3531 : f32
  } -> tensor<1x512x1xf32>
  %520 = linalg.init_tensor [1, 512, 1] : tensor<1x512x1xf32>
  %521 = linalg.generic {indexing_maps = [affine_map<(d0, d1, d2) -> (d0, d1, d2)>, affine_map<(d0, d1, d2) -> (d0, d1, d2)>], iterator_types = ["parallel", "parallel", "parallel"]} ins(%519 : tensor<1x512x1xf32>) outs(%520 : tensor<1x512x1xf32>) {
  ^bb0(%arg3: f32):
    %3531 = math.rsqrt %arg3 : f32
    linalg.yield %3531 : f32
  } -> tensor<1x512x1xf32>
  %522 = linalg.init_tensor [1, 512, 384] : tensor<1x512x384xf32>
  %523 = linalg.generic {indexing_maps = [affine_map<(d0, d1, d2) -> (d0, d1, 0)>, affine_map<(d0, d1, d2) -> (d0, d1, d2)>], iterator_types = ["parallel", "parallel", "parallel"]} ins(%521 : tensor<1x512x1xf32>) outs(%522 : tensor<1x512x384xf32>) {
  ^bb0(%arg3: f32):
    linalg.yield %arg3 : f32
  } -> tensor<1x512x384xf32>
  %524 = linalg.init_tensor [1, 512, 384] : tensor<1x512x384xf32>
  %525 = linalg.generic {indexing_maps = [affine_map<(d0, d1, d2) -> (d2)>, affine_map<(d0, d1, d2) -> (d0, d1, d2)>], iterator_types = ["parallel", "parallel", "parallel"]} ins(%31 : tensor<384xf32>) outs(%524 : tensor<1x512x384xf32>) {
  ^bb0(%arg3: f32):
    linalg.yield %arg3 : f32
  } -> tensor<1x512x384xf32>
  %526 = linalg.init_tensor [1, 512, 384] : tensor<1x512x384xf32>
  %527 = linalg.generic {indexing_maps = [affine_map<(d0, d1, d2) -> (d0, d1, d2)>, affine_map<(d0, d1, d2) -> (d0, d1, d2)>, affine_map<(d0, d1, d2) -> (d0, d1, d2)>], iterator_types = ["parallel", "parallel", "parallel"]} ins(%523, %525 : tensor<1x512x384xf32>, tensor<1x512x384xf32>) outs(%526 : tensor<1x512x384xf32>) {
  ^bb0(%arg3: f32):
    %3531 = arith.mulf %arg3, %arg4 : f32
    linalg.yield %3531 : f32
  } -> tensor<1x512x384xf32>
  %528 = linalg.init_tensor [1, 512, 384] : tensor<1x512x384xf32>
  %529 = linalg.generic {indexing_maps = [affine_map<(d0, d1, d2) -> (d0, d1, d2)>, affine_map<(d0, d1, d2) -> (d0, d1, d2)>, affine_map<(d0, d1, d2) -> (d0, d1, d2)>], iterator_types = ["parallel", "parallel", "parallel"]} ins(%493, %527 : tensor<1x512x384xf32>, tensor<1x512x384xf32>) outs(%528 : tensor<1x512x384xf32>) {
  ^bb0(%arg3: f32):
    %3531 = arith.mulf %arg3, %arg4 : f32
    linalg.yield %3531 : f32
  } -> tensor<1x512x384xf32>
  %530 = linalg.init_tensor [1, 512, 384] : tensor<1x512x384xf32>
  %531 = linalg.generic {indexing_maps = [affine_map<(d0, d1, d2) -> (d0, d1, 0)>, affine_map<(d0, d1, d2) -> (d0, d1, d2)>], iterator_types = ["parallel", "parallel", "parallel"]} ins(%501 : tensor<1x512x1xf32>) outs(%530 : tensor<1x512x384xf32>) {
  ^bb0(%arg3: f32):
    linalg.yield %arg3 : f32
  } -> tensor<1x512x384xf32>
  %532 = linalg.init_tensor [1, 512, 384] : tensor<1x512x384xf32>
  %533 = linalg.generic {indexing_maps = [affine_map<(d0, d1, d2) -> (d0, d1, d2)>, affine_map<(d0, d1, d2) -> (d0, d1, d2)>, affine_map<(d0, d1, d2) -> (d0, d1, d2)>], iterator_types = ["parallel", "parallel", "parallel"]} ins(%531, %527 : tensor<1x512x384xf32>, tensor<1x512x384xf32>) outs(%532 : tensor<1x512x384xf32>) {
  ^bb0(%arg3: f32):
    %3531 = arith.mulf %arg3, %arg4 : f32
    linalg.yield %3531 : f32
  } -> tensor<1x512x384xf32>
  %534 = linalg.init_tensor [1, 512, 384] : tensor<1x512x384xf32>
  %535 = linalg.generic {indexing_maps = [affine_map<(d0, d1, d2) -> (d2)>, affine_map<(d0, d1, d2) -> (d0, d1, d2)>], iterator_types = ["parallel", "parallel", "parallel"]} ins(%32 : tensor<384xf32>) outs(%534 : tensor<1x512x384xf32>) {
  ^bb0(%arg3: f32):
    linalg.yield %arg3 : f32
  } -> tensor<1x512x384xf32>
  %536 = linalg.init_tensor [1, 512, 384] : tensor<1x512x384xf32>
  %537 = linalg.generic {indexing_maps = [affine_map<(d0, d1, d2) -> (d0, d1, d2)>, affine_map<(d0, d1, d2) -> (d0, d1, d2)>, affine_map<(d0, d1, d2) -> (d0, d1, d2)>], iterator_types = ["parallel", "parallel", "parallel"]} ins(%535, %533 : tensor<1x512x384xf32>, tensor<1x512x384xf32>) outs(%536 : tensor<1x512x384xf32>) {
  ^bb0(%arg3: f32):
    %3531 = arith.subf %arg3, %arg4 : f32
    linalg.yield %3531 : f32
  } -> tensor<1x512x384xf32>
  %538 = linalg.init_tensor [1, 512, 384] : tensor<1x512x384xf32>
  %539 = linalg.generic {indexing_maps = [affine_map<(d0, d1, d2) -> (d0, d1, d2)>, affine_map<(d0, d1, d2) -> (d0, d1, d2)>, affine_map<(d0, d1, d2) -> (d0, d1, d2)>], iterator_types = ["parallel", "parallel", "parallel"]} ins(%529, %537 : tensor<1x512x384xf32>, tensor<1x512x384xf32>) outs(%538 : tensor<1x512x384xf32>) {
  ^bb0(%arg3: f32):
    %3531 = arith.addf %arg3, %arg4 : f32
    linalg.yield %3531 : f32
  } -> tensor<1x512x384xf32>
  %540 = tensor.collapse_shape %539 [[0, 1], [2]] : tensor<1x512x384xf32> into tensor<512x384xf32>
  %541 = linalg.init_tensor [512, 384] : tensor<512x384xf32>
  %cst_42 = arith.constant 0.000000e+00 : f32
  %542 = linalg.fill ins(%cst_42 : f32) outs(%541 : tensor<512x384xf32>) -> tensor<512x384xf32>
  %543 = linalg.matmul ins(%540, %70 : tensor<512x384xf32>, tensor<384x384xf32>) outs(%542 : tensor<512x384xf32>) -> tensor<512x384xf32>
  %544 = tensor.expand_shape %543 [[0, 1], [2]] : tensor<512x384xf32> into tensor<1x512x384xf32>
  %545 = linalg.init_tensor [1, 512, 384] : tensor<1x512x384xf32>
  %546 = linalg.generic {indexing_maps = [affine_map<(d0, d1, d2) -> (d2)>, affine_map<(d0, d1, d2) -> (d0, d1, d2)>], iterator_types = ["parallel", "parallel", "parallel"]} ins(%69 : tensor<384xf32>) outs(%545 : tensor<1x512x384xf32>) {
  ^bb0(%arg3: f32):
    linalg.yield %arg3 : f32
  } -> tensor<1x512x384xf32>
  %547 = linalg.init_tensor [1, 512, 384] : tensor<1x512x384xf32>
  %548 = linalg.generic {indexing_maps = [affine_map<(d0, d1, d2) -> (d0, d1, d2)>, affine_map<(d0, d1, d2) -> (d0, d1, d2)>, affine_map<(d0, d1, d2) -> (d0, d1, d2)>], iterator_types = ["parallel", "parallel", "parallel"]} ins(%544, %546 : tensor<1x512x384xf32>, tensor<1x512x384xf32>) outs(%547 : tensor<1x512x384xf32>) {
  ^bb0(%arg3: f32):
    %3531 = arith.addf %arg3, %arg4 : f32
    linalg.yield %3531 : f32
  } -> tensor<1x512x384xf32>
  %549 = tensor.expand_shape %548 [[0], [1], [2, 3]] : tensor<1x512x384xf32> into tensor<1x512x12x32xf32>
  %550 = linalg.init_tensor [512, 384] : tensor<512x384xf32>
  %cst_43 = arith.constant 0.000000e+00 : f32
  %551 = linalg.fill ins(%cst_43 : f32) outs(%550 : tensor<512x384xf32>) -> tensor<512x384xf32>
  %552 = linalg.matmul ins(%540, %72 : tensor<512x384xf32>, tensor<384x384xf32>) outs(%551 : tensor<512x384xf32>) -> tensor<512x384xf32>
  %553 = tensor.expand_shape %552 [[0, 1], [2]] : tensor<512x384xf32> into tensor<1x512x384xf32>
  %554 = linalg.init_tensor [1, 512, 384] : tensor<1x512x384xf32>
  %555 = linalg.generic {indexing_maps = [affine_map<(d0, d1, d2) -> (d2)>, affine_map<(d0, d1, d2) -> (d0, d1, d2)>], iterator_types = ["parallel", "parallel", "parallel"]} ins(%71 : tensor<384xf32>) outs(%554 : tensor<1x512x384xf32>) {
  ^bb0(%arg3: f32):
    linalg.yield %arg3 : f32
  } -> tensor<1x512x384xf32>
  %556 = linalg.init_tensor [1, 512, 384] : tensor<1x512x384xf32>
  %557 = linalg.generic {indexing_maps = [affine_map<(d0, d1, d2) -> (d0, d1, d2)>, affine_map<(d0, d1, d2) -> (d0, d1, d2)>, affine_map<(d0, d1, d2) -> (d0, d1, d2)>], iterator_types = ["parallel", "parallel", "parallel"]} ins(%553, %555 : tensor<1x512x384xf32>, tensor<1x512x384xf32>) outs(%556 : tensor<1x512x384xf32>) {
  ^bb0(%arg3: f32):
    %3531 = arith.addf %arg3, %arg4 : f32
    linalg.yield %3531 : f32
  } -> tensor<1x512x384xf32>
  %558 = tensor.expand_shape %557 [[0], [1], [2, 3]] : tensor<1x512x384xf32> into tensor<1x512x12x32xf32>
  %559 = linalg.init_tensor [1, 12, 512, 32] : tensor<1x12x512x32xf32>
  %560 = linalg.generic {indexing_maps = [affine_map<(d0, d1, d2, d3) -> (d0, d2, d1, d3)>, affine_map<(d0, d1, d2, d3) -> (d0, d1, d2, d3)>], iterator_types = ["parallel", "parallel", "parallel", "parallel"]} ins(%558 : tensor<1x512x12x32xf32>) outs(%559 : tensor<1x12x512x32xf32>) {
  ^bb0(%arg3: f32):
    linalg.yield %arg3 : f32
  } -> tensor<1x12x512x32xf32>
  %561 = linalg.init_tensor [1, 12, 32, 512] : tensor<1x12x32x512xf32>
  %562 = linalg.generic {indexing_maps = [affine_map<(d0, d1, d2, d3) -> (d0, d3, d1, d2)>, affine_map<(d0, d1, d2, d3) -> (d0, d1, d2, d3)>], iterator_types = ["parallel", "parallel", "parallel", "parallel"]} ins(%549 : tensor<1x512x12x32xf32>) outs(%561 : tensor<1x12x32x512xf32>) {
  ^bb0(%arg3: f32):
    linalg.yield %arg3 : f32
  } -> tensor<1x12x32x512xf32>
  %563 = tensor.collapse_shape %560 [[0, 1], [2], [3]] : tensor<1x12x512x32xf32> into tensor<12x512x32xf32>
  %564 = tensor.collapse_shape %562 [[0, 1], [2], [3]] : tensor<1x12x32x512xf32> into tensor<12x32x512xf32>
  %565 = linalg.init_tensor [12, 512, 512] : tensor<12x512x512xf32>
  %cst_44 = arith.constant 0.000000e+00 : f32
  %566 = linalg.fill ins(%cst_44 : f32) outs(%565 : tensor<12x512x512xf32>) -> tensor<12x512x512xf32>
  %567 = linalg.batch_matmul ins(%563, %564 : tensor<12x512x32xf32>, tensor<12x32x512xf32>) outs(%566 : tensor<12x512x512xf32>) -> tensor<12x512x512xf32>
  %568 = tensor.expand_shape %567 [[0, 1], [2], [3]] : tensor<12x512x512xf32> into tensor<1x12x512x512xf32>
  %569 = linalg.init_tensor [1, 12, 512, 512] : tensor<1x12x512x512xf32>
  %570 = linalg.generic {indexing_maps = [affine_map<(d0, d1, d2, d3) -> ()>, affine_map<(d0, d1, d2, d3) -> (d0, d1, d2, d3)>], iterator_types = ["parallel", "parallel", "parallel", "parallel"]} ins(%cst_8 : tensor<f32>) outs(%569 : tensor<1x12x512x512xf32>) {
  ^bb0(%arg3: f32):
    linalg.yield %arg3 : f32
  } -> tensor<1x12x512x512xf32>
  %571 = linalg.init_tensor [1, 12, 512, 512] : tensor<1x12x512x512xf32>
  %572 = linalg.generic {indexing_maps = [affine_map<(d0, d1, d2, d3) -> (d0, d1, d2, d3)>, affine_map<(d0, d1, d2, d3) -> (d0, d1, d2, d3)>, affine_map<(d0, d1, d2, d3) -> (d0, d1, d2, d3)>], iterator_types = ["parallel", "parallel", "parallel", "parallel"]} ins(%568, %570 : tensor<1x12x512x512xf32>, tensor<1x12x512x512xf32>) outs(%571 : tensor<1x12x512x512xf32>) {
  ^bb0(%arg3: f32):
    %3531 = arith.mulf %arg3, %arg4 : f32
    linalg.yield %3531 : f32
  } -> tensor<1x12x512x512xf32>
  %573 = linalg.init_tensor [1, 12, 512, 512] : tensor<1x12x512x512xf32>
  %574 = linalg.generic {indexing_maps = [affine_map<(d0, d1, d2, d3) -> (d0, 0, 0, d3)>, affine_map<(d0, d1, d2, d3) -> (d0, d1, d2, d3)>], iterator_types = ["parallel", "parallel", "parallel", "parallel"]} ins(%10 : tensor<1x1x1x512xf32>) outs(%573 : tensor<1x12x512x512xf32>) {
  ^bb0(%arg3: f32):
    linalg.yield %arg3 : f32
  } -> tensor<1x12x512x512xf32>
  %575 = linalg.init_tensor [1, 12, 512, 512] : tensor<1x12x512x512xf32>
  %576 = linalg.generic {indexing_maps = [affine_map<(d0, d1, d2, d3) -> (d0, d1, d2, d3)>, affine_map<(d0, d1, d2, d3) -> (d0, d1, d2, d3)>, affine_map<(d0, d1, d2, d3) -> (d0, d1, d2, d3)>], iterator_types = ["parallel", "parallel", "parallel", "parallel"]} ins(%572, %574 : tensor<1x12x512x512xf32>, tensor<1x12x512x512xf32>) outs(%575 : tensor<1x12x512x512xf32>) {
  ^bb0(%arg3: f32):
    %3531 = arith.addf %arg3, %arg4 : f32
    linalg.yield %3531 : f32
  } -> tensor<1x12x512x512xf32>
  %577 = linalg.init_tensor [1, 12, 512, 512] : tensor<1x12x512x512xf32>
  %578 = linalg.generic {indexing_maps = [affine_map<(d0, d1, d2, d3) -> ()>, affine_map<(d0, d1, d2, d3) -> (d0, d1, d2, d3)>], iterator_types = ["parallel", "parallel", "parallel", "parallel"]} ins(%cst_5 : tensor<f32>) outs(%577 : tensor<1x12x512x512xf32>) {
  ^bb0(%arg3: f32):
    linalg.yield %arg3 : f32
  } -> tensor<1x12x512x512xf32>
  %579 = linalg.init_tensor [1, 12, 512, 512] : tensor<1x12x512x512xf32>
  %580 = linalg.generic {indexing_maps = [affine_map<(d0, d1, d2, d3) -> (d0, d1, d2, d3)>, affine_map<(d0, d1, d2, d3) -> (d0, d1, d2, d3)>, affine_map<(d0, d1, d2, d3) -> (d0, d1, d2, d3)>], iterator_types = ["parallel", "parallel", "parallel", "parallel"]} ins(%576, %578 : tensor<1x12x512x512xf32>, tensor<1x12x512x512xf32>) outs(%579 : tensor<1x12x512x512xf32>) {
  ^bb0(%arg3: f32):
    %3531 = arith.addf %arg3, %arg4 : f32
    linalg.yield %3531 : f32
  } -> tensor<1x12x512x512xf32>
  %cst_45 = arith.constant 0xFF800000 : f32
  %581 = linalg.init_tensor [1, 12, 512] : tensor<1x12x512xf32>
  %582 = linalg.fill ins(%cst_45 : f32) outs(%581 : tensor<1x12x512xf32>) -> tensor<1x12x512xf32>
  %583 = linalg.generic {indexing_maps = [affine_map<(d0, d1, d2, d3) -> (d0, d1, d2, d3)>, affine_map<(d0, d1, d2, d3) -> (d0, d1, d2)>], iterator_types = ["parallel", "parallel", "parallel", "reduction"]} ins(%580 : tensor<1x12x512x512xf32>) outs(%582 : tensor<1x12x512xf32>) {
  ^bb0(%arg3: f32, %arg4: f32 loc(unknown)):
    %3531 = tensor.from_elements %arg4 : tensor<f32>
    %3532 = tensor.from_elements %arg3 : tensor<f32>
    %3533 = tensor.extract %3531[] : tensor<f32>
    %3534 = tensor.extract %3532[] : tensor<f32>
    %3535 = arith.maxf %3533, %3534 : f32
    %3536 = tensor.from_elements %3535 : tensor<f32>
    %3537 = tensor.extract %3536[] : tensor<f32>
    linalg.yield %3537 : f32
  } -> tensor<1x12x512xf32>
  %584 = tensor.expand_shape %583 [[0], [1], [2, 3]] : tensor<1x12x512xf32> into tensor<1x12x512x1xf32>
  %585 = linalg.init_tensor [1, 12, 512, 512] : tensor<1x12x512x512xf32>
  %586 = linalg.generic {indexing_maps = [affine_map<(d0, d1, d2, d3) -> (d0, d1, d2, 0)>, affine_map<(d0, d1, d2, d3) -> (d0, d1, d2, d3)>], iterator_types = ["parallel", "parallel", "parallel", "parallel"]} ins(%584 : tensor<1x12x512x1xf32>) outs(%585 : tensor<1x12x512x512xf32>) {
  ^bb0(%arg3: f32):
    linalg.yield %arg3 : f32
  } -> tensor<1x12x512x512xf32>
  %587 = linalg.init_tensor [1, 12, 512, 512] : tensor<1x12x512x512xf32>
  %588 = linalg.generic {indexing_maps = [affine_map<(d0, d1, d2, d3) -> (d0, d1, d2, d3)>, affine_map<(d0, d1, d2, d3) -> (d0, d1, d2, d3)>, affine_map<(d0, d1, d2, d3) -> (d0, d1, d2, d3)>], iterator_types = ["parallel", "parallel", "parallel", "parallel"]} ins(%580, %586 : tensor<1x12x512x512xf32>, tensor<1x12x512x512xf32>) outs(%587 : tensor<1x12x512x512xf32>) {
  ^bb0(%arg3: f32):
    %3531 = arith.subf %arg3, %arg4 : f32
    linalg.yield %3531 : f32
  } -> tensor<1x12x512x512xf32>
  %589 = linalg.init_tensor [1, 12, 512, 512] : tensor<1x12x512x512xf32>
  %590 = linalg.generic {indexing_maps = [affine_map<(d0, d1, d2, d3) -> (d0, d1, d2, d3)>, affine_map<(d0, d1, d2, d3) -> (d0, d1, d2, d3)>], iterator_types = ["parallel", "parallel", "parallel", "parallel"]} ins(%588 : tensor<1x12x512x512xf32>) outs(%589 : tensor<1x12x512x512xf32>) {
  ^bb0(%arg3: f32):
    %3531 = math.exp %arg3 : f32
    linalg.yield %3531 : f32
  } -> tensor<1x12x512x512xf32>
  %cst_46 = arith.constant -0.000000e+00 : f32
  %591 = linalg.init_tensor [1, 12, 512] : tensor<1x12x512xf32>
  %592 = linalg.fill ins(%cst_46 : f32) outs(%591 : tensor<1x12x512xf32>) -> tensor<1x12x512xf32>
  %593 = linalg.generic {indexing_maps = [affine_map<(d0, d1, d2, d3) -> (d0, d1, d2, d3)>, affine_map<(d0, d1, d2, d3) -> (d0, d1, d2)>], iterator_types = ["parallel", "parallel", "parallel", "reduction"]} ins(%590 : tensor<1x12x512x512xf32>) outs(%592 : tensor<1x12x512xf32>) {
  ^bb0(%arg3: f32, %arg4: f32 loc(unknown)):
    %3531 = tensor.from_elements %arg4 : tensor<f32>
    %3532 = tensor.from_elements %arg3 : tensor<f32>
    %3533 = tensor.extract %3531[] : tensor<f32>
    %3534 = tensor.extract %3532[] : tensor<f32>
    %3535 = arith.addf %3533, %3534 : f32
    %3536 = tensor.from_elements %3535 : tensor<f32>
    %3537 = tensor.extract %3536[] : tensor<f32>
    linalg.yield %3537 : f32
  } -> tensor<1x12x512xf32>
  %594 = tensor.expand_shape %593 [[0], [1], [2, 3]] : tensor<1x12x512xf32> into tensor<1x12x512x1xf32>
  %595 = linalg.init_tensor [1, 12, 512, 512] : tensor<1x12x512x512xf32>
  %596 = linalg.generic {indexing_maps = [affine_map<(d0, d1, d2, d3) -> (d0, d1, d2, 0)>, affine_map<(d0, d1, d2, d3) -> (d0, d1, d2, d3)>], iterator_types = ["parallel", "parallel", "parallel", "parallel"]} ins(%594 : tensor<1x12x512x1xf32>) outs(%595 : tensor<1x12x512x512xf32>) {
  ^bb0(%arg3: f32):
    linalg.yield %arg3 : f32
  } -> tensor<1x12x512x512xf32>
  %597 = linalg.init_tensor [1, 12, 512, 512] : tensor<1x12x512x512xf32>
  %598 = linalg.generic {indexing_maps = [affine_map<(d0, d1, d2, d3) -> (d0, d1, d2, d3)>, affine_map<(d0, d1, d2, d3) -> (d0, d1, d2, d3)>, affine_map<(d0, d1, d2, d3) -> (d0, d1, d2, d3)>], iterator_types = ["parallel", "parallel", "parallel", "parallel"]} ins(%590, %596 : tensor<1x12x512x512xf32>, tensor<1x12x512x512xf32>) outs(%597 : tensor<1x12x512x512xf32>) {
  ^bb0(%arg3: f32):
    %3531 = arith.divf %arg3, %arg4 : f32
    linalg.yield %3531 : f32
  } -> tensor<1x12x512x512xf32>
  %599 = linalg.init_tensor [512, 384] : tensor<512x384xf32>
  %cst_47 = arith.constant 0.000000e+00 : f32
  %600 = linalg.fill ins(%cst_47 : f32) outs(%599 : tensor<512x384xf32>) -> tensor<512x384xf32>
  %601 = linalg.matmul ins(%540, %74 : tensor<512x384xf32>, tensor<384x384xf32>) outs(%600 : tensor<512x384xf32>) -> tensor<512x384xf32>
  %602 = tensor.expand_shape %601 [[0, 1], [2]] : tensor<512x384xf32> into tensor<1x512x384xf32>
  %603 = linalg.init_tensor [1, 512, 384] : tensor<1x512x384xf32>
  %604 = linalg.generic {indexing_maps = [affine_map<(d0, d1, d2) -> (d2)>, affine_map<(d0, d1, d2) -> (d0, d1, d2)>], iterator_types = ["parallel", "parallel", "parallel"]} ins(%73 : tensor<384xf32>) outs(%603 : tensor<1x512x384xf32>) {
  ^bb0(%arg3: f32):
    linalg.yield %arg3 : f32
  } -> tensor<1x512x384xf32>
  %605 = linalg.init_tensor [1, 512, 384] : tensor<1x512x384xf32>
  %606 = linalg.generic {indexing_maps = [affine_map<(d0, d1, d2) -> (d0, d1, d2)>, affine_map<(d0, d1, d2) -> (d0, d1, d2)>, affine_map<(d0, d1, d2) -> (d0, d1, d2)>], iterator_types = ["parallel", "parallel", "parallel"]} ins(%602, %604 : tensor<1x512x384xf32>, tensor<1x512x384xf32>) outs(%605 : tensor<1x512x384xf32>) {
  ^bb0(%arg3: f32):
    %3531 = arith.addf %arg3, %arg4 : f32
    linalg.yield %3531 : f32
  } -> tensor<1x512x384xf32>
  %607 = tensor.expand_shape %606 [[0], [1], [2, 3]] : tensor<1x512x384xf32> into tensor<1x512x12x32xf32>
  %608 = linalg.init_tensor [1, 12, 512, 32] : tensor<1x12x512x32xf32>
  %609 = linalg.generic {indexing_maps = [affine_map<(d0, d1, d2, d3) -> (d0, d2, d1, d3)>, affine_map<(d0, d1, d2, d3) -> (d0, d1, d2, d3)>], iterator_types = ["parallel", "parallel", "parallel", "parallel"]} ins(%607 : tensor<1x512x12x32xf32>) outs(%608 : tensor<1x12x512x32xf32>) {
  ^bb0(%arg3: f32):
    linalg.yield %arg3 : f32
  } -> tensor<1x12x512x32xf32>
  %610 = tensor.collapse_shape %598 [[0, 1], [2], [3]] : tensor<1x12x512x512xf32> into tensor<12x512x512xf32>
  %611 = tensor.collapse_shape %609 [[0, 1], [2], [3]] : tensor<1x12x512x32xf32> into tensor<12x512x32xf32>
  %612 = linalg.init_tensor [12, 512, 32] : tensor<12x512x32xf32>
  %cst_48 = arith.constant 0.000000e+00 : f32
  %613 = linalg.fill ins(%cst_48 : f32) outs(%612 : tensor<12x512x32xf32>) -> tensor<12x512x32xf32>
  %614 = linalg.batch_matmul ins(%610, %611 : tensor<12x512x512xf32>, tensor<12x512x32xf32>) outs(%613 : tensor<12x512x32xf32>) -> tensor<12x512x32xf32>
  %615 = tensor.expand_shape %614 [[0, 1], [2], [3]] : tensor<12x512x32xf32> into tensor<1x12x512x32xf32>
  %616 = linalg.init_tensor [1, 512, 12, 32] : tensor<1x512x12x32xf32>
  %617 = linalg.generic {indexing_maps = [affine_map<(d0, d1, d2, d3) -> (d0, d2, d1, d3)>, affine_map<(d0, d1, d2, d3) -> (d0, d1, d2, d3)>], iterator_types = ["parallel", "parallel", "parallel", "parallel"]} ins(%615 : tensor<1x12x512x32xf32>) outs(%616 : tensor<1x512x12x32xf32>) {
  ^bb0(%arg3: f32):
    linalg.yield %arg3 : f32
  } -> tensor<1x512x12x32xf32>
  %618 = tensor.collapse_shape %617 [[0, 1], [2, 3]] : tensor<1x512x12x32xf32> into tensor<512x384xf32>
  %619 = linalg.init_tensor [512, 384] : tensor<512x384xf32>
  %cst_49 = arith.constant 0.000000e+00 : f32
  %620 = linalg.fill ins(%cst_49 : f32) outs(%619 : tensor<512x384xf32>) -> tensor<512x384xf32>
  %621 = linalg.matmul ins(%618, %66 : tensor<512x384xf32>, tensor<384x384xf32>) outs(%620 : tensor<512x384xf32>) -> tensor<512x384xf32>
  %622 = tensor.expand_shape %621 [[0, 1], [2]] : tensor<512x384xf32> into tensor<1x512x384xf32>
  %623 = linalg.init_tensor [1, 512, 384] : tensor<1x512x384xf32>
  %624 = linalg.generic {indexing_maps = [affine_map<(d0, d1, d2) -> (d2)>, affine_map<(d0, d1, d2) -> (d0, d1, d2)>], iterator_types = ["parallel", "parallel", "parallel"]} ins(%65 : tensor<384xf32>) outs(%623 : tensor<1x512x384xf32>) {
  ^bb0(%arg3: f32):
    linalg.yield %arg3 : f32
  } -> tensor<1x512x384xf32>
  %625 = linalg.init_tensor [1, 512, 384] : tensor<1x512x384xf32>
  %626 = linalg.generic {indexing_maps = [affine_map<(d0, d1, d2) -> (d0, d1, d2)>, affine_map<(d0, d1, d2) -> (d0, d1, d2)>, affine_map<(d0, d1, d2) -> (d0, d1, d2)>], iterator_types = ["parallel", "parallel", "parallel"]} ins(%622, %624 : tensor<1x512x384xf32>, tensor<1x512x384xf32>) outs(%625 : tensor<1x512x384xf32>) {
  ^bb0(%arg3: f32):
    %3531 = arith.addf %arg3, %arg4 : f32
    linalg.yield %3531 : f32
  } -> tensor<1x512x384xf32>
  %627 = linalg.init_tensor [1, 512, 384] : tensor<1x512x384xf32>
  %628 = linalg.generic {indexing_maps = [affine_map<(d0, d1, d2) -> (d0, d1, d2)>, affine_map<(d0, d1, d2) -> (d0, d1, d2)>, affine_map<(d0, d1, d2) -> (d0, d1, d2)>], iterator_types = ["parallel", "parallel", "parallel"]} ins(%626, %539 : tensor<1x512x384xf32>, tensor<1x512x384xf32>) outs(%627 : tensor<1x512x384xf32>) {
  ^bb0(%arg3: f32):
    %3531 = arith.addf %arg3, %arg4 : f32
    linalg.yield %3531 : f32
  } -> tensor<1x512x384xf32>
  %cst_50 = arith.constant -0.000000e+00 : f32
  %629 = linalg.init_tensor [1, 512] : tensor<1x512xf32>
  %630 = linalg.fill ins(%cst_50 : f32) outs(%629 : tensor<1x512xf32>) -> tensor<1x512xf32>
  %631 = linalg.generic {indexing_maps = [affine_map<(d0, d1, d2) -> (d0, d1, d2)>, affine_map<(d0, d1, d2) -> (d0, d1)>], iterator_types = ["parallel", "parallel", "reduction"]} ins(%628 : tensor<1x512x384xf32>) outs(%630 : tensor<1x512xf32>) {
  ^bb0(%arg3: f32, %arg4: f32 loc(unknown)):
    %3531 = tensor.from_elements %arg4 : tensor<f32>
    %3532 = tensor.from_elements %arg3 : tensor<f32>
    %3533 = tensor.extract %3531[] : tensor<f32>
    %3534 = tensor.extract %3532[] : tensor<f32>
    %3535 = arith.addf %3533, %3534 : f32
    %3536 = tensor.from_elements %3535 : tensor<f32>
    %3537 = tensor.extract %3536[] : tensor<f32>
    linalg.yield %3537 : f32
  } -> tensor<1x512xf32>
  %632 = linalg.init_tensor [1, 512] : tensor<1x512xf32>
  %633 = linalg.generic {indexing_maps = [affine_map<(d0, d1) -> ()>, affine_map<(d0, d1) -> (d0, d1)>], iterator_types = ["parallel", "parallel"]} ins(%cst : tensor<f32>) outs(%632 : tensor<1x512xf32>) {
  ^bb0(%arg3: f32):
    linalg.yield %arg3 : f32
  } -> tensor<1x512xf32>
  %634 = linalg.init_tensor [1, 512] : tensor<1x512xf32>
  %635 = linalg.generic {indexing_maps = [affine_map<(d0, d1) -> (d0, d1)>, affine_map<(d0, d1) -> (d0, d1)>, affine_map<(d0, d1) -> (d0, d1)>], iterator_types = ["parallel", "parallel"]} ins(%631, %633 : tensor<1x512xf32>, tensor<1x512xf32>) outs(%634 : tensor<1x512xf32>) {
  ^bb0(%arg3: f32):
    %3531 = arith.divf %arg3, %arg4 : f32
    linalg.yield %3531 : f32
  } -> tensor<1x512xf32>
  %636 = tensor.expand_shape %635 [[0], [1, 2]] : tensor<1x512xf32> into tensor<1x512x1xf32>
  %637 = linalg.init_tensor [1, 512, 384] : tensor<1x512x384xf32>
  %638 = linalg.generic {indexing_maps = [affine_map<(d0, d1, d2) -> (d0, d1, 0)>, affine_map<(d0, d1, d2) -> (d0, d1, d2)>], iterator_types = ["parallel", "parallel", "parallel"]} ins(%636 : tensor<1x512x1xf32>) outs(%637 : tensor<1x512x384xf32>) {
  ^bb0(%arg3: f32):
    linalg.yield %arg3 : f32
  } -> tensor<1x512x384xf32>
  %639 = linalg.init_tensor [1, 512, 384] : tensor<1x512x384xf32>
  %640 = linalg.generic {indexing_maps = [affine_map<(d0, d1, d2) -> (d0, d1, d2)>, affine_map<(d0, d1, d2) -> (d0, d1, d2)>, affine_map<(d0, d1, d2) -> (d0, d1, d2)>], iterator_types = ["parallel", "parallel", "parallel"]} ins(%628, %638 : tensor<1x512x384xf32>, tensor<1x512x384xf32>) outs(%639 : tensor<1x512x384xf32>) {
  ^bb0(%arg3: f32):
    %3531 = arith.subf %arg3, %arg4 : f32
    linalg.yield %3531 : f32
  } -> tensor<1x512x384xf32>
  %641 = linalg.init_tensor [1, 512, 384] : tensor<1x512x384xf32>
  %642 = linalg.generic {indexing_maps = [affine_map<(d0, d1, d2) -> (d0, d1, d2)>, affine_map<(d0, d1, d2) -> (d0, d1, d2)>, affine_map<(d0, d1, d2) -> (d0, d1, d2)>], iterator_types = ["parallel", "parallel", "parallel"]} ins(%640, %640 : tensor<1x512x384xf32>, tensor<1x512x384xf32>) outs(%641 : tensor<1x512x384xf32>) {
  ^bb0(%arg3: f32):
    %3531 = arith.mulf %arg3, %arg4 : f32
    linalg.yield %3531 : f32
  } -> tensor<1x512x384xf32>
  %cst_51 = arith.constant -0.000000e+00 : f32
  %643 = linalg.init_tensor [1, 512] : tensor<1x512xf32>
  %644 = linalg.fill ins(%cst_51 : f32) outs(%643 : tensor<1x512xf32>) -> tensor<1x512xf32>
  %645 = linalg.generic {indexing_maps = [affine_map<(d0, d1, d2) -> (d0, d1, d2)>, affine_map<(d0, d1, d2) -> (d0, d1)>], iterator_types = ["parallel", "parallel", "reduction"]} ins(%642 : tensor<1x512x384xf32>) outs(%644 : tensor<1x512xf32>) {
  ^bb0(%arg3: f32, %arg4: f32 loc(unknown)):
    %3531 = tensor.from_elements %arg4 : tensor<f32>
    %3532 = tensor.from_elements %arg3 : tensor<f32>
    %3533 = tensor.extract %3531[] : tensor<f32>
    %3534 = tensor.extract %3532[] : tensor<f32>
    %3535 = arith.addf %3533, %3534 : f32
    %3536 = tensor.from_elements %3535 : tensor<f32>
    %3537 = tensor.extract %3536[] : tensor<f32>
    linalg.yield %3537 : f32
  } -> tensor<1x512xf32>
  %646 = linalg.init_tensor [1, 512] : tensor<1x512xf32>
  %647 = linalg.generic {indexing_maps = [affine_map<(d0, d1) -> ()>, affine_map<(d0, d1) -> (d0, d1)>], iterator_types = ["parallel", "parallel"]} ins(%cst : tensor<f32>) outs(%646 : tensor<1x512xf32>) {
  ^bb0(%arg3: f32):
    linalg.yield %arg3 : f32
  } -> tensor<1x512xf32>
  %648 = linalg.init_tensor [1, 512] : tensor<1x512xf32>
  %649 = linalg.generic {indexing_maps = [affine_map<(d0, d1) -> (d0, d1)>, affine_map<(d0, d1) -> (d0, d1)>, affine_map<(d0, d1) -> (d0, d1)>], iterator_types = ["parallel", "parallel"]} ins(%645, %647 : tensor<1x512xf32>, tensor<1x512xf32>) outs(%648 : tensor<1x512xf32>) {
  ^bb0(%arg3: f32):
    %3531 = arith.divf %arg3, %arg4 : f32
    linalg.yield %3531 : f32
  } -> tensor<1x512xf32>
  %650 = tensor.expand_shape %649 [[0], [1, 2]] : tensor<1x512xf32> into tensor<1x512x1xf32>
  %651 = linalg.init_tensor [1, 512, 1] : tensor<1x512x1xf32>
  %652 = linalg.generic {indexing_maps = [affine_map<(d0, d1, d2) -> ()>, affine_map<(d0, d1, d2) -> (d0, d1, d2)>], iterator_types = ["parallel", "parallel", "parallel"]} ins(%cst_4 : tensor<f32>) outs(%651 : tensor<1x512x1xf32>) {
  ^bb0(%arg3: f32):
    linalg.yield %arg3 : f32
  } -> tensor<1x512x1xf32>
  %653 = linalg.init_tensor [1, 512, 1] : tensor<1x512x1xf32>
  %654 = linalg.generic {indexing_maps = [affine_map<(d0, d1, d2) -> (d0, d1, d2)>, affine_map<(d0, d1, d2) -> (d0, d1, d2)>, affine_map<(d0, d1, d2) -> (d0, d1, d2)>], iterator_types = ["parallel", "parallel", "parallel"]} ins(%650, %652 : tensor<1x512x1xf32>, tensor<1x512x1xf32>) outs(%653 : tensor<1x512x1xf32>) {
  ^bb0(%arg3: f32):
    %3531 = arith.addf %arg3, %arg4 : f32
    linalg.yield %3531 : f32
  } -> tensor<1x512x1xf32>
  %655 = linalg.init_tensor [1, 512, 1] : tensor<1x512x1xf32>
  %656 = linalg.generic {indexing_maps = [affine_map<(d0, d1, d2) -> (d0, d1, d2)>, affine_map<(d0, d1, d2) -> (d0, d1, d2)>], iterator_types = ["parallel", "parallel", "parallel"]} ins(%654 : tensor<1x512x1xf32>) outs(%655 : tensor<1x512x1xf32>) {
  ^bb0(%arg3: f32):
    %3531 = math.rsqrt %arg3 : f32
    linalg.yield %3531 : f32
  } -> tensor<1x512x1xf32>
  %657 = linalg.init_tensor [1, 512, 384] : tensor<1x512x384xf32>
  %658 = linalg.generic {indexing_maps = [affine_map<(d0, d1, d2) -> (d0, d1, 0)>, affine_map<(d0, d1, d2) -> (d0, d1, d2)>], iterator_types = ["parallel", "parallel", "parallel"]} ins(%656 : tensor<1x512x1xf32>) outs(%657 : tensor<1x512x384xf32>) {
  ^bb0(%arg3: f32):
    linalg.yield %arg3 : f32
  } -> tensor<1x512x384xf32>
  %659 = linalg.init_tensor [1, 512, 384] : tensor<1x512x384xf32>
  %660 = linalg.generic {indexing_maps = [affine_map<(d0, d1, d2) -> (d2)>, affine_map<(d0, d1, d2) -> (d0, d1, d2)>], iterator_types = ["parallel", "parallel", "parallel"]} ins(%67 : tensor<384xf32>) outs(%659 : tensor<1x512x384xf32>) {
  ^bb0(%arg3: f32):
    linalg.yield %arg3 : f32
  } -> tensor<1x512x384xf32>
  %661 = linalg.init_tensor [1, 512, 384] : tensor<1x512x384xf32>
  %662 = linalg.generic {indexing_maps = [affine_map<(d0, d1, d2) -> (d0, d1, d2)>, affine_map<(d0, d1, d2) -> (d0, d1, d2)>, affine_map<(d0, d1, d2) -> (d0, d1, d2)>], iterator_types = ["parallel", "parallel", "parallel"]} ins(%658, %660 : tensor<1x512x384xf32>, tensor<1x512x384xf32>) outs(%661 : tensor<1x512x384xf32>) {
  ^bb0(%arg3: f32):
    %3531 = arith.mulf %arg3, %arg4 : f32
    linalg.yield %3531 : f32
  } -> tensor<1x512x384xf32>
  %663 = linalg.init_tensor [1, 512, 384] : tensor<1x512x384xf32>
  %664 = linalg.generic {indexing_maps = [affine_map<(d0, d1, d2) -> (d0, d1, d2)>, affine_map<(d0, d1, d2) -> (d0, d1, d2)>, affine_map<(d0, d1, d2) -> (d0, d1, d2)>], iterator_types = ["parallel", "parallel", "parallel"]} ins(%628, %662 : tensor<1x512x384xf32>, tensor<1x512x384xf32>) outs(%663 : tensor<1x512x384xf32>) {
  ^bb0(%arg3: f32):
    %3531 = arith.mulf %arg3, %arg4 : f32
    linalg.yield %3531 : f32
  } -> tensor<1x512x384xf32>
  %665 = linalg.init_tensor [1, 512, 384] : tensor<1x512x384xf32>
  %666 = linalg.generic {indexing_maps = [affine_map<(d0, d1, d2) -> (d0, d1, 0)>, affine_map<(d0, d1, d2) -> (d0, d1, d2)>], iterator_types = ["parallel", "parallel", "parallel"]} ins(%636 : tensor<1x512x1xf32>) outs(%665 : tensor<1x512x384xf32>) {
  ^bb0(%arg3: f32):
    linalg.yield %arg3 : f32
  } -> tensor<1x512x384xf32>
  %667 = linalg.init_tensor [1, 512, 384] : tensor<1x512x384xf32>
  %668 = linalg.generic {indexing_maps = [affine_map<(d0, d1, d2) -> (d0, d1, d2)>, affine_map<(d0, d1, d2) -> (d0, d1, d2)>, affine_map<(d0, d1, d2) -> (d0, d1, d2)>], iterator_types = ["parallel", "parallel", "parallel"]} ins(%666, %662 : tensor<1x512x384xf32>, tensor<1x512x384xf32>) outs(%667 : tensor<1x512x384xf32>) {
  ^bb0(%arg3: f32):
    %3531 = arith.mulf %arg3, %arg4 : f32
    linalg.yield %3531 : f32
  } -> tensor<1x512x384xf32>
  %669 = linalg.init_tensor [1, 512, 384] : tensor<1x512x384xf32>
  %670 = linalg.generic {indexing_maps = [affine_map<(d0, d1, d2) -> (d2)>, affine_map<(d0, d1, d2) -> (d0, d1, d2)>], iterator_types = ["parallel", "parallel", "parallel"]} ins(%68 : tensor<384xf32>) outs(%669 : tensor<1x512x384xf32>) {
  ^bb0(%arg3: f32):
    linalg.yield %arg3 : f32
  } -> tensor<1x512x384xf32>
  %671 = linalg.init_tensor [1, 512, 384] : tensor<1x512x384xf32>
  %672 = linalg.generic {indexing_maps = [affine_map<(d0, d1, d2) -> (d0, d1, d2)>, affine_map<(d0, d1, d2) -> (d0, d1, d2)>, affine_map<(d0, d1, d2) -> (d0, d1, d2)>], iterator_types = ["parallel", "parallel", "parallel"]} ins(%670, %668 : tensor<1x512x384xf32>, tensor<1x512x384xf32>) outs(%671 : tensor<1x512x384xf32>) {
  ^bb0(%arg3: f32):
    %3531 = arith.subf %arg3, %arg4 : f32
    linalg.yield %3531 : f32
  } -> tensor<1x512x384xf32>
  %673 = linalg.init_tensor [1, 512, 384] : tensor<1x512x384xf32>
  %674 = linalg.generic {indexing_maps = [affine_map<(d0, d1, d2) -> (d0, d1, d2)>, affine_map<(d0, d1, d2) -> (d0, d1, d2)>, affine_map<(d0, d1, d2) -> (d0, d1, d2)>], iterator_types = ["parallel", "parallel", "parallel"]} ins(%664, %672 : tensor<1x512x384xf32>, tensor<1x512x384xf32>) outs(%673 : tensor<1x512x384xf32>) {
  ^bb0(%arg3: f32):
    %3531 = arith.addf %arg3, %arg4 : f32
    linalg.yield %3531 : f32
  } -> tensor<1x512x384xf32>
  %675 = tensor.collapse_shape %674 [[0, 1], [2]] : tensor<1x512x384xf32> into tensor<512x384xf32>
  %676 = linalg.init_tensor [512, 1536] : tensor<512x1536xf32>
  %cst_52 = arith.constant 0.000000e+00 : f32
  %677 = linalg.fill ins(%cst_52 : f32) outs(%676 : tensor<512x1536xf32>) -> tensor<512x1536xf32>
  %678 = linalg.matmul ins(%675, %76 : tensor<512x384xf32>, tensor<384x1536xf32>) outs(%677 : tensor<512x1536xf32>) -> tensor<512x1536xf32>
  %679 = tensor.expand_shape %678 [[0, 1], [2]] : tensor<512x1536xf32> into tensor<1x512x1536xf32>
  %680 = linalg.init_tensor [1, 512, 1536] : tensor<1x512x1536xf32>
  %681 = linalg.generic {indexing_maps = [affine_map<(d0, d1, d2) -> (d2)>, affine_map<(d0, d1, d2) -> (d0, d1, d2)>], iterator_types = ["parallel", "parallel", "parallel"]} ins(%75 : tensor<1536xf32>) outs(%680 : tensor<1x512x1536xf32>) {
  ^bb0(%arg3: f32):
    linalg.yield %arg3 : f32
  } -> tensor<1x512x1536xf32>
  %682 = linalg.init_tensor [1, 512, 1536] : tensor<1x512x1536xf32>
  %683 = linalg.generic {indexing_maps = [affine_map<(d0, d1, d2) -> (d0, d1, d2)>, affine_map<(d0, d1, d2) -> (d0, d1, d2)>, affine_map<(d0, d1, d2) -> (d0, d1, d2)>], iterator_types = ["parallel", "parallel", "parallel"]} ins(%679, %681 : tensor<1x512x1536xf32>, tensor<1x512x1536xf32>) outs(%682 : tensor<1x512x1536xf32>) {
  ^bb0(%arg3: f32):
    %3531 = arith.addf %arg3, %arg4 : f32
    linalg.yield %3531 : f32
  } -> tensor<1x512x1536xf32>
  %684 = linalg.init_tensor [1, 512, 1536] : tensor<1x512x1536xf32>
  %685 = linalg.generic {indexing_maps = [affine_map<(d0, d1, d2) -> ()>, affine_map<(d0, d1, d2) -> (d0, d1, d2)>], iterator_types = ["parallel", "parallel", "parallel"]} ins(%cst_6 : tensor<f32>) outs(%684 : tensor<1x512x1536xf32>) {
  ^bb0(%arg3: f32):
    linalg.yield %arg3 : f32
  } -> tensor<1x512x1536xf32>
  %686 = linalg.init_tensor [1, 512, 1536] : tensor<1x512x1536xf32>
  %687 = linalg.generic {indexing_maps = [affine_map<(d0, d1, d2) -> (d0, d1, d2)>, affine_map<(d0, d1, d2) -> (d0, d1, d2)>, affine_map<(d0, d1, d2) -> (d0, d1, d2)>], iterator_types = ["parallel", "parallel", "parallel"]} ins(%683, %685 : tensor<1x512x1536xf32>, tensor<1x512x1536xf32>) outs(%686 : tensor<1x512x1536xf32>) {
  ^bb0(%arg3: f32):
    %3531 = arith.mulf %arg3, %arg4 : f32
    linalg.yield %3531 : f32
  } -> tensor<1x512x1536xf32>
  %688 = linalg.init_tensor [1, 512, 1536] : tensor<1x512x1536xf32>
  %689 = linalg.generic {indexing_maps = [affine_map<(d0, d1, d2) -> ()>, affine_map<(d0, d1, d2) -> (d0, d1, d2)>], iterator_types = ["parallel", "parallel", "parallel"]} ins(%cst_7 : tensor<f32>) outs(%688 : tensor<1x512x1536xf32>) {
  ^bb0(%arg3: f32):
    linalg.yield %arg3 : f32
  } -> tensor<1x512x1536xf32>
  %690 = linalg.init_tensor [1, 512, 1536] : tensor<1x512x1536xf32>
  %691 = linalg.generic {indexing_maps = [affine_map<(d0, d1, d2) -> (d0, d1, d2)>, affine_map<(d0, d1, d2) -> (d0, d1, d2)>, affine_map<(d0, d1, d2) -> (d0, d1, d2)>], iterator_types = ["parallel", "parallel", "parallel"]} ins(%683, %689 : tensor<1x512x1536xf32>, tensor<1x512x1536xf32>) outs(%690 : tensor<1x512x1536xf32>) {
  ^bb0(%arg3: f32):
    %3531 = arith.mulf %arg3, %arg4 : f32
    linalg.yield %3531 : f32
  } -> tensor<1x512x1536xf32>
  %cst_53 = arith.constant dense<-4.000000e+00> : tensor<1x512x1536xf32>
  %cst_54 = arith.constant dense<4.000000e+00> : tensor<1x512x1536xf32>
  %692 = linalg.init_tensor [1, 512, 1536] : tensor<1x512x1536xf32>
  %693 = linalg.generic {indexing_maps = [affine_map<(d0, d1, d2) -> (d0, d1, d2)>, affine_map<(d0, d1, d2) -> (d0, d1, d2)>, affine_map<(d0, d1, d2) -> (d0, d1, d2)>, affine_map<(d0, d1, d2) -> (d0, d1, d2)>], iterator_types = ["parallel", "parallel", "parallel"]} ins(%cst_53, %691, %cst_54 : tensor<1x512x1536xf32>, tensor<1x512x1536xf32>, tensor<1x512x1536xf32>) outs(%692 : tensor<1x512x1536xf32>) {
  ^bb0(%arg3: f32):
    %3531 = arith.maxf %arg3, %arg4 : f32
    %3532 = arith.minf %3531, %arg5 : f32
    linalg.yield %3532 : f32
  } -> tensor<1x512x1536xf32>
  %694 = linalg.init_tensor [1, 512, 1536] : tensor<1x512x1536xf32>
  %695 = linalg.generic {indexing_maps = [affine_map<(d0, d1, d2) -> (d0, d1, d2)>, affine_map<(d0, d1, d2) -> (d0, d1, d2)>, affine_map<(d0, d1, d2) -> (d0, d1, d2)>], iterator_types = ["parallel", "parallel", "parallel"]} ins(%693, %693 : tensor<1x512x1536xf32>, tensor<1x512x1536xf32>) outs(%694 : tensor<1x512x1536xf32>) {
  ^bb0(%arg3: f32):
    %3531 = arith.mulf %arg3, %arg4 : f32
    linalg.yield %3531 : f32
  } -> tensor<1x512x1536xf32>
  %cst_55 = arith.constant dense<0.000000e+00> : tensor<1x512x1536xf32>
  %696 = linalg.init_tensor [1, 512, 1536] : tensor<1x512x1536xf32>
  %697 = linalg.generic {indexing_maps = [affine_map<(d0, d1, d2) -> (d0, d1, d2)>, affine_map<(d0, d1, d2) -> (d0, d1, d2)>, affine_map<(d0, d1, d2) -> (d0, d1, d2)>], iterator_types = ["parallel", "parallel", "parallel"]} ins(%cst_55, %695 : tensor<1x512x1536xf32>, tensor<1x512x1536xf32>) outs(%696 : tensor<1x512x1536xf32>) {
  ^bb0(%arg3: f32):
    %3531 = arith.mulf %arg3, %arg4 : f32
    linalg.yield %3531 : f32
  } -> tensor<1x512x1536xf32>
  %cst_56 = arith.constant dense<-2.72614237E-10> : tensor<1x512x1536xf32>
  %698 = linalg.init_tensor [1, 512, 1536] : tensor<1x512x1536xf32>
  %699 = linalg.generic {indexing_maps = [affine_map<(d0, d1, d2) -> (d0, d1, d2)>, affine_map<(d0, d1, d2) -> (d0, d1, d2)>, affine_map<(d0, d1, d2) -> (d0, d1, d2)>], iterator_types = ["parallel", "parallel", "parallel"]} ins(%697, %cst_56 : tensor<1x512x1536xf32>, tensor<1x512x1536xf32>) outs(%698 : tensor<1x512x1536xf32>) {
  ^bb0(%arg3: f32):
    %3531 = arith.addf %arg3, %arg4 : f32
    linalg.yield %3531 : f32
  } -> tensor<1x512x1536xf32>
  %700 = linalg.init_tensor [1, 512, 1536] : tensor<1x512x1536xf32>
  %701 = linalg.generic {indexing_maps = [affine_map<(d0, d1, d2) -> (d0, d1, d2)>, affine_map<(d0, d1, d2) -> (d0, d1, d2)>, affine_map<(d0, d1, d2) -> (d0, d1, d2)>], iterator_types = ["parallel", "parallel", "parallel"]} ins(%699, %695 : tensor<1x512x1536xf32>, tensor<1x512x1536xf32>) outs(%700 : tensor<1x512x1536xf32>) {
  ^bb0(%arg3: f32):
    %3531 = arith.mulf %arg3, %arg4 : f32
    linalg.yield %3531 : f32
  } -> tensor<1x512x1536xf32>
  %cst_57 = arith.constant dense<2.77068146E-8> : tensor<1x512x1536xf32>
  %702 = linalg.init_tensor [1, 512, 1536] : tensor<1x512x1536xf32>
  %703 = linalg.generic {indexing_maps = [affine_map<(d0, d1, d2) -> (d0, d1, d2)>, affine_map<(d0, d1, d2) -> (d0, d1, d2)>, affine_map<(d0, d1, d2) -> (d0, d1, d2)>], iterator_types = ["parallel", "parallel", "parallel"]} ins(%701, %cst_57 : tensor<1x512x1536xf32>, tensor<1x512x1536xf32>) outs(%702 : tensor<1x512x1536xf32>) {
  ^bb0(%arg3: f32):
    %3531 = arith.addf %arg3, %arg4 : f32
    linalg.yield %3531 : f32
  } -> tensor<1x512x1536xf32>
  %704 = linalg.init_tensor [1, 512, 1536] : tensor<1x512x1536xf32>
  %705 = linalg.generic {indexing_maps = [affine_map<(d0, d1, d2) -> (d0, d1, d2)>, affine_map<(d0, d1, d2) -> (d0, d1, d2)>, affine_map<(d0, d1, d2) -> (d0, d1, d2)>], iterator_types = ["parallel", "parallel", "parallel"]} ins(%703, %695 : tensor<1x512x1536xf32>, tensor<1x512x1536xf32>) outs(%704 : tensor<1x512x1536xf32>) {
  ^bb0(%arg3: f32):
    %3531 = arith.mulf %arg3, %arg4 : f32
    linalg.yield %3531 : f32
  } -> tensor<1x512x1536xf32>
  %cst_58 = arith.constant dense<-2.10102394E-6> : tensor<1x512x1536xf32>
  %706 = linalg.init_tensor [1, 512, 1536] : tensor<1x512x1536xf32>
  %707 = linalg.generic {indexing_maps = [affine_map<(d0, d1, d2) -> (d0, d1, d2)>, affine_map<(d0, d1, d2) -> (d0, d1, d2)>, affine_map<(d0, d1, d2) -> (d0, d1, d2)>], iterator_types = ["parallel", "parallel", "parallel"]} ins(%705, %cst_58 : tensor<1x512x1536xf32>, tensor<1x512x1536xf32>) outs(%706 : tensor<1x512x1536xf32>) {
  ^bb0(%arg3: f32):
    %3531 = arith.addf %arg3, %arg4 : f32
    linalg.yield %3531 : f32
  } -> tensor<1x512x1536xf32>
  %708 = linalg.init_tensor [1, 512, 1536] : tensor<1x512x1536xf32>
  %709 = linalg.generic {indexing_maps = [affine_map<(d0, d1, d2) -> (d0, d1, d2)>, affine_map<(d0, d1, d2) -> (d0, d1, d2)>, affine_map<(d0, d1, d2) -> (d0, d1, d2)>], iterator_types = ["parallel", "parallel", "parallel"]} ins(%707, %695 : tensor<1x512x1536xf32>, tensor<1x512x1536xf32>) outs(%708 : tensor<1x512x1536xf32>) {
  ^bb0(%arg3: f32):
    %3531 = arith.mulf %arg3, %arg4 : f32
    linalg.yield %3531 : f32
  } -> tensor<1x512x1536xf32>
  %cst_59 = arith.constant dense<-5.69250624E-5> : tensor<1x512x1536xf32>
  %710 = linalg.init_tensor [1, 512, 1536] : tensor<1x512x1536xf32>
  %711 = linalg.generic {indexing_maps = [affine_map<(d0, d1, d2) -> (d0, d1, d2)>, affine_map<(d0, d1, d2) -> (d0, d1, d2)>, affine_map<(d0, d1, d2) -> (d0, d1, d2)>], iterator_types = ["parallel", "parallel", "parallel"]} ins(%709, %cst_59 : tensor<1x512x1536xf32>, tensor<1x512x1536xf32>) outs(%710 : tensor<1x512x1536xf32>) {
  ^bb0(%arg3: f32):
    %3531 = arith.addf %arg3, %arg4 : f32
    linalg.yield %3531 : f32
  } -> tensor<1x512x1536xf32>
  %712 = linalg.init_tensor [1, 512, 1536] : tensor<1x512x1536xf32>
  %713 = linalg.generic {indexing_maps = [affine_map<(d0, d1, d2) -> (d0, d1, d2)>, affine_map<(d0, d1, d2) -> (d0, d1, d2)>, affine_map<(d0, d1, d2) -> (d0, d1, d2)>], iterator_types = ["parallel", "parallel", "parallel"]} ins(%711, %695 : tensor<1x512x1536xf32>, tensor<1x512x1536xf32>) outs(%712 : tensor<1x512x1536xf32>) {
  ^bb0(%arg3: f32):
    %3531 = arith.mulf %arg3, %arg4 : f32
    linalg.yield %3531 : f32
  } -> tensor<1x512x1536xf32>
  %cst_60 = arith.constant dense<-7.34990637E-4> : tensor<1x512x1536xf32>
  %714 = linalg.init_tensor [1, 512, 1536] : tensor<1x512x1536xf32>
  %715 = linalg.generic {indexing_maps = [affine_map<(d0, d1, d2) -> (d0, d1, d2)>, affine_map<(d0, d1, d2) -> (d0, d1, d2)>, affine_map<(d0, d1, d2) -> (d0, d1, d2)>], iterator_types = ["parallel", "parallel", "parallel"]} ins(%713, %cst_60 : tensor<1x512x1536xf32>, tensor<1x512x1536xf32>) outs(%714 : tensor<1x512x1536xf32>) {
  ^bb0(%arg3: f32):
    %3531 = arith.addf %arg3, %arg4 : f32
    linalg.yield %3531 : f32
  } -> tensor<1x512x1536xf32>
  %716 = linalg.init_tensor [1, 512, 1536] : tensor<1x512x1536xf32>
  %717 = linalg.generic {indexing_maps = [affine_map<(d0, d1, d2) -> (d0, d1, d2)>, affine_map<(d0, d1, d2) -> (d0, d1, d2)>, affine_map<(d0, d1, d2) -> (d0, d1, d2)>], iterator_types = ["parallel", "parallel", "parallel"]} ins(%715, %695 : tensor<1x512x1536xf32>, tensor<1x512x1536xf32>) outs(%716 : tensor<1x512x1536xf32>) {
  ^bb0(%arg3: f32):
    %3531 = arith.mulf %arg3, %arg4 : f32
    linalg.yield %3531 : f32
  } -> tensor<1x512x1536xf32>
  %cst_61 = arith.constant dense<-2.954600e-03> : tensor<1x512x1536xf32>
  %718 = linalg.init_tensor [1, 512, 1536] : tensor<1x512x1536xf32>
  %719 = linalg.generic {indexing_maps = [affine_map<(d0, d1, d2) -> (d0, d1, d2)>, affine_map<(d0, d1, d2) -> (d0, d1, d2)>, affine_map<(d0, d1, d2) -> (d0, d1, d2)>], iterator_types = ["parallel", "parallel", "parallel"]} ins(%717, %cst_61 : tensor<1x512x1536xf32>, tensor<1x512x1536xf32>) outs(%718 : tensor<1x512x1536xf32>) {
  ^bb0(%arg3: f32):
    %3531 = arith.addf %arg3, %arg4 : f32
    linalg.yield %3531 : f32
  } -> tensor<1x512x1536xf32>
  %720 = linalg.init_tensor [1, 512, 1536] : tensor<1x512x1536xf32>
  %721 = linalg.generic {indexing_maps = [affine_map<(d0, d1, d2) -> (d0, d1, d2)>, affine_map<(d0, d1, d2) -> (d0, d1, d2)>, affine_map<(d0, d1, d2) -> (d0, d1, d2)>], iterator_types = ["parallel", "parallel", "parallel"]} ins(%719, %695 : tensor<1x512x1536xf32>, tensor<1x512x1536xf32>) outs(%720 : tensor<1x512x1536xf32>) {
  ^bb0(%arg3: f32):
    %3531 = arith.mulf %arg3, %arg4 : f32
    linalg.yield %3531 : f32
  } -> tensor<1x512x1536xf32>
  %cst_62 = arith.constant dense<-0.0160960332> : tensor<1x512x1536xf32>
  %722 = linalg.init_tensor [1, 512, 1536] : tensor<1x512x1536xf32>
  %723 = linalg.generic {indexing_maps = [affine_map<(d0, d1, d2) -> (d0, d1, d2)>, affine_map<(d0, d1, d2) -> (d0, d1, d2)>, affine_map<(d0, d1, d2) -> (d0, d1, d2)>], iterator_types = ["parallel", "parallel", "parallel"]} ins(%721, %cst_62 : tensor<1x512x1536xf32>, tensor<1x512x1536xf32>) outs(%722 : tensor<1x512x1536xf32>) {
  ^bb0(%arg3: f32):
    %3531 = arith.addf %arg3, %arg4 : f32
    linalg.yield %3531 : f32
  } -> tensor<1x512x1536xf32>
  %cst_63 = arith.constant dense<0.000000e+00> : tensor<1x512x1536xf32>
  %724 = linalg.init_tensor [1, 512, 1536] : tensor<1x512x1536xf32>
  %725 = linalg.generic {indexing_maps = [affine_map<(d0, d1, d2) -> (d0, d1, d2)>, affine_map<(d0, d1, d2) -> (d0, d1, d2)>, affine_map<(d0, d1, d2) -> (d0, d1, d2)>], iterator_types = ["parallel", "parallel", "parallel"]} ins(%cst_63, %695 : tensor<1x512x1536xf32>, tensor<1x512x1536xf32>) outs(%724 : tensor<1x512x1536xf32>) {
  ^bb0(%arg3: f32):
    %3531 = arith.mulf %arg3, %arg4 : f32
    linalg.yield %3531 : f32
  } -> tensor<1x512x1536xf32>
  %cst_64 = arith.constant dense<-1.45660715E-5> : tensor<1x512x1536xf32>
  %726 = linalg.init_tensor [1, 512, 1536] : tensor<1x512x1536xf32>
  %727 = linalg.generic {indexing_maps = [affine_map<(d0, d1, d2) -> (d0, d1, d2)>, affine_map<(d0, d1, d2) -> (d0, d1, d2)>, affine_map<(d0, d1, d2) -> (d0, d1, d2)>], iterator_types = ["parallel", "parallel", "parallel"]} ins(%725, %cst_64 : tensor<1x512x1536xf32>, tensor<1x512x1536xf32>) outs(%726 : tensor<1x512x1536xf32>) {
  ^bb0(%arg3: f32):
    %3531 = arith.addf %arg3, %arg4 : f32
    linalg.yield %3531 : f32
  } -> tensor<1x512x1536xf32>
  %728 = linalg.init_tensor [1, 512, 1536] : tensor<1x512x1536xf32>
  %729 = linalg.generic {indexing_maps = [affine_map<(d0, d1, d2) -> (d0, d1, d2)>, affine_map<(d0, d1, d2) -> (d0, d1, d2)>, affine_map<(d0, d1, d2) -> (d0, d1, d2)>], iterator_types = ["parallel", "parallel", "parallel"]} ins(%727, %695 : tensor<1x512x1536xf32>, tensor<1x512x1536xf32>) outs(%728 : tensor<1x512x1536xf32>) {
  ^bb0(%arg3: f32):
    %3531 = arith.mulf %arg3, %arg4 : f32
    linalg.yield %3531 : f32
  } -> tensor<1x512x1536xf32>
  %cst_65 = arith.constant dense<-2.13374049E-4> : tensor<1x512x1536xf32>
  %730 = linalg.init_tensor [1, 512, 1536] : tensor<1x512x1536xf32>
  %731 = linalg.generic {indexing_maps = [affine_map<(d0, d1, d2) -> (d0, d1, d2)>, affine_map<(d0, d1, d2) -> (d0, d1, d2)>, affine_map<(d0, d1, d2) -> (d0, d1, d2)>], iterator_types = ["parallel", "parallel", "parallel"]} ins(%729, %cst_65 : tensor<1x512x1536xf32>, tensor<1x512x1536xf32>) outs(%730 : tensor<1x512x1536xf32>) {
  ^bb0(%arg3: f32):
    %3531 = arith.addf %arg3, %arg4 : f32
    linalg.yield %3531 : f32
  } -> tensor<1x512x1536xf32>
  %732 = linalg.init_tensor [1, 512, 1536] : tensor<1x512x1536xf32>
  %733 = linalg.generic {indexing_maps = [affine_map<(d0, d1, d2) -> (d0, d1, d2)>, affine_map<(d0, d1, d2) -> (d0, d1, d2)>, affine_map<(d0, d1, d2) -> (d0, d1, d2)>], iterator_types = ["parallel", "parallel", "parallel"]} ins(%731, %695 : tensor<1x512x1536xf32>, tensor<1x512x1536xf32>) outs(%732 : tensor<1x512x1536xf32>) {
  ^bb0(%arg3: f32):
    %3531 = arith.mulf %arg3, %arg4 : f32
    linalg.yield %3531 : f32
  } -> tensor<1x512x1536xf32>
  %cst_66 = arith.constant dense<-0.00168282702> : tensor<1x512x1536xf32>
  %734 = linalg.init_tensor [1, 512, 1536] : tensor<1x512x1536xf32>
  %735 = linalg.generic {indexing_maps = [affine_map<(d0, d1, d2) -> (d0, d1, d2)>, affine_map<(d0, d1, d2) -> (d0, d1, d2)>, affine_map<(d0, d1, d2) -> (d0, d1, d2)>], iterator_types = ["parallel", "parallel", "parallel"]} ins(%733, %cst_66 : tensor<1x512x1536xf32>, tensor<1x512x1536xf32>) outs(%734 : tensor<1x512x1536xf32>) {
  ^bb0(%arg3: f32):
    %3531 = arith.addf %arg3, %arg4 : f32
    linalg.yield %3531 : f32
  } -> tensor<1x512x1536xf32>
  %736 = linalg.init_tensor [1, 512, 1536] : tensor<1x512x1536xf32>
  %737 = linalg.generic {indexing_maps = [affine_map<(d0, d1, d2) -> (d0, d1, d2)>, affine_map<(d0, d1, d2) -> (d0, d1, d2)>, affine_map<(d0, d1, d2) -> (d0, d1, d2)>], iterator_types = ["parallel", "parallel", "parallel"]} ins(%735, %695 : tensor<1x512x1536xf32>, tensor<1x512x1536xf32>) outs(%736 : tensor<1x512x1536xf32>) {
  ^bb0(%arg3: f32):
    %3531 = arith.mulf %arg3, %arg4 : f32
    linalg.yield %3531 : f32
  } -> tensor<1x512x1536xf32>
  %cst_67 = arith.constant dense<-0.00737332925> : tensor<1x512x1536xf32>
  %738 = linalg.init_tensor [1, 512, 1536] : tensor<1x512x1536xf32>
  %739 = linalg.generic {indexing_maps = [affine_map<(d0, d1, d2) -> (d0, d1, d2)>, affine_map<(d0, d1, d2) -> (d0, d1, d2)>, affine_map<(d0, d1, d2) -> (d0, d1, d2)>], iterator_types = ["parallel", "parallel", "parallel"]} ins(%737, %cst_67 : tensor<1x512x1536xf32>, tensor<1x512x1536xf32>) outs(%738 : tensor<1x512x1536xf32>) {
  ^bb0(%arg3: f32):
    %3531 = arith.addf %arg3, %arg4 : f32
    linalg.yield %3531 : f32
  } -> tensor<1x512x1536xf32>
…
  %3309 = linalg.init_tensor [512, 384] : tensor<512x384xf32>
  %cst_347 = arith.constant 0.000000e+00 : f32
  %3310 = linalg.fill ins(%cst_347 : f32) outs(%3309 : tensor<512x384xf32>) -> tensor<512x384xf32>
  %3311 = linalg.matmul ins(%3250, %58 : tensor<512x384xf32>, tensor<384x384xf32>) outs(%3310 : tensor<512x384xf32>) -> tensor<512x384xf32>
  %3312 = tensor.expand_shape %3311 [[0, 1], [2]] : tensor<512x384xf32> into tensor<1x512x384xf32>
  %3313 = linalg.init_tensor [1, 512, 384] : tensor<1x512x384xf32>
  %3314 = linalg.generic {indexing_maps = [affine_map<(d0, d1, d2) -> (d2)>, affine_map<(d0, d1, d2) -> (d0, d1, d2)>], iterator_types = ["parallel", "parallel", "parallel"]} ins(%57 : tensor<384xf32>) outs(%3313 : tensor<1x512x384xf32>) {
  ^bb0(%arg3: f32):
    linalg.yield %arg3 : f32
  } -> tensor<1x512x384xf32>
  %3315 = linalg.init_tensor [1, 512, 384] : tensor<1x512x384xf32>
  %3316 = linalg.generic {indexing_maps = [affine_map<(d0, d1, d2) -> (d0, d1, d2)>, affine_map<(d0, d1, d2) -> (d0, d1, d2)>, affine_map<(d0, d1, d2) -> (d0, d1, d2)>], iterator_types = ["parallel", "parallel", "parallel"]} ins(%3312, %3314 : tensor<1x512x384xf32>, tensor<1x512x384xf32>) outs(%3315 : tensor<1x512x384xf32>) {
  ^bb0(%arg3: f32):
    %3531 = arith.addf %arg3, %arg4 : f32
    linalg.yield %3531 : f32
  } -> tensor<1x512x384xf32>
  %3317 = tensor.expand_shape %3316 [[0], [1], [2, 3]] : tensor<1x512x384xf32> into tensor<1x512x12x32xf32>
  %3318 = linalg.init_tensor [1, 12, 512, 32] : tensor<1x12x512x32xf32>
  %3319 = linalg.generic {indexing_maps = [affine_map<(d0, d1, d2, d3) -> (d0, d2, d1, d3)>, affine_map<(d0, d1, d2, d3) -> (d0, d1, d2, d3)>], iterator_types = ["parallel", "parallel", "parallel", "parallel"]} ins(%3317 : tensor<1x512x12x32xf32>) outs(%3318 : tensor<1x12x512x32xf32>) {
  ^bb0(%arg3: f32):
    linalg.yield %arg3 : f32
  } -> tensor<1x12x512x32xf32>
  %3320 = tensor.collapse_shape %3308 [[0, 1], [2], [3]] : tensor<1x12x512x512xf32> into tensor<12x512x512xf32>
  %3321 = tensor.collapse_shape %3319 [[0, 1], [2], [3]] : tensor<1x12x512x32xf32> into tensor<12x512x32xf32>
  %3322 = linalg.init_tensor [12, 512, 32] : tensor<12x512x32xf32>
  %cst_348 = arith.constant 0.000000e+00 : f32
  %3323 = linalg.fill ins(%cst_348 : f32) outs(%3322 : tensor<12x512x32xf32>) -> tensor<12x512x32xf32>
  %3324 = linalg.batch_matmul ins(%3320, %3321 : tensor<12x512x512xf32>, tensor<12x512x32xf32>) outs(%3323 : tensor<12x512x32xf32>) -> tensor<12x512x32xf32>
  %3325 = tensor.expand_shape %3324 [[0, 1], [2], [3]] : tensor<12x512x32xf32> into tensor<1x12x512x32xf32>
  %3326 = linalg.init_tensor [1, 512, 12, 32] : tensor<1x512x12x32xf32>
  %3327 = linalg.generic {indexing_maps = [affine_map<(d0, d1, d2, d3) -> (d0, d2, d1, d3)>, affine_map<(d0, d1, d2, d3) -> (d0, d1, d2, d3)>], iterator_types = ["parallel", "parallel", "parallel", "parallel"]} ins(%3325 : tensor<1x12x512x32xf32>) outs(%3326 : tensor<1x512x12x32xf32>) {
  ^bb0(%arg3: f32):
    linalg.yield %arg3 : f32
  } -> tensor<1x512x12x32xf32>
  %3328 = tensor.collapse_shape %3327 [[0, 1], [2, 3]] : tensor<1x512x12x32xf32> into tensor<512x384xf32>
  %3329 = linalg.init_tensor [512, 384] : tensor<512x384xf32>
  %cst_349 = arith.constant 0.000000e+00 : f32
  %3330 = linalg.fill ins(%cst_349 : f32) outs(%3329 : tensor<512x384xf32>) -> tensor<512x384xf32>
  %3331 = linalg.matmul ins(%3328, %50 : tensor<512x384xf32>, tensor<384x384xf32>) outs(%3330 : tensor<512x384xf32>) -> tensor<512x384xf32>
  %3332 = tensor.expand_shape %3331 [[0, 1], [2]] : tensor<512x384xf32> into tensor<1x512x384xf32>
  %3333 = linalg.init_tensor [1, 512, 384] : tensor<1x512x384xf32>
  %3334 = linalg.generic {indexing_maps = [affine_map<(d0, d1, d2) -> (d2)>, affine_map<(d0, d1, d2) -> (d0, d1, d2)>], iterator_types = ["parallel", "parallel", "parallel"]} ins(%49 : tensor<384xf32>) outs(%3333 : tensor<1x512x384xf32>) {
  ^bb0(%arg3: f32):
    linalg.yield %arg3 : f32
  } -> tensor<1x512x384xf32>
  %3335 = linalg.init_tensor [1, 512, 384] : tensor<1x512x384xf32>
  %3336 = linalg.generic {indexing_maps = [affine_map<(d0, d1, d2) -> (d0, d1, d2)>, affine_map<(d0, d1, d2) -> (d0, d1, d2)>, affine_map<(d0, d1, d2) -> (d0, d1, d2)>], iterator_types = ["parallel", "parallel", "parallel"]} ins(%3332, %3334 : tensor<1x512x384xf32>, tensor<1x512x384xf32>) outs(%3335 : tensor<1x512x384xf32>) {
  ^bb0(%arg3: f32):
    %3531 = arith.addf %arg3, %arg4 : f32
    linalg.yield %3531 : f32
  } -> tensor<1x512x384xf32>
  %3337 = linalg.init_tensor [1, 512, 384] : tensor<1x512x384xf32>
  %3338 = linalg.generic {indexing_maps = [affine_map<(d0, d1, d2) -> (d0, d1, d2)>, affine_map<(d0, d1, d2) -> (d0, d1, d2)>, affine_map<(d0, d1, d2) -> (d0, d1, d2)>], iterator_types = ["parallel", "parallel", "parallel"]} ins(%3336, %3249 : tensor<1x512x384xf32>, tensor<1x512x384xf32>) outs(%3337 : tensor<1x512x384xf32>) {
  ^bb0(%arg3: f32):
    %3531 = arith.addf %arg3, %arg4 : f32
    linalg.yield %3531 : f32
  } -> tensor<1x512x384xf32>
  %cst_350 = arith.constant -0.000000e+00 : f32
  %3339 = linalg.init_tensor [1, 512] : tensor<1x512xf32>
  %3340 = linalg.fill ins(%cst_350 : f32) outs(%3339 : tensor<1x512xf32>) -> tensor<1x512xf32>
  %3341 = linalg.generic {indexing_maps = [affine_map<(d0, d1, d2) -> (d0, d1, d2)>, affine_map<(d0, d1, d2) -> (d0, d1)>], iterator_types = ["parallel", "parallel", "reduction"]} ins(%3338 : tensor<1x512x384xf32>) outs(%3340 : tensor<1x512xf32>) {
  ^bb0(%arg3: f32, %arg4: f32 loc(unknown)):
    %3531 = tensor.from_elements %arg4 : tensor<f32>
    %3532 = tensor.from_elements %arg3 : tensor<f32>
    %3533 = tensor.extract %3531[] : tensor<f32>
    %3534 = tensor.extract %3532[] : tensor<f32>
    %3535 = arith.addf %3533, %3534 : f32
    %3536 = tensor.from_elements %3535 : tensor<f32>
    %3537 = tensor.extract %3536[] : tensor<f32>
    linalg.yield %3537 : f32
  } -> tensor<1x512xf32>
  %3342 = linalg.init_tensor [1, 512] : tensor<1x512xf32>
  %3343 = linalg.generic {indexing_maps = [affine_map<(d0, d1) -> ()>, affine_map<(d0, d1) -> (d0, d1)>], iterator_types = ["parallel", "parallel"]} ins(%cst : tensor<f32>) outs(%3342 : tensor<1x512xf32>) {
  ^bb0(%arg3: f32):
    linalg.yield %arg3 : f32
  } -> tensor<1x512xf32>
  %3344 = linalg.init_tensor [1, 512] : tensor<1x512xf32>
  %3345 = linalg.generic {indexing_maps = [affine_map<(d0, d1) -> (d0, d1)>, affine_map<(d0, d1) -> (d0, d1)>, affine_map<(d0, d1) -> (d0, d1)>], iterator_types = ["parallel", "parallel"]} ins(%3341, %3343 : tensor<1x512xf32>, tensor<1x512xf32>) outs(%3344 : tensor<1x512xf32>) {
  ^bb0(%arg3: f32):
    %3531 = arith.divf %arg3, %arg4 : f32
    linalg.yield %3531 : f32
  } -> tensor<1x512xf32>
  %3346 = tensor.expand_shape %3345 [[0], [1, 2]] : tensor<1x512xf32> into tensor<1x512x1xf32>
  %3347 = linalg.init_tensor [1, 512, 384] : tensor<1x512x384xf32>
  %3348 = linalg.generic {indexing_maps = [affine_map<(d0, d1, d2) -> (d0, d1, 0)>, affine_map<(d0, d1, d2) -> (d0, d1, d2)>], iterator_types = ["parallel", "parallel", "parallel"]} ins(%3346 : tensor<1x512x1xf32>) outs(%3347 : tensor<1x512x384xf32>) {
  ^bb0(%arg3: f32):
    linalg.yield %arg3 : f32
  } -> tensor<1x512x384xf32>
  %3349 = linalg.init_tensor [1, 512, 384] : tensor<1x512x384xf32>
  %3350 = linalg.generic {indexing_maps = [affine_map<(d0, d1, d2) -> (d0, d1, d2)>, affine_map<(d0, d1, d2) -> (d0, d1, d2)>, affine_map<(d0, d1, d2) -> (d0, d1, d2)>], iterator_types = ["parallel", "parallel", "parallel"]} ins(%3338, %3348 : tensor<1x512x384xf32>, tensor<1x512x384xf32>) outs(%3349 : tensor<1x512x384xf32>) {
  ^bb0(%arg3: f32):
    %3531 = arith.subf %arg3, %arg4 : f32
    linalg.yield %3531 : f32
  } -> tensor<1x512x384xf32>
  %3351 = linalg.init_tensor [1, 512, 384] : tensor<1x512x384xf32>
  %3352 = linalg.generic {indexing_maps = [affine_map<(d0, d1, d2) -> (d0, d1, d2)>, affine_map<(d0, d1, d2) -> (d0, d1, d2)>, affine_map<(d0, d1, d2) -> (d0, d1, d2)>], iterator_types = ["parallel", "parallel", "parallel"]} ins(%3350, %3350 : tensor<1x512x384xf32>, tensor<1x512x384xf32>) outs(%3351 : tensor<1x512x384xf32>) {
  ^bb0(%arg3: f32):
    %3531 = arith.mulf %arg3, %arg4 : f32
    linalg.yield %3531 : f32
  } -> tensor<1x512x384xf32>
  %cst_351 = arith.constant -0.000000e+00 : f32
  %3353 = linalg.init_tensor [1, 512] : tensor<1x512xf32>
  %3354 = linalg.fill ins(%cst_351 : f32) outs(%3353 : tensor<1x512xf32>) -> tensor<1x512xf32>
  %3355 = linalg.generic {indexing_maps = [affine_map<(d0, d1, d2) -> (d0, d1, d2)>, affine_map<(d0, d1, d2) -> (d0, d1)>], iterator_types = ["parallel", "parallel", "reduction"]} ins(%3352 : tensor<1x512x384xf32>) outs(%3354 : tensor<1x512xf32>) {
  ^bb0(%arg3: f32, %arg4: f32 loc(unknown)):
    %3531 = tensor.from_elements %arg4 : tensor<f32>
    %3532 = tensor.from_elements %arg3 : tensor<f32>
    %3533 = tensor.extract %3531[] : tensor<f32>
    %3534 = tensor.extract %3532[] : tensor<f32>
    %3535 = arith.addf %3533, %3534 : f32
    %3536 = tensor.from_elements %3535 : tensor<f32>
    %3537 = tensor.extract %3536[] : tensor<f32>
    linalg.yield %3537 : f32
  } -> tensor<1x512xf32>
  %3356 = linalg.init_tensor [1, 512] : tensor<1x512xf32>
  %3357 = linalg.generic {indexing_maps = [affine_map<(d0, d1) -> ()>, affine_map<(d0, d1) -> (d0, d1)>], iterator_types = ["parallel", "parallel"]} ins(%cst : tensor<f32>) outs(%3356 : tensor<1x512xf32>) {
  ^bb0(%arg3: f32):
    linalg.yield %arg3 : f32
  } -> tensor<1x512xf32>
  %3358 = linalg.init_tensor [1, 512] : tensor<1x512xf32>
  %3359 = linalg.generic {indexing_maps = [affine_map<(d0, d1) -> (d0, d1)>, affine_map<(d0, d1) -> (d0, d1)>, affine_map<(d0, d1) -> (d0, d1)>], iterator_types = ["parallel", "parallel"]} ins(%3355, %3357 : tensor<1x512xf32>, tensor<1x512xf32>) outs(%3358 : tensor<1x512xf32>) {
  ^bb0(%arg3: f32):
    %3531 = arith.divf %arg3, %arg4 : f32
    linalg.yield %3531 : f32
  } -> tensor<1x512xf32>
  %3360 = tensor.expand_shape %3359 [[0], [1, 2]] : tensor<1x512xf32> into tensor<1x512x1xf32>
  %3361 = linalg.init_tensor [1, 512, 1] : tensor<1x512x1xf32>
  %3362 = linalg.generic {indexing_maps = [affine_map<(d0, d1, d2) -> ()>, affine_map<(d0, d1, d2) -> (d0, d1, d2)>], iterator_types = ["parallel", "parallel", "parallel"]} ins(%cst_4 : tensor<f32>) outs(%3361 : tensor<1x512x1xf32>) {
  ^bb0(%arg3: f32):
    linalg.yield %arg3 : f32
  } -> tensor<1x512x1xf32>
  %3363 = linalg.init_tensor [1, 512, 1] : tensor<1x512x1xf32>
  %3364 = linalg.generic {indexing_maps = [affine_map<(d0, d1, d2) -> (d0, d1, d2)>, affine_map<(d0, d1, d2) -> (d0, d1, d2)>, affine_map<(d0, d1, d2) -> (d0, d1, d2)>], iterator_types = ["parallel", "parallel", "parallel"]} ins(%3360, %3362 : tensor<1x512x1xf32>, tensor<1x512x1xf32>) outs(%3363 : tensor<1x512x1xf32>) {
  ^bb0(%arg3: f32):
    %3531 = arith.addf %arg3, %arg4 : f32
    linalg.yield %3531 : f32
  } -> tensor<1x512x1xf32>
  %3365 = linalg.init_tensor [1, 512, 1] : tensor<1x512x1xf32>
  %3366 = linalg.generic {indexing_maps = [affine_map<(d0, d1, d2) -> (d0, d1, d2)>, affine_map<(d0, d1, d2) -> (d0, d1, d2)>], iterator_types = ["parallel", "parallel", "parallel"]} ins(%3364 : tensor<1x512x1xf32>) outs(%3365 : tensor<1x512x1xf32>) {
  ^bb0(%arg3: f32):
    %3531 = math.rsqrt %arg3 : f32
    linalg.yield %3531 : f32
  } -> tensor<1x512x1xf32>
  %3367 = linalg.init_tensor [1, 512, 384] : tensor<1x512x384xf32>
  %3368 = linalg.generic {indexing_maps = [affine_map<(d0, d1, d2) -> (d0, d1, 0)>, affine_map<(d0, d1, d2) -> (d0, d1, d2)>], iterator_types = ["parallel", "parallel", "parallel"]} ins(%3366 : tensor<1x512x1xf32>) outs(%3367 : tensor<1x512x384xf32>) {
  ^bb0(%arg3: f32):
    linalg.yield %arg3 : f32
  } -> tensor<1x512x384xf32>
  %3369 = linalg.init_tensor [1, 512, 384] : tensor<1x512x384xf32>
  %3370 = linalg.generic {indexing_maps = [affine_map<(d0, d1, d2) -> (d2)>, affine_map<(d0, d1, d2) -> (d0, d1, d2)>], iterator_types = ["parallel", "parallel", "parallel"]} ins(%51 : tensor<384xf32>) outs(%3369 : tensor<1x512x384xf32>) {
  ^bb0(%arg3: f32):
    linalg.yield %arg3 : f32
  } -> tensor<1x512x384xf32>
  %3371 = linalg.init_tensor [1, 512, 384] : tensor<1x512x384xf32>
  %3372 = linalg.generic {indexing_maps = [affine_map<(d0, d1, d2) -> (d0, d1, d2)>, affine_map<(d0, d1, d2) -> (d0, d1, d2)>, affine_map<(d0, d1, d2) -> (d0, d1, d2)>], iterator_types = ["parallel", "parallel", "parallel"]} ins(%3368, %3370 : tensor<1x512x384xf32>, tensor<1x512x384xf32>) outs(%3371 : tensor<1x512x384xf32>) {
  ^bb0(%arg3: f32):
    %3531 = arith.mulf %arg3, %arg4 : f32
    linalg.yield %3531 : f32
  } -> tensor<1x512x384xf32>
  %3373 = linalg.init_tensor [1, 512, 384] : tensor<1x512x384xf32>
  %3374 = linalg.generic {indexing_maps = [affine_map<(d0, d1, d2) -> (d0, d1, d2)>, affine_map<(d0, d1, d2) -> (d0, d1, d2)>, affine_map<(d0, d1, d2) -> (d0, d1, d2)>], iterator_types = ["parallel", "parallel", "parallel"]} ins(%3338, %3372 : tensor<1x512x384xf32>, tensor<1x512x384xf32>) outs(%3373 : tensor<1x512x384xf32>) {
  ^bb0(%arg3: f32):
    %3531 = arith.mulf %arg3, %arg4 : f32
    linalg.yield %3531 : f32
  } -> tensor<1x512x384xf32>
  %3375 = linalg.init_tensor [1, 512, 384] : tensor<1x512x384xf32>
  %3376 = linalg.generic {indexing_maps = [affine_map<(d0, d1, d2) -> (d0, d1, 0)>, affine_map<(d0, d1, d2) -> (d0, d1, d2)>], iterator_types = ["parallel", "parallel", "parallel"]} ins(%3346 : tensor<1x512x1xf32>) outs(%3375 : tensor<1x512x384xf32>) {
  ^bb0(%arg3: f32):
    linalg.yield %arg3 : f32
  } -> tensor<1x512x384xf32>
  %3377 = linalg.init_tensor [1, 512, 384] : tensor<1x512x384xf32>
  %3378 = linalg.generic {indexing_maps = [affine_map<(d0, d1, d2) -> (d0, d1, d2)>, affine_map<(d0, d1, d2) -> (d0, d1, d2)>, affine_map<(d0, d1, d2) -> (d0, d1, d2)>], iterator_types = ["parallel", "parallel", "parallel"]} ins(%3376, %3372 : tensor<1x512x384xf32>, tensor<1x512x384xf32>) outs(%3377 : tensor<1x512x384xf32>) {
  ^bb0(%arg3: f32):
    %3531 = arith.mulf %arg3, %arg4 : f32
    linalg.yield %3531 : f32
  } -> tensor<1x512x384xf32>
  %3379 = linalg.init_tensor [1, 512, 384] : tensor<1x512x384xf32>
  %3380 = linalg.generic {indexing_maps = [affine_map<(d0, d1, d2) -> (d2)>, affine_map<(d0, d1, d2) -> (d0, d1, d2)>], iterator_types = ["parallel", "parallel", "parallel"]} ins(%52 : tensor<384xf32>) outs(%3379 : tensor<1x512x384xf32>) {
  ^bb0(%arg3: f32):
    linalg.yield %arg3 : f32
  } -> tensor<1x512x384xf32>
  %3381 = linalg.init_tensor [1, 512, 384] : tensor<1x512x384xf32>
  %3382 = linalg.generic {indexing_maps = [affine_map<(d0, d1, d2) -> (d0, d1, d2)>, affine_map<(d0, d1, d2) -> (d0, d1, d2)>, affine_map<(d0, d1, d2) -> (d0, d1, d2)>], iterator_types = ["parallel", "parallel", "parallel"]} ins(%3380, %3378 : tensor<1x512x384xf32>, tensor<1x512x384xf32>) outs(%3381 : tensor<1x512x384xf32>) {
  ^bb0(%arg3: f32):
    %3531 = arith.subf %arg3, %arg4 : f32
    linalg.yield %3531 : f32
  } -> tensor<1x512x384xf32>
  %3383 = linalg.init_tensor [1, 512, 384] : tensor<1x512x384xf32>
  %3384 = linalg.generic {indexing_maps = [affine_map<(d0, d1, d2) -> (d0, d1, d2)>, affine_map<(d0, d1, d2) -> (d0, d1, d2)>, affine_map<(d0, d1, d2) -> (d0, d1, d2)>], iterator_types = ["parallel", "parallel", "parallel"]} ins(%3374, %3382 : tensor<1x512x384xf32>, tensor<1x512x384xf32>) outs(%3383 : tensor<1x512x384xf32>) {
  ^bb0(%arg3: f32):
    %3531 = arith.addf %arg3, %arg4 : f32
    linalg.yield %3531 : f32
  } -> tensor<1x512x384xf32>
  %3385 = tensor.collapse_shape %3384 [[0, 1], [2]] : tensor<1x512x384xf32> into tensor<512x384xf32>
  %3386 = linalg.init_tensor [512, 1536] : tensor<512x1536xf32>
  %cst_352 = arith.constant 0.000000e+00 : f32
  %3387 = linalg.fill ins(%cst_352 : f32) outs(%3386 : tensor<512x1536xf32>) -> tensor<512x1536xf32>
  %3388 = linalg.matmul ins(%3385, %60 : tensor<512x384xf32>, tensor<384x1536xf32>) outs(%3387 : tensor<512x1536xf32>) -> tensor<512x1536xf32>
  %3389 = tensor.expand_shape %3388 [[0, 1], [2]] : tensor<512x1536xf32> into tensor<1x512x1536xf32>
  %3390 = linalg.init_tensor [1, 512, 1536] : tensor<1x512x1536xf32>
  %3391 = linalg.generic {indexing_maps = [affine_map<(d0, d1, d2) -> (d2)>, affine_map<(d0, d1, d2) -> (d0, d1, d2)>], iterator_types = ["parallel", "parallel", "parallel"]} ins(%59 : tensor<1536xf32>) outs(%3390 : tensor<1x512x1536xf32>) {
  ^bb0(%arg3: f32):
    linalg.yield %arg3 : f32
  } -> tensor<1x512x1536xf32>
  %3392 = linalg.init_tensor [1, 512, 1536] : tensor<1x512x1536xf32>
  %3393 = linalg.generic {indexing_maps = [affine_map<(d0, d1, d2) -> (d0, d1, d2)>, affine_map<(d0, d1, d2) -> (d0, d1, d2)>, affine_map<(d0, d1, d2) -> (d0, d1, d2)>], iterator_types = ["parallel", "parallel", "parallel"]} ins(%3389, %3391 : tensor<1x512x1536xf32>, tensor<1x512x1536xf32>) outs(%3392 : tensor<1x512x1536xf32>) {
  ^bb0(%arg3: f32):
    %3531 = arith.addf %arg3, %arg4 : f32
    linalg.yield %3531 : f32
  } -> tensor<1x512x1536xf32>
  %3394 = linalg.init_tensor [1, 512, 1536] : tensor<1x512x1536xf32>
  %3395 = linalg.generic {indexing_maps = [affine_map<(d0, d1, d2) -> ()>, affine_map<(d0, d1, d2) -> (d0, d1, d2)>], iterator_types = ["parallel", "parallel", "parallel"]} ins(%cst_6 : tensor<f32>) outs(%3394 : tensor<1x512x1536xf32>) {
  ^bb0(%arg3: f32):
    linalg.yield %arg3 : f32
  } -> tensor<1x512x1536xf32>
  %3396 = linalg.init_tensor [1, 512, 1536] : tensor<1x512x1536xf32>
  %3397 = linalg.generic {indexing_maps = [affine_map<(d0, d1, d2) -> (d0, d1, d2)>, affine_map<(d0, d1, d2) -> (d0, d1, d2)>, affine_map<(d0, d1, d2) -> (d0, d1, d2)>], iterator_types = ["parallel", "parallel", "parallel"]} ins(%3393, %3395 : tensor<1x512x1536xf32>, tensor<1x512x1536xf32>) outs(%3396 : tensor<1x512x1536xf32>) {
  ^bb0(%arg3: f32):
    %3531 = arith.mulf %arg3, %arg4 : f32
    linalg.yield %3531 : f32
  } -> tensor<1x512x1536xf32>
  %3398 = linalg.init_tensor [1, 512, 1536] : tensor<1x512x1536xf32>
  %3399 = linalg.generic {indexing_maps = [affine_map<(d0, d1, d2) -> ()>, affine_map<(d0, d1, d2) -> (d0, d1, d2)>], iterator_types = ["parallel", "parallel", "parallel"]} ins(%cst_7 : tensor<f32>) outs(%3398 : tensor<1x512x1536xf32>) {
  ^bb0(%arg3: f32):
    linalg.yield %arg3 : f32
  } -> tensor<1x512x1536xf32>
  %3400 = linalg.init_tensor [1, 512, 1536] : tensor<1x512x1536xf32>
  %3401 = linalg.generic {indexing_maps = [affine_map<(d0, d1, d2) -> (d0, d1, d2)>, affine_map<(d0, d1, d2) -> (d0, d1, d2)>, affine_map<(d0, d1, d2) -> (d0, d1, d2)>], iterator_types = ["parallel", "parallel", "parallel"]} ins(%3393, %3399 : tensor<1x512x1536xf32>, tensor<1x512x1536xf32>) outs(%3400 : tensor<1x512x1536xf32>) {
  ^bb0(%arg3: f32):
    %3531 = arith.mulf %arg3, %arg4 : f32
    linalg.yield %3531 : f32
  } -> tensor<1x512x1536xf32>
  %cst_353 = arith.constant dense<-4.000000e+00> : tensor<1x512x1536xf32>
  %cst_354 = arith.constant dense<4.000000e+00> : tensor<1x512x1536xf32>
  %3402 = linalg.init_tensor [1, 512, 1536] : tensor<1x512x1536xf32>
  %3403 = linalg.generic {indexing_maps = [affine_map<(d0, d1, d2) -> (d0, d1, d2)>, affine_map<(d0, d1, d2) -> (d0, d1, d2)>, affine_map<(d0, d1, d2) -> (d0, d1, d2)>, affine_map<(d0, d1, d2) -> (d0, d1, d2)>], iterator_types = ["parallel", "parallel", "parallel"]} ins(%cst_353, %3401, %cst_354 : tensor<1x512x1536xf32>, tensor<1x512x1536xf32>, tensor<1x512x1536xf32>) outs(%3402 : tensor<1x512x1536xf32>) {
  ^bb0(%arg3: f32):
    %3531 = arith.maxf %arg3, %arg4 : f32
    %3532 = arith.minf %3531, %arg5 : f32
    linalg.yield %3532 : f32
  } -> tensor<1x512x1536xf32>
  %3404 = linalg.init_tensor [1, 512, 1536] : tensor<1x512x1536xf32>
  %3405 = linalg.generic {indexing_maps = [affine_map<(d0, d1, d2) -> (d0, d1, d2)>, affine_map<(d0, d1, d2) -> (d0, d1, d2)>, affine_map<(d0, d1, d2) -> (d0, d1, d2)>], iterator_types = ["parallel", "parallel", "parallel"]} ins(%3403, %3403 : tensor<1x512x1536xf32>, tensor<1x512x1536xf32>) outs(%3404 : tensor<1x512x1536xf32>) {
  ^bb0(%arg3: f32):
    %3531 = arith.mulf %arg3, %arg4 : f32
    linalg.yield %3531 : f32
  } -> tensor<1x512x1536xf32>
  %cst_355 = arith.constant dense<0.000000e+00> : tensor<1x512x1536xf32>
  %3406 = linalg.init_tensor [1, 512, 1536] : tensor<1x512x1536xf32>
  %3407 = linalg.generic {indexing_maps = [affine_map<(d0, d1, d2) -> (d0, d1, d2)>, affine_map<(d0, d1, d2) -> (d0, d1, d2)>, affine_map<(d0, d1, d2) -> (d0, d1, d2)>], iterator_types = ["parallel", "parallel", "parallel"]} ins(%cst_355, %3405 : tensor<1x512x1536xf32>, tensor<1x512x1536xf32>) outs(%3406 : tensor<1x512x1536xf32>) {
  ^bb0(%arg3: f32):
    %3531 = arith.mulf %arg3, %arg4 : f32
    linalg.yield %3531 : f32
  } -> tensor<1x512x1536xf32>
  %cst_356 = arith.constant dense<-2.72614237E-10> : tensor<1x512x1536xf32>
  %3408 = linalg.init_tensor [1, 512, 1536] : tensor<1x512x1536xf32>
  %3409 = linalg.generic {indexing_maps = [affine_map<(d0, d1, d2) -> (d0, d1, d2)>, affine_map<(d0, d1, d2) -> (d0, d1, d2)>, affine_map<(d0, d1, d2) -> (d0, d1, d2)>], iterator_types = ["parallel", "parallel", "parallel"]} ins(%3407, %cst_356 : tensor<1x512x1536xf32>, tensor<1x512x1536xf32>) outs(%3408 : tensor<1x512x1536xf32>) {
  ^bb0(%arg3: f32):
    %3531 = arith.addf %arg3, %arg4 : f32
    linalg.yield %3531 : f32
  } -> tensor<1x512x1536xf32>
  %3410 = linalg.init_tensor [1, 512, 1536] : tensor<1x512x1536xf32>
  %3411 = linalg.generic {indexing_maps = [affine_map<(d0, d1, d2) -> (d0, d1, d2)>, affine_map<(d0, d1, d2) -> (d0, d1, d2)>, affine_map<(d0, d1, d2) -> (d0, d1, d2)>], iterator_types = ["parallel", "parallel", "parallel"]} ins(%3409, %3405 : tensor<1x512x1536xf32>, tensor<1x512x1536xf32>) outs(%3410 : tensor<1x512x1536xf32>) {
  ^bb0(%arg3: f32):
    %3531 = arith.mulf %arg3, %arg4 : f32
    linalg.yield %3531 : f32
  } -> tensor<1x512x1536xf32>
  %cst_357 = arith.constant dense<2.77068146E-8> : tensor<1x512x1536xf32>
  %3412 = linalg.init_tensor [1, 512, 1536] : tensor<1x512x1536xf32>
  %3413 = linalg.generic {indexing_maps = [affine_map<(d0, d1, d2) -> (d0, d1, d2)>, affine_map<(d0, d1, d2) -> (d0, d1, d2)>, affine_map<(d0, d1, d2) -> (d0, d1, d2)>], iterator_types = ["parallel", "parallel", "parallel"]} ins(%3411, %cst_357 : tensor<1x512x1536xf32>, tensor<1x512x1536xf32>) outs(%3412 : tensor<1x512x1536xf32>) {
  ^bb0(%arg3: f32):
    %3531 = arith.addf %arg3, %arg4 : f32
    linalg.yield %3531 : f32
  } -> tensor<1x512x1536xf32>
  %3414 = linalg.init_tensor [1, 512, 1536] : tensor<1x512x1536xf32>
  %3415 = linalg.generic {indexing_maps = [affine_map<(d0, d1, d2) -> (d0, d1, d2)>, affine_map<(d0, d1, d2) -> (d0, d1, d2)>, affine_map<(d0, d1, d2) -> (d0, d1, d2)>], iterator_types = ["parallel", "parallel", "parallel"]} ins(%3413, %3405 : tensor<1x512x1536xf32>, tensor<1x512x1536xf32>) outs(%3414 : tensor<1x512x1536xf32>) {
  ^bb0(%arg3: f32):
    %3531 = arith.mulf %arg3, %arg4 : f32
    linalg.yield %3531 : f32
  } -> tensor<1x512x1536xf32>
  %cst_358 = arith.constant dense<-2.10102394E-6> : tensor<1x512x1536xf32>
  %3416 = linalg.init_tensor [1, 512, 1536] : tensor<1x512x1536xf32>
  %3417 = linalg.generic {indexing_maps = [affine_map<(d0, d1, d2) -> (d0, d1, d2)>, affine_map<(d0, d1, d2) -> (d0, d1, d2)>, affine_map<(d0, d1, d2) -> (d0, d1, d2)>], iterator_types = ["parallel", "parallel", "parallel"]} ins(%3415, %cst_358 : tensor<1x512x1536xf32>, tensor<1x512x1536xf32>) outs(%3416 : tensor<1x512x1536xf32>) {
  ^bb0(%arg3: f32):
    %3531 = arith.addf %arg3, %arg4 : f32
    linalg.yield %3531 : f32
  } -> tensor<1x512x1536xf32>
  %3418 = linalg.init_tensor [1, 512, 1536] : tensor<1x512x1536xf32>
  %3419 = linalg.generic {indexing_maps = [affine_map<(d0, d1, d2) -> (d0, d1, d2)>, affine_map<(d0, d1, d2) -> (d0, d1, d2)>, affine_map<(d0, d1, d2) -> (d0, d1, d2)>], iterator_types = ["parallel", "parallel", "parallel"]} ins(%3417, %3405 : tensor<1x512x1536xf32>, tensor<1x512x1536xf32>) outs(%3418 : tensor<1x512x1536xf32>) {
  ^bb0(%arg3: f32):
    %3531 = arith.mulf %arg3, %arg4 : f32
    linalg.yield %3531 : f32
  } -> tensor<1x512x1536xf32>
  %cst_359 = arith.constant dense<-5.69250624E-5> : tensor<1x512x1536xf32>
  %3420 = linalg.init_tensor [1, 512, 1536] : tensor<1x512x1536xf32>
  %3421 = linalg.generic {indexing_maps = [affine_map<(d0, d1, d2) -> (d0, d1, d2)>, affine_map<(d0, d1, d2) -> (d0, d1, d2)>, affine_map<(d0, d1, d2) -> (d0, d1, d2)>], iterator_types = ["parallel", "parallel", "parallel"]} ins(%3419, %cst_359 : tensor<1x512x1536xf32>, tensor<1x512x1536xf32>) outs(%3420 : tensor<1x512x1536xf32>) {
  ^bb0(%arg3: f32):
    %3531 = arith.addf %arg3, %arg4 : f32
    linalg.yield %3531 : f32
  } -> tensor<1x512x1536xf32>
  %3422 = linalg.init_tensor [1, 512, 1536] : tensor<1x512x1536xf32>
  %3423 = linalg.generic {indexing_maps = [affine_map<(d0, d1, d2) -> (d0, d1, d2)>, affine_map<(d0, d1, d2) -> (d0, d1, d2)>, affine_map<(d0, d1, d2) -> (d0, d1, d2)>], iterator_types = ["parallel", "parallel", "parallel"]} ins(%3421, %3405 : tensor<1x512x1536xf32>, tensor<1x512x1536xf32>) outs(%3422 : tensor<1x512x1536xf32>) {
  ^bb0(%arg3: f32):
    %3531 = arith.mulf %arg3, %arg4 : f32
    linalg.yield %3531 : f32
  } -> tensor<1x512x1536xf32>
  %cst_360 = arith.constant dense<-7.34990637E-4> : tensor<1x512x1536xf32>
  %3424 = linalg.init_tensor [1, 512, 1536] : tensor<1x512x1536xf32>
  %3425 = linalg.generic {indexing_maps = [affine_map<(d0, d1, d2) -> (d0, d1, d2)>, affine_map<(d0, d1, d2) -> (d0, d1, d2)>, affine_map<(d0, d1, d2) -> (d0, d1, d2)>], iterator_types = ["parallel", "parallel", "parallel"]} ins(%3423, %cst_360 : tensor<1x512x1536xf32>, tensor<1x512x1536xf32>) outs(%3424 : tensor<1x512x1536xf32>) {
  ^bb0(%arg3: f32):
    %3531 = arith.addf %arg3, %arg4 : f32
    linalg.yield %3531 : f32
  } -> tensor<1x512x1536xf32>
  %3426 = linalg.init_tensor [1, 512, 1536] : tensor<1x512x1536xf32>
  %3427 = linalg.generic {indexing_maps = [affine_map<(d0, d1, d2) -> (d0, d1, d2)>, affine_map<(d0, d1, d2) -> (d0, d1, d2)>, affine_map<(d0, d1, d2) -> (d0, d1, d2)>], iterator_types = ["parallel", "parallel", "parallel"]} ins(%3425, %3405 : tensor<1x512x1536xf32>, tensor<1x512x1536xf32>) outs(%3426 : tensor<1x512x1536xf32>) {
  ^bb0(%arg3: f32):
    %3531 = arith.mulf %arg3, %arg4 : f32
    linalg.yield %3531 : f32
  } -> tensor<1x512x1536xf32>
  %cst_361 = arith.constant dense<-2.954600e-03> : tensor<1x512x1536xf32>
  %3428 = linalg.init_tensor [1, 512, 1536] : tensor<1x512x1536xf32>
  %3429 = linalg.generic {indexing_maps = [affine_map<(d0, d1, d2) -> (d0, d1, d2)>, affine_map<(d0, d1, d2) -> (d0, d1, d2)>, affine_map<(d0, d1, d2) -> (d0, d1, d2)>], iterator_types = ["parallel", "parallel", "parallel"]} ins(%3427, %cst_361 : tensor<1x512x1536xf32>, tensor<1x512x1536xf32>) outs(%3428 : tensor<1x512x1536xf32>) {
  ^bb0(%arg3: f32):
    %3531 = arith.addf %arg3, %arg4 : f32
    linalg.yield %3531 : f32
  } -> tensor<1x512x1536xf32>
  %3430 = linalg.init_tensor [1, 512, 1536] : tensor<1x512x1536xf32>
  %3431 = linalg.generic {indexing_maps = [affine_map<(d0, d1, d2) -> (d0, d1, d2)>, affine_map<(d0, d1, d2) -> (d0, d1, d2)>, affine_map<(d0, d1, d2) -> (d0, d1, d2)>], iterator_types = ["parallel", "parallel", "parallel"]} ins(%3429, %3405 : tensor<1x512x1536xf32>, tensor<1x512x1536xf32>) outs(%3430 : tensor<1x512x1536xf32>) {
  ^bb0(%arg3: f32):
    %3531 = arith.mulf %arg3, %arg4 : f32
    linalg.yield %3531 : f32
  } -> tensor<1x512x1536xf32>
  %cst_362 = arith.constant dense<-0.0160960332> : tensor<1x512x1536xf32>
  %3432 = linalg.init_tensor [1, 512, 1536] : tensor<1x512x1536xf32>
  %3433 = linalg.generic {indexing_maps = [affine_map<(d0, d1, d2) -> (d0, d1, d2)>, affine_map<(d0, d1, d2) -> (d0, d1, d2)>, affine_map<(d0, d1, d2) -> (d0, d1, d2)>], iterator_types = ["parallel", "parallel", "parallel"]} ins(%3431, %cst_362 : tensor<1x512x1536xf32>, tensor<1x512x1536xf32>) outs(%3432 : tensor<1x512x1536xf32>) {
  ^bb0(%arg3: f32):
    %3531 = arith.addf %arg3, %arg4 : f32
    linalg.yield %3531 : f32
  } -> tensor<1x512x1536xf32>
  %cst_363 = arith.constant dense<0.000000e+00> : tensor<1x512x1536xf32>
  %3434 = linalg.init_tensor [1, 512, 1536] : tensor<1x512x1536xf32>
  %3435 = linalg.generic {indexing_maps = [affine_map<(d0, d1, d2) -> (d0, d1, d2)>, affine_map<(d0, d1, d2) -> (d0, d1, d2)>, affine_map<(d0, d1, d2) -> (d0, d1, d2)>], iterator_types = ["parallel", "parallel", "parallel"]} ins(%cst_363, %3405 : tensor<1x512x1536xf32>, tensor<1x512x1536xf32>) outs(%3434 : tensor<1x512x1536xf32>) {
  ^bb0(%arg3: f32):
    %3531 = arith.mulf %arg3, %arg4 : f32
    linalg.yield %3531 : f32
  } -> tensor<1x512x1536xf32>
  %cst_364 = arith.constant dense<-1.45660715E-5> : tensor<1x512x1536xf32>
  %3436 = linalg.init_tensor [1, 512, 1536] : tensor<1x512x1536xf32>
  %3437 = linalg.generic {indexing_maps = [affine_map<(d0, d1, d2) -> (d0, d1, d2)>, affine_map<(d0, d1, d2) -> (d0, d1, d2)>, affine_map<(d0, d1, d2) -> (d0, d1, d2)>], iterator_types = ["parallel", "parallel", "parallel"]} ins(%3435, %cst_364 : tensor<1x512x1536xf32>, tensor<1x512x1536xf32>) outs(%3436 : tensor<1x512x1536xf32>) {
  ^bb0(%arg3: f32):
    %3531 = arith.addf %arg3, %arg4 : f32
    linalg.yield %3531 : f32
  } -> tensor<1x512x1536xf32>
  %3438 = linalg.init_tensor [1, 512, 1536] : tensor<1x512x1536xf32>
  %3439 = linalg.generic {indexing_maps = [affine_map<(d0, d1, d2) -> (d0, d1, d2)>, affine_map<(d0, d1, d2) -> (d0, d1, d2)>, affine_map<(d0, d1, d2) -> (d0, d1, d2)>], iterator_types = ["parallel", "parallel", "parallel"]} ins(%3437, %3405 : tensor<1x512x1536xf32>, tensor<1x512x1536xf32>) outs(%3438 : tensor<1x512x1536xf32>) {
  ^bb0(%arg3: f32):
    %3531 = arith.mulf %arg3, %arg4 : f32
    linalg.yield %3531 : f32
  } -> tensor<1x512x1536xf32>
  %cst_365 = arith.constant dense<-2.13374049E-4> : tensor<1x512x1536xf32>
  %3440 = linalg.init_tensor [1, 512, 1536] : tensor<1x512x1536xf32>
  %3441 = linalg.generic {indexing_maps = [affine_map<(d0, d1, d2) -> (d0, d1, d2)>, affine_map<(d0, d1, d2) -> (d0, d1, d2)>, affine_map<(d0, d1, d2) -> (d0, d1, d2)>], iterator_types = ["parallel", "parallel", "parallel"]} ins(%3439, %cst_365 : tensor<1x512x1536xf32>, tensor<1x512x1536xf32>) outs(%3440 : tensor<1x512x1536xf32>) {
  ^bb0(%arg3: f32):
    %3531 = arith.addf %arg3, %arg4 : f32
    linalg.yield %3531 : f32
  } -> tensor<1x512x1536xf32>
  %3442 = linalg.init_tensor [1, 512, 1536] : tensor<1x512x1536xf32>
  %3443 = linalg.generic {indexing_maps = [affine_map<(d0, d1, d2) -> (d0, d1, d2)>, affine_map<(d0, d1, d2) -> (d0, d1, d2)>, affine_map<(d0, d1, d2) -> (d0, d1, d2)>], iterator_types = ["parallel", "parallel", "parallel"]} ins(%3441, %3405 : tensor<1x512x1536xf32>, tensor<1x512x1536xf32>) outs(%3442 : tensor<1x512x1536xf32>) {
  ^bb0(%arg3: f32):
    %3531 = arith.mulf %arg3, %arg4 : f32
    linalg.yield %3531 : f32
  } -> tensor<1x512x1536xf32>
  %cst_366 = arith.constant dense<-0.00168282702> : tensor<1x512x1536xf32>
  %3444 = linalg.init_tensor [1, 512, 1536] : tensor<1x512x1536xf32>
  %3445 = linalg.generic {indexing_maps = [affine_map<(d0, d1, d2) -> (d0, d1, d2)>, affine_map<(d0, d1, d2) -> (d0, d1, d2)>, affine_map<(d0, d1, d2) -> (d0, d1, d2)>], iterator_types = ["parallel", "parallel", "parallel"]} ins(%3443, %cst_366 : tensor<1x512x1536xf32>, tensor<1x512x1536xf32>) outs(%3444 : tensor<1x512x1536xf32>) {
  ^bb0(%arg3: f32):
    %3531 = arith.addf %arg3, %arg4 : f32
    linalg.yield %3531 : f32
  } -> tensor<1x512x1536xf32>
  %3446 = linalg.init_tensor [1, 512, 1536] : tensor<1x512x1536xf32>
  %3447 = linalg.generic {indexing_maps = [affine_map<(d0, d1, d2) -> (d0, d1, d2)>, affine_map<(d0, d1, d2) -> (d0, d1, d2)>, affine_map<(d0, d1, d2) -> (d0, d1, d2)>], iterator_types = ["parallel", "parallel", "parallel"]} ins(%3445, %3405 : tensor<1x512x1536xf32>, tensor<1x512x1536xf32>) outs(%3446 : tensor<1x512x1536xf32>) {
  ^bb0(%arg3: f32):
    %3531 = arith.mulf %arg3, %arg4 : f32
    linalg.yield %3531 : f32
  } -> tensor<1x512x1536xf32>
  %cst_367 = arith.constant dense<-0.00737332925> : tensor<1x512x1536xf32>
  %3448 = linalg.init_tensor [1, 512, 1536] : tensor<1x512x1536xf32>
  %3449 = linalg.generic {indexing_maps = [affine_map<(d0, d1, d2) -> (d0, d1, d2)>, affine_map<(d0, d1, d2) -> (d0, d1, d2)>, affine_map<(d0, d1, d2) -> (d0, d1, d2)>], iterator_types = ["parallel", "parallel", "parallel"]} ins(%3447, %cst_367 : tensor<1x512x1536xf32>, tensor<1x512x1536xf32>) outs(%3448 : tensor<1x512x1536xf32>) {
  ^bb0(%arg3: f32):
    %3531 = arith.addf %arg3, %arg4 : f32
    linalg.yield %3531 : f32
  } -> tensor<1x512x1536xf32>
  %3450 = linalg.init_tensor [1, 512, 1536] : tensor<1x512x1536xf32>
  %3451 = linalg.generic {indexing_maps = [affine_map<(d0, d1, d2) -> (d0, d1, d2)>, affine_map<(d0, d1, d2) -> (d0, d1, d2)>, affine_map<(d0, d1, d2) -> (d0, d1, d2)>], iterator_types = ["parallel", "parallel", "parallel"]} ins(%3449, %3405 : tensor<1x512x1536xf32>, tensor<1x512x1536xf32>) outs(%3450 : tensor<1x512x1536xf32>) {
  ^bb0(%arg3: f32):
    %3531 = arith.mulf %arg3, %arg4 : f32
    linalg.yield %3531 : f32
  } -> tensor<1x512x1536xf32>
  %cst_368 = arith.constant dense<-0.0142647391> : tensor<1x512x1536xf32>
  %3452 = linalg.init_tensor [1, 512, 1536] : tensor<1x512x1536xf32>
  %3453 = linalg.generic {indexing_maps = [affine_map<(d0, d1, d2) -> (d0, d1, d2)>, affine_map<(d0, d1, d2) -> (d0, d1, d2)>, affine_map<(d0, d1, d2) -> (d0, d1, d2)>], iterator_types = ["parallel", "parallel", "parallel"]} ins(%3451, %cst_368 : tensor<1x512x1536xf32>, tensor<1x512x1536xf32>) outs(%3452 : tensor<1x512x1536xf32>) {
  ^bb0(%arg3: f32):
    %3531 = arith.addf %arg3, %arg4 : f32
    linalg.yield %3531 : f32
  } -> tensor<1x512x1536xf32>
  %3454 = linalg.init_tensor [1, 512, 1536] : tensor<1x512x1536xf32>
  %3455 = linalg.generic {indexing_maps = [affine_map<(d0, d1, d2) -> (d0, d1, d2)>, affine_map<(d0, d1, d2) -> (d0, d1, d2)>, affine_map<(d0, d1, d2) -> (d0, d1, d2)>], iterator_types = ["parallel", "parallel", "parallel"]} ins(%3403, %3433 : tensor<1x512x1536xf32>, tensor<1x512x1536xf32>) outs(%3454 : tensor<1x512x1536xf32>) {
  ^bb0(%arg3: f32):
    %3531 = arith.mulf %arg3, %arg4 : f32
    linalg.yield %3531 : f32
  } -> tensor<1x512x1536xf32>
  %3456 = linalg.init_tensor [1, 512, 1536] : tensor<1x512x1536xf32>
  %3457 = linalg.generic {indexing_maps = [affine_map<(d0, d1, d2) -> (d0, d1, d2)>, affine_map<(d0, d1, d2) -> (d0, d1, d2)>, affine_map<(d0, d1, d2) -> (d0, d1, d2)>], iterator_types = ["parallel", "parallel", "parallel"]} ins(%3455, %3453 : tensor<1x512x1536xf32>, tensor<1x512x1536xf32>) outs(%3456 : tensor<1x512x1536xf32>) {
  ^bb0(%arg3: f32):
    %3531 = arith.divf %arg3, %arg4 : f32
    linalg.yield %3531 : f32
  } -> tensor<1x512x1536xf32>
  %3458 = linalg.init_tensor [1, 512, 1536] : tensor<1x512x1536xf32>
  %3459 = linalg.generic {indexing_maps = [affine_map<(d0, d1, d2) -> ()>, affine_map<(d0, d1, d2) -> (d0, d1, d2)>], iterator_types = ["parallel", "parallel", "parallel"]} ins(%cst_3 : tensor<f32>) outs(%3458 : tensor<1x512x1536xf32>) {
  ^bb0(%arg3: f32):
    linalg.yield %arg3 : f32
  } -> tensor<1x512x1536xf32>
  %3460 = linalg.init_tensor [1, 512, 1536] : tensor<1x512x1536xf32>
  %3461 = linalg.generic {indexing_maps = [affine_map<(d0, d1, d2) -> (d0, d1, d2)>, affine_map<(d0, d1, d2) -> (d0, d1, d2)>, affine_map<(d0, d1, d2) -> (d0, d1, d2)>], iterator_types = ["parallel", "parallel", "parallel"]} ins(%3457, %3459 : tensor<1x512x1536xf32>, tensor<1x512x1536xf32>) outs(%3460 : tensor<1x512x1536xf32>) {
  ^bb0(%arg3: f32):
    %3531 = arith.addf %arg3, %arg4 : f32
    linalg.yield %3531 : f32
  } -> tensor<1x512x1536xf32>
  %3462 = linalg.init_tensor [1, 512, 1536] : tensor<1x512x1536xf32>
  %3463 = linalg.generic {indexing_maps = [affine_map<(d0, d1, d2) -> (d0, d1, d2)>, affine_map<(d0, d1, d2) -> (d0, d1, d2)>, affine_map<(d0, d1, d2) -> (d0, d1, d2)>], iterator_types = ["parallel", "parallel", "parallel"]} ins(%3397, %3461 : tensor<1x512x1536xf32>, tensor<1x512x1536xf32>) outs(%3462 : tensor<1x512x1536xf32>) {
  ^bb0(%arg3: f32):
    %3531 = arith.mulf %arg3, %arg4 : f32
    linalg.yield %3531 : f32
  } -> tensor<1x512x1536xf32>
  %3464 = tensor.collapse_shape %3463 [[0, 1], [2]] : tensor<1x512x1536xf32> into tensor<512x1536xf32>
  %3465 = linalg.init_tensor [512, 384] : tensor<512x384xf32>
  %cst_369 = arith.constant 0.000000e+00 : f32
  %3466 = linalg.fill ins(%cst_369 : f32) outs(%3465 : tensor<512x384xf32>) -> tensor<512x384xf32>
  %3467 = linalg.matmul ins(%3464, %62 : tensor<512x1536xf32>, tensor<1536x384xf32>) outs(%3466 : tensor<512x384xf32>) -> tensor<512x384xf32>
  %3468 = tensor.expand_shape %3467 [[0, 1], [2]] : tensor<512x384xf32> into tensor<1x512x384xf32>
  %3469 = linalg.init_tensor [1, 512, 384] : tensor<1x512x384xf32>
  %3470 = linalg.generic {indexing_maps = [affine_map<(d0, d1, d2) -> (d2)>, affine_map<(d0, d1, d2) -> (d0, d1, d2)>], iterator_types = ["parallel", "parallel", "parallel"]} ins(%61 : tensor<384xf32>) outs(%3469 : tensor<1x512x384xf32>) {
  ^bb0(%arg3: f32):
    linalg.yield %arg3 : f32
  } -> tensor<1x512x384xf32>
  %3471 = linalg.init_tensor [1, 512, 384] : tensor<1x512x384xf32>
  %3472 = linalg.generic {indexing_maps = [affine_map<(d0, d1, d2) -> (d0, d1, d2)>, affine_map<(d0, d1, d2) -> (d0, d1, d2)>, affine_map<(d0, d1, d2) -> (d0, d1, d2)>], iterator_types = ["parallel", "parallel", "parallel"]} ins(%3468, %3470 : tensor<1x512x384xf32>, tensor<1x512x384xf32>) outs(%3471 : tensor<1x512x384xf32>) {
  ^bb0(%arg3: f32):
    %3531 = arith.addf %arg3, %arg4 : f32
    linalg.yield %3531 : f32
  } -> tensor<1x512x384xf32>
  %3473 = linalg.init_tensor [1, 512, 384] : tensor<1x512x384xf32>
  %3474 = linalg.generic {indexing_maps = [affine_map<(d0, d1, d2) -> (d0, d1, d2)>, affine_map<(d0, d1, d2) -> (d0, d1, d2)>, affine_map<(d0, d1, d2) -> (d0, d1, d2)>], iterator_types = ["parallel", "parallel", "parallel"]} ins(%3472, %3384 : tensor<1x512x384xf32>, tensor<1x512x384xf32>) outs(%3473 : tensor<1x512x384xf32>) {
  ^bb0(%arg3: f32):
    %3531 = arith.addf %arg3, %arg4 : f32
    linalg.yield %3531 : f32
  } -> tensor<1x512x384xf32>
  %cst_370 = arith.constant -0.000000e+00 : f32
  %3475 = linalg.init_tensor [1, 512] : tensor<1x512xf32>
  %3476 = linalg.fill ins(%cst_370 : f32) outs(%3475 : tensor<1x512xf32>) -> tensor<1x512xf32>
  %3477 = linalg.generic {indexing_maps = [affine_map<(d0, d1, d2) -> (d0, d1, d2)>, affine_map<(d0, d1, d2) -> (d0, d1)>], iterator_types = ["parallel", "parallel", "reduction"]} ins(%3474 : tensor<1x512x384xf32>) outs(%3476 : tensor<1x512xf32>) {
  ^bb0(%arg3: f32, %arg4: f32 loc(unknown)):
    %3531 = tensor.from_elements %arg4 : tensor<f32>
    %3532 = tensor.from_elements %arg3 : tensor<f32>
    %3533 = tensor.extract %3531[] : tensor<f32>
    %3534 = tensor.extract %3532[] : tensor<f32>
    %3535 = arith.addf %3533, %3534 : f32
    %3536 = tensor.from_elements %3535 : tensor<f32>
    %3537 = tensor.extract %3536[] : tensor<f32>
    linalg.yield %3537 : f32
  } -> tensor<1x512xf32>
  %3478 = linalg.init_tensor [1, 512] : tensor<1x512xf32>
  %3479 = linalg.generic {indexing_maps = [affine_map<(d0, d1) -> ()>, affine_map<(d0, d1) -> (d0, d1)>], iterator_types = ["parallel", "parallel"]} ins(%cst : tensor<f32>) outs(%3478 : tensor<1x512xf32>) {
  ^bb0(%arg3: f32):
    linalg.yield %arg3 : f32
  } -> tensor<1x512xf32>
  %3480 = linalg.init_tensor [1, 512] : tensor<1x512xf32>
  %3481 = linalg.generic {indexing_maps = [affine_map<(d0, d1) -> (d0, d1)>, affine_map<(d0, d1) -> (d0, d1)>, affine_map<(d0, d1) -> (d0, d1)>], iterator_types = ["parallel", "parallel"]} ins(%3477, %3479 : tensor<1x512xf32>, tensor<1x512xf32>) outs(%3480 : tensor<1x512xf32>) {
  ^bb0(%arg3: f32):
    %3531 = arith.divf %arg3, %arg4 : f32
    linalg.yield %3531 : f32
  } -> tensor<1x512xf32>
  %3482 = tensor.expand_shape %3481 [[0], [1, 2]] : tensor<1x512xf32> into tensor<1x512x1xf32>
  %3483 = linalg.init_tensor [1, 512, 384] : tensor<1x512x384xf32>
  %3484 = linalg.generic {indexing_maps = [affine_map<(d0, d1, d2) -> (d0, d1, 0)>, affine_map<(d0, d1, d2) -> (d0, d1, d2)>], iterator_types = ["parallel", "parallel", "parallel"]} ins(%3482 : tensor<1x512x1xf32>) outs(%3483 : tensor<1x512x384xf32>) {
  ^bb0(%arg3: f32):
    linalg.yield %arg3 : f32
  } -> tensor<1x512x384xf32>
  %3485 = linalg.init_tensor [1, 512, 384] : tensor<1x512x384xf32>
  %3486 = linalg.generic {indexing_maps = [affine_map<(d0, d1, d2) -> (d0, d1, d2)>, affine_map<(d0, d1, d2) -> (d0, d1, d2)>, affine_map<(d0, d1, d2) -> (d0, d1, d2)>], iterator_types = ["parallel", "parallel", "parallel"]} ins(%3474, %3484 : tensor<1x512x384xf32>, tensor<1x512x384xf32>) outs(%3485 : tensor<1x512x384xf32>) {
  ^bb0(%arg3: f32):
    %3531 = arith.subf %arg3, %arg4 : f32
    linalg.yield %3531 : f32
  } -> tensor<1x512x384xf32>
  %3487 = linalg.init_tensor [1, 512, 384] : tensor<1x512x384xf32>
  %3488 = linalg.generic {indexing_maps = [affine_map<(d0, d1, d2) -> (d0, d1, d2)>, affine_map<(d0, d1, d2) -> (d0, d1, d2)>, affine_map<(d0, d1, d2) -> (d0, d1, d2)>], iterator_types = ["parallel", "parallel", "parallel"]} ins(%3486, %3486 : tensor<1x512x384xf32>, tensor<1x512x384xf32>) outs(%3487 : tensor<1x512x384xf32>) {
  ^bb0(%arg3: f32):
    %3531 = arith.mulf %arg3, %arg4 : f32
    linalg.yield %3531 : f32
  } -> tensor<1x512x384xf32>
  %cst_371 = arith.constant -0.000000e+00 : f32
  %3489 = linalg.init_tensor [1, 512] : tensor<1x512xf32>
  %3490 = linalg.fill ins(%cst_371 : f32) outs(%3489 : tensor<1x512xf32>) -> tensor<1x512xf32>
  %3491 = linalg.generic {indexing_maps = [affine_map<(d0, d1, d2) -> (d0, d1, d2)>, affine_map<(d0, d1, d2) -> (d0, d1)>], iterator_types = ["parallel", "parallel", "reduction"]} ins(%3488 : tensor<1x512x384xf32>) outs(%3490 : tensor<1x512xf32>) {
  ^bb0(%arg3: f32, %arg4: f32 loc(unknown)):
    %3531 = tensor.from_elements %arg4 : tensor<f32>
    %3532 = tensor.from_elements %arg3 : tensor<f32>
    %3533 = tensor.extract %3531[] : tensor<f32>
    %3534 = tensor.extract %3532[] : tensor<f32>
    %3535 = arith.addf %3533, %3534 : f32
    %3536 = tensor.from_elements %3535 : tensor<f32>
    %3537 = tensor.extract %3536[] : tensor<f32>
    linalg.yield %3537 : f32
  } -> tensor<1x512xf32>
  %3492 = linalg.init_tensor [1, 512] : tensor<1x512xf32>
  %3493 = linalg.generic {indexing_maps = [affine_map<(d0, d1) -> ()>, affine_map<(d0, d1) -> (d0, d1)>], iterator_types = ["parallel", "parallel"]} ins(%cst : tensor<f32>) outs(%3492 : tensor<1x512xf32>) {
  ^bb0(%arg3: f32):
    linalg.yield %arg3 : f32
  } -> tensor<1x512xf32>
  %3494 = linalg.init_tensor [1, 512] : tensor<1x512xf32>
  %3495 = linalg.generic {indexing_maps = [affine_map<(d0, d1) -> (d0, d1)>, affine_map<(d0, d1) -> (d0, d1)>, affine_map<(d0, d1) -> (d0, d1)>], iterator_types = ["parallel", "parallel"]} ins(%3491, %3493 : tensor<1x512xf32>, tensor<1x512xf32>) outs(%3494 : tensor<1x512xf32>) {
  ^bb0(%arg3: f32):
    %3531 = arith.divf %arg3, %arg4 : f32
    linalg.yield %3531 : f32
  } -> tensor<1x512xf32>
  %3496 = tensor.expand_shape %3495 [[0], [1, 2]] : tensor<1x512xf32> into tensor<1x512x1xf32>
  %3497 = linalg.init_tensor [1, 512, 1] : tensor<1x512x1xf32>
  %3498 = linalg.generic {indexing_maps = [affine_map<(d0, d1, d2) -> ()>, affine_map<(d0, d1, d2) -> (d0, d1, d2)>], iterator_types = ["parallel", "parallel", "parallel"]} ins(%cst_4 : tensor<f32>) outs(%3497 : tensor<1x512x1xf32>) {
  ^bb0(%arg3: f32):
    linalg.yield %arg3 : f32
  } -> tensor<1x512x1xf32>
  %3499 = linalg.init_tensor [1, 512, 1] : tensor<1x512x1xf32>
  %3500 = linalg.generic {indexing_maps = [affine_map<(d0, d1, d2) -> (d0, d1, d2)>, affine_map<(d0, d1, d2) -> (d0, d1, d2)>, affine_map<(d0, d1, d2) -> (d0, d1, d2)>], iterator_types = ["parallel", "parallel", "parallel"]} ins(%3496, %3498 : tensor<1x512x1xf32>, tensor<1x512x1xf32>) outs(%3499 : tensor<1x512x1xf32>) {
  ^bb0(%arg3: f32):
    %3531 = arith.addf %arg3, %arg4 : f32
    linalg.yield %3531 : f32
  } -> tensor<1x512x1xf32>
  %3501 = linalg.init_tensor [1, 512, 1] : tensor<1x512x1xf32>
  %3502 = linalg.generic {indexing_maps = [affine_map<(d0, d1, d2) -> (d0, d1, d2)>, affine_map<(d0, d1, d2) -> (d0, d1, d2)>], iterator_types = ["parallel", "parallel", "parallel"]} ins(%3500 : tensor<1x512x1xf32>) outs(%3501 : tensor<1x512x1xf32>) {
  ^bb0(%arg3: f32):
    %3531 = math.rsqrt %arg3 : f32
    linalg.yield %3531 : f32
  } -> tensor<1x512x1xf32>
  %3503 = linalg.init_tensor [1, 512, 384] : tensor<1x512x384xf32>
  %3504 = linalg.generic {indexing_maps = [affine_map<(d0, d1, d2) -> (d0, d1, 0)>, affine_map<(d0, d1, d2) -> (d0, d1, d2)>], iterator_types = ["parallel", "parallel", "parallel"]} ins(%3502 : tensor<1x512x1xf32>) outs(%3503 : tensor<1x512x384xf32>) {
  ^bb0(%arg3: f32):
    linalg.yield %arg3 : f32
  } -> tensor<1x512x384xf32>
  %3505 = linalg.init_tensor [1, 512, 384] : tensor<1x512x384xf32>
  %3506 = linalg.generic {indexing_maps = [affine_map<(d0, d1, d2) -> (d2)>, affine_map<(d0, d1, d2) -> (d0, d1, d2)>], iterator_types = ["parallel", "parallel", "parallel"]} ins(%63 : tensor<384xf32>) outs(%3505 : tensor<1x512x384xf32>) {
  ^bb0(%arg3: f32):
    linalg.yield %arg3 : f32
  } -> tensor<1x512x384xf32>
  %3507 = linalg.init_tensor [1, 512, 384] : tensor<1x512x384xf32>
  %3508 = linalg.generic {indexing_maps = [affine_map<(d0, d1, d2) -> (d0, d1, d2)>, affine_map<(d0, d1, d2) -> (d0, d1, d2)>, affine_map<(d0, d1, d2) -> (d0, d1, d2)>], iterator_types = ["parallel", "parallel", "parallel"]} ins(%3504, %3506 : tensor<1x512x384xf32>, tensor<1x512x384xf32>) outs(%3507 : tensor<1x512x384xf32>) {
  ^bb0(%arg3: f32):
    %3531 = arith.mulf %arg3, %arg4 : f32
    linalg.yield %3531 : f32
  } -> tensor<1x512x384xf32>
  %3509 = linalg.init_tensor [1, 512, 384] : tensor<1x512x384xf32>
  %3510 = linalg.generic {indexing_maps = [affine_map<(d0, d1, d2) -> (d0, d1, d2)>, affine_map<(d0, d1, d2) -> (d0, d1, d2)>, affine_map<(d0, d1, d2) -> (d0, d1, d2)>], iterator_types = ["parallel", "parallel", "parallel"]} ins(%3474, %3508 : tensor<1x512x384xf32>, tensor<1x512x384xf32>) outs(%3509 : tensor<1x512x384xf32>) {
  ^bb0(%arg3: f32):
    %3531 = arith.mulf %arg3, %arg4 : f32
    linalg.yield %3531 : f32
  } -> tensor<1x512x384xf32>
  %3511 = linalg.init_tensor [1, 512, 384] : tensor<1x512x384xf32>
  %3512 = linalg.generic {indexing_maps = [affine_map<(d0, d1, d2) -> (d0, d1, 0)>, affine_map<(d0, d1, d2) -> (d0, d1, d2)>], iterator_types = ["parallel", "parallel", "parallel"]} ins(%3482 : tensor<1x512x1xf32>) outs(%3511 : tensor<1x512x384xf32>) {
  ^bb0(%arg3: f32):
    linalg.yield %arg3 : f32
  } -> tensor<1x512x384xf32>
  %3513 = linalg.init_tensor [1, 512, 384] : tensor<1x512x384xf32>
  %3514 = linalg.generic {indexing_maps = [affine_map<(d0, d1, d2) -> (d0, d1, d2)>, affine_map<(d0, d1, d2) -> (d0, d1, d2)>, affine_map<(d0, d1, d2) -> (d0, d1, d2)>], iterator_types = ["parallel", "parallel", "parallel"]} ins(%3512, %3508 : tensor<1x512x384xf32>, tensor<1x512x384xf32>) outs(%3513 : tensor<1x512x384xf32>) {
  ^bb0(%arg3: f32):
    %3531 = arith.mulf %arg3, %arg4 : f32
    linalg.yield %3531 : f32
  } -> tensor<1x512x384xf32>
  %3515 = linalg.init_tensor [1, 512, 384] : tensor<1x512x384xf32>
  %3516 = linalg.generic {indexing_maps = [affine_map<(d0, d1, d2) -> (d2)>, affine_map<(d0, d1, d2) -> (d0, d1, d2)>], iterator_types = ["parallel", "parallel", "parallel"]} ins(%64 : tensor<384xf32>) outs(%3515 : tensor<1x512x384xf32>) {
  ^bb0(%arg3: f32):
    linalg.yield %arg3 : f32
  } -> tensor<1x512x384xf32>
  %3517 = linalg.init_tensor [1, 512, 384] : tensor<1x512x384xf32>
  %3518 = linalg.generic {indexing_maps = [affine_map<(d0, d1, d2) -> (d0, d1, d2)>, affine_map<(d0, d1, d2) -> (d0, d1, d2)>, affine_map<(d0, d1, d2) -> (d0, d1, d2)>], iterator_types = ["parallel", "parallel", "parallel"]} ins(%3516, %3514 : tensor<1x512x384xf32>, tensor<1x512x384xf32>) outs(%3517 : tensor<1x512x384xf32>) {
  ^bb0(%arg3: f32):
    %3531 = arith.subf %arg3, %arg4 : f32
    linalg.yield %3531 : f32
  } -> tensor<1x512x384xf32>
  %3519 = linalg.init_tensor [1, 512, 384] : tensor<1x512x384xf32>
  %3520 = linalg.generic {indexing_maps = [affine_map<(d0, d1, d2) -> (d0, d1, d2)>, affine_map<(d0, d1, d2) -> (d0, d1, d2)>, affine_map<(d0, d1, d2) -> (d0, d1, d2)>], iterator_types = ["parallel", "parallel", "parallel"]} ins(%3510, %3518 : tensor<1x512x384xf32>, tensor<1x512x384xf32>) outs(%3519 : tensor<1x512x384xf32>) {
  ^bb0(%arg3: f32):
    %3531 = arith.addf %arg3, %arg4 : f32
    linalg.yield %3531 : f32
  } -> tensor<1x512x384xf32>
  %3521 = tensor.extract_slice %3520[0, 0, 0] [1, 1, 384] [1, 1, 1] : tensor<1x512x384xf32> to tensor<1x1x384xf32>
  %3522 = tensor.collapse_shape %3521 [[0], [1, 2]] : tensor<1x1x384xf32> into tensor<1x384xf32>
  %3523 = linalg.init_tensor [1, 384] : tensor<1x384xf32>
  %cst_372 = arith.constant 0.000000e+00 : f32
  %3524 = linalg.fill ins(%cst_372 : f32) outs(%3523 : tensor<1x384xf32>) -> tensor<1x384xf32>
  %3525 = linalg.matmul ins(%3522, %210 : tensor<1x384xf32>, tensor<384x384xf32>) outs(%3524 : tensor<1x384xf32>) -> tensor<1x384xf32>
  %3526 = tensor.expand_shape %209 [[0, 1]] : tensor<384xf32> into tensor<1x384xf32>
  %3527 = linalg.init_tensor [1, 384] : tensor<1x384xf32>
  %3528 = linalg.generic {indexing_maps = [affine_map<(d0, d1) -> (d0, d1)>, affine_map<(d0, d1) -> (d0, d1)>, affine_map<(d0, d1) -> (d0, d1)>], iterator_types = ["parallel", "parallel"]} ins(%3525, %3526 : tensor<1x384xf32>, tensor<1x384xf32>) outs(%3527 : tensor<1x384xf32>) {
  ^bb0(%arg3: f32):
    %3531 = arith.addf %arg3, %arg4 : f32
    linalg.yield %3531 : f32
  } -> tensor<1x384xf32>
  %3529 = linalg.init_tensor [1, 384] : tensor<1x384xf32>
  %3530 = linalg.generic {indexing_maps = [affine_map<(d0, d1) -> (d0, d1)>, affine_map<(d0, d1) -> (d0, d1)>], iterator_types = ["parallel", "parallel"]} ins(%3528 : tensor<1x384xf32>) outs(%3529 : tensor<1x384xf32>) {
  ^bb0(%arg3: f32):
    %3531 = math.tanh %arg3 : f32
    linalg.yield %3531 : f32
  } -> tensor<1x384xf32>
  return %3520, %3530 : tensor<1x512x384xf32>, tensor<1x384xf32>
}
