"builtin.module"() ({
  "ml_program.global"() {sym_name = "__sm_node6__input_layer.w", sym_visibility = "private", type = tensor<128x256xf32>, value = dense<"…"> : tensor<128x256xf32>} : () -> ()
  "ml_program.global"() {sym_name = "__sm_node7__input_layer.b", sym_visibility = "private", type = tensor<256xf32>, value = dense<0.000000e+00> : tensor<256xf32>} : () -> ()
  "ml_program.global"() {sym_name = "__sm_node9__output_layer.w", sym_visibility = "private", type = tensor<256x10xf32>, value = dense<"…"> : tensor<256x10xf32>} : () -> ()
  "ml_program.global"() {sym_name = "__sm_node10__output_layer.b", sym_visibility = "private", type = tensor<10xf32>, value = dense<0.000000e+00> : tensor<10xf32>} : () -> ()
  "ml_program.global"() {sym_name = "__sm_node13__layers.0.w", sym_visibility = "private", type = tensor<256x256xf32>, value = dense<"…"> : tensor<256x256xf32>} : () -> ()
  "ml_program.global"() {sym_name = "__sm_node14__layers.0.b", sym_visibility = "private", type = tensor<256xf32>, value = dense<0.000000e+00> : tensor<256xf32>} : () -> ()
  "func.func"() ({
  ^bb0(%arg0: !iree_input.list<!iree_input.variant> loc(unknown)):
    %0 = "arith.constant"() {value = 0 : index} : () -> index
    %1 = "iree_input.list.get"(%arg0, %0) : (!iree_input.list<!iree_input.variant>, index) -> !iree_input.buffer_view
    %2 = "iree_input.cast.buffer_view_to_tensor"(%1) : (!iree_input.buffer_view) -> tensor<1x128xf32>
    %3 = "func.call"(%2) {callee = @__inference_predict_670} : (tensor<1x128xf32>) -> tensor<1x1x10xf32>
    %4 = "iree_input.cast.tensor_to_buffer_view"(%3) : (tensor<1x1x10xf32>) -> !iree_input.buffer_view
    "func.return"(%4) : (!iree_input.buffer_view) -> ()
  }) {function_type = (!iree_input.list<!iree_input.variant>) -> !iree_input.buffer_view, iree.abi = "{\22a\22:[[\22slist\22,[\22ndarray\22,\22f32\22,2,1,128]]],\22r\22:[[\22ndarray\22,\22f32\22,3,1,1,10]],\22v\22:1}", sym_name = "predict"} : () -> ()
  "func.func"() ({
  ^bb0(%arg0: tensor<1x128xf32> loc(unknown)):
    %0 = "mhlo.constant"() {value = dense<-0.000000e+00> : tensor<f32>} : () -> tensor<f32>
    %1 = "mhlo.constant"() {value = dense<0xFF800000> : tensor<f32>} : () -> tensor<f32>
    %2 = "mhlo.constant"() {value = dense<0.000000e+00> : tensor<f32>} : () -> tensor<f32>
    %3 = "ml_program.global_load"() {global = @__sm_node14__layers.0.b} : () -> tensor<256xf32>
    %4 = "ml_program.global_load"() {global = @__sm_node10__output_layer.b} : () -> tensor<10xf32>
    %5 = "ml_program.global_load"() {global = @__sm_node7__input_layer.b} : () -> tensor<256xf32>
    %6 = "ml_program.global_load"() {global = @__sm_node13__layers.0.w} : () -> tensor<256x256xf32>
    %7 = "ml_program.global_load"() {global = @__sm_node9__output_layer.w} : () -> tensor<256x10xf32>
    %8 = "ml_program.global_load"() {global = @__sm_node6__input_layer.w} : () -> tensor<128x256xf32>
    %9 = "mhlo.reshape"(%arg0) : (tensor<1x128xf32>) -> tensor<1x1x128xf32>
    %10 = "mhlo.reshape"(%8) : (tensor<128x256xf32>) -> tensor<1x128x256xf32>
    %11 = "mhlo.dot_general"(%9, %10) {dot_dimension_numbers = #mhlo.dot<lhs_batching_dimensions = [0], rhs_batching_dimensions = [0], lhs_contracting_dimensions = [2], rhs_contracting_dimensions = [1]>} : (tensor<1x1x128xf32>, tensor<1x128x256xf32>) -> tensor<1x1x256xf32>
    %12 = "chlo.broadcast_add"(%11, %5) {broadcast_dimensions = dense<2> : tensor<1xi64>} : (tensor<1x1x256xf32>, tensor<256xf32>) -> tensor<1x1x256xf32>
    %13 = "chlo.broadcast_maximum"(%12, %2) {broadcast_dimensions = dense<> : tensor<0xi64>} : (tensor<1x1x256xf32>, tensor<f32>) -> tensor<1x1x256xf32>
    %14 = "mhlo.reshape"(%6) : (tensor<256x256xf32>) -> tensor<1x256x256xf32>
    %15 = "mhlo.dot_general"(%13, %14) {dot_dimension_numbers = #mhlo.dot<lhs_batching_dimensions = [0], rhs_batching_dimensions = [0], lhs_contracting_dimensions = [2], rhs_contracting_dimensions = [1]>} : (tensor<1x1x256xf32>, tensor<1x256x256xf32>) -> tensor<1x1x256xf32>
    %16 = "chlo.broadcast_add"(%15, %3) {broadcast_dimensions = dense<2> : tensor<1xi64>} : (tensor<1x1x256xf32>, tensor<256xf32>) -> tensor<1x1x256xf32>
    %17 = "chlo.broadcast_maximum"(%16, %2) {broadcast_dimensions = dense<> : tensor<0xi64>} : (tensor<1x1x256xf32>, tensor<f32>) -> tensor<1x1x256xf32>
    %18 = "mhlo.reshape"(%7) : (tensor<256x10xf32>) -> tensor<1x256x10xf32>
    %19 = "mhlo.dot_general"(%17, %18) {dot_dimension_numbers = #mhlo.dot<lhs_batching_dimensions = [0], rhs_batching_dimensions = [0], lhs_contracting_dimensions = [2], rhs_contracting_dimensions = [1]>} : (tensor<1x1x256xf32>, tensor<1x256x10xf32>) -> tensor<1x1x10xf32>
    %20 = "chlo.broadcast_add"(%19, %4) {broadcast_dimensions = dense<2> : tensor<1xi64>} : (tensor<1x1x10xf32>, tensor<10xf32>) -> tensor<1x1x10xf32>
    %21 = "chlo.broadcast_maximum"(%20, %2) {broadcast_dimensions = dense<> : tensor<0xi64>} : (tensor<1x1x10xf32>, tensor<f32>) -> tensor<1x1x10xf32>
    %22 = "mhlo.reduce"(%21, %1) ({
    ^bb0(%arg1: tensor<f32> loc(fused["Softmax:", callsite("Softmax@__inference_predict_67"("/home/rengolin/devel/intel/mlir-generator/front-ends/iree/models/venv/lib/python3.10/site-packages/tensorflow/python/util/dispatch.py":1082:0) at callsite("/home/rengolin/devel/intel/mlir-generator/front-ends/iree/models/venv/lib/python3.10/site-packages/tensorflow/python/util/traceback_utils.py":150:0 at callsite("/home/rengolin/devel/intel/mlir-generator/front-ends/iree/models/model_builder.py":47:0 at callsite("/home/rengolin/devel/intel/mlir-generator/front-ends/iree/models/venv/lib/python3.10/site-packages/tensorflow/python/framework/func_graph.py":1116:0 at callsite("/home/rengolin/devel/intel/mlir-generator/front-ends/iree/models/venv/lib/python3.10/site-packages/tensorflow/python/eager/function.py":3251:0 at callsite("/home/rengolin/devel/intel/mlir-generator/front-ends/iree/models/venv/lib/python3.10/site-packages/tensorflow/python/eager/def_function.py":677:0 at callsite("/home/rengolin/devel/intel/mlir-generator/front-ends/iree/models/venv/lib/python3.10/site-packages/tensorflow/python/framework/func_graph.py":1141:0 at callsite("/home/rengolin/devel/intel/mlir-generator/front-ends/iree/models/venv/lib/python3.10/site-packages/tensorflow/python/eager/function.py":2627:0 at callsite("/home/rengolin/devel/intel/mlir-generator/front-ends/iree/models/venv/lib/python3.10/site-packages/tensorflow/python/eager/function.py":2711:0 at "/home/rengolin/devel/intel/mlir-generator/front-ends/iree/models/venv/lib/python3.10/site-packages/tensorflow/python/eager/function.py":2480:0)))))))))]), %arg2: tensor<f32> loc(fused["Softmax:", callsite("Softmax@__inference_predict_67"("/home/rengolin/devel/intel/mlir-generator/front-ends/iree/models/venv/lib/python3.10/site-packages/tensorflow/python/util/dispatch.py":1082:0) at callsite("/home/rengolin/devel/intel/mlir-generator/front-ends/iree/models/venv/lib/python3.10/site-packages/tensorflow/python/util/traceback_utils.py":150:0 at callsite("/home/rengolin/devel/intel/mlir-generator/front-ends/iree/models/model_builder.py":47:0 at callsite("/home/rengolin/devel/intel/mlir-generator/front-ends/iree/models/venv/lib/python3.10/site-packages/tensorflow/python/framework/func_graph.py":1116:0 at callsite("/home/rengolin/devel/intel/mlir-generator/front-ends/iree/models/venv/lib/python3.10/site-packages/tensorflow/python/eager/function.py":3251:0 at callsite("/home/rengolin/devel/intel/mlir-generator/front-ends/iree/models/venv/lib/python3.10/site-packages/tensorflow/python/eager/def_function.py":677:0 at callsite("/home/rengolin/devel/intel/mlir-generator/front-ends/iree/models/venv/lib/python3.10/site-packages/tensorflow/python/framework/func_graph.py":1141:0 at callsite("/home/rengolin/devel/intel/mlir-generator/front-ends/iree/models/venv/lib/python3.10/site-packages/tensorflow/python/eager/function.py":2627:0 at callsite("/home/rengolin/devel/intel/mlir-generator/front-ends/iree/models/venv/lib/python3.10/site-packages/tensorflow/python/eager/function.py":2711:0 at "/home/rengolin/devel/intel/mlir-generator/front-ends/iree/models/venv/lib/python3.10/site-packages/tensorflow/python/eager/function.py":2480:0)))))))))])):
      %29 = "mhlo.maximum"(%arg1, %arg2) : (tensor<f32>, tensor<f32>) -> tensor<f32>
      "mhlo.return"(%29) : (tensor<f32>) -> ()
    }) {dimensions = dense<2> : tensor<1xi64>} : (tensor<1x1x10xf32>, tensor<f32>) -> tensor<1x1xf32>
    %23 = "tensor.expand_shape"(%22) {reassociation = [[0], [1, 2]]} : (tensor<1x1xf32>) -> tensor<1x1x1xf32>
    %24 = "chlo.broadcast_subtract"(%21, %23) : (tensor<1x1x10xf32>, tensor<1x1x1xf32>) -> tensor<1x1x10xf32>
    %25 = "mhlo.exponential"(%24) : (tensor<1x1x10xf32>) -> tensor<1x1x10xf32>
    %26 = "mhlo.reduce"(%25, %0) ({
    ^bb0(%arg1: tensor<f32> loc(fused["Softmax:", callsite("Softmax@__inference_predict_67"("/home/rengolin/devel/intel/mlir-generator/front-ends/iree/models/venv/lib/python3.10/site-packages/tensorflow/python/util/dispatch.py":1082:0) at callsite("/home/rengolin/devel/intel/mlir-generator/front-ends/iree/models/venv/lib/python3.10/site-packages/tensorflow/python/util/traceback_utils.py":150:0 at callsite("/home/rengolin/devel/intel/mlir-generator/front-ends/iree/models/model_builder.py":47:0 at callsite("/home/rengolin/devel/intel/mlir-generator/front-ends/iree/models/venv/lib/python3.10/site-packages/tensorflow/python/framework/func_graph.py":1116:0 at callsite("/home/rengolin/devel/intel/mlir-generator/front-ends/iree/models/venv/lib/python3.10/site-packages/tensorflow/python/eager/function.py":3251:0 at callsite("/home/rengolin/devel/intel/mlir-generator/front-ends/iree/models/venv/lib/python3.10/site-packages/tensorflow/python/eager/def_function.py":677:0 at callsite("/home/rengolin/devel/intel/mlir-generator/front-ends/iree/models/venv/lib/python3.10/site-packages/tensorflow/python/framework/func_graph.py":1141:0 at callsite("/home/rengolin/devel/intel/mlir-generator/front-ends/iree/models/venv/lib/python3.10/site-packages/tensorflow/python/eager/function.py":2627:0 at callsite("/home/rengolin/devel/intel/mlir-generator/front-ends/iree/models/venv/lib/python3.10/site-packages/tensorflow/python/eager/function.py":2711:0 at "/home/rengolin/devel/intel/mlir-generator/front-ends/iree/models/venv/lib/python3.10/site-packages/tensorflow/python/eager/function.py":2480:0)))))))))]), %arg2: tensor<f32> loc(fused["Softmax:", callsite("Softmax@__inference_predict_67"("/home/rengolin/devel/intel/mlir-generator/front-ends/iree/models/venv/lib/python3.10/site-packages/tensorflow/python/util/dispatch.py":1082:0) at callsite("/home/rengolin/devel/intel/mlir-generator/front-ends/iree/models/venv/lib/python3.10/site-packages/tensorflow/python/util/traceback_utils.py":150:0 at callsite("/home/rengolin/devel/intel/mlir-generator/front-ends/iree/models/model_builder.py":47:0 at callsite("/home/rengolin/devel/intel/mlir-generator/front-ends/iree/models/venv/lib/python3.10/site-packages/tensorflow/python/framework/func_graph.py":1116:0 at callsite("/home/rengolin/devel/intel/mlir-generator/front-ends/iree/models/venv/lib/python3.10/site-packages/tensorflow/python/eager/function.py":3251:0 at callsite("/home/rengolin/devel/intel/mlir-generator/front-ends/iree/models/venv/lib/python3.10/site-packages/tensorflow/python/eager/def_function.py":677:0 at callsite("/home/rengolin/devel/intel/mlir-generator/front-ends/iree/models/venv/lib/python3.10/site-packages/tensorflow/python/framework/func_graph.py":1141:0 at callsite("/home/rengolin/devel/intel/mlir-generator/front-ends/iree/models/venv/lib/python3.10/site-packages/tensorflow/python/eager/function.py":2627:0 at callsite("/home/rengolin/devel/intel/mlir-generator/front-ends/iree/models/venv/lib/python3.10/site-packages/tensorflow/python/eager/function.py":2711:0 at "/home/rengolin/devel/intel/mlir-generator/front-ends/iree/models/venv/lib/python3.10/site-packages/tensorflow/python/eager/function.py":2480:0)))))))))])):
      %29 = "mhlo.add"(%arg1, %arg2) : (tensor<f32>, tensor<f32>) -> tensor<f32>
      "mhlo.return"(%29) : (tensor<f32>) -> ()
    }) {dimensions = dense<2> : tensor<1xi64>} : (tensor<1x1x10xf32>, tensor<f32>) -> tensor<1x1xf32>
    %27 = "tensor.expand_shape"(%26) {reassociation = [[0], [1, 2]]} : (tensor<1x1xf32>) -> tensor<1x1x1xf32>
    %28 = "chlo.broadcast_divide"(%25, %27) : (tensor<1x1x10xf32>, tensor<1x1x1xf32>) -> tensor<1x1x10xf32>
    "func.return"(%28) : (tensor<1x1x10xf32>) -> ()
  }) {arg_attrs = [{tf._user_specified_name = "x"}], function_type = (tensor<1x128xf32>) -> tensor<1x1x10xf32>, sym_name = "__inference_predict_670", sym_visibility = "private", tf._construction_context = "kEagerRuntime", tf._input_shapes = [#tf_type.shape<1x128>, #tf_type.shape<>, #tf_type.shape<>, #tf_type.shape<>, #tf_type.shape<>, #tf_type.shape<>, #tf_type.shape<>], tf.signature.is_stateful} : () -> ()
}) : () -> ()
